modelF.pt (torch, 137925 bytes, 8 tensors)

0.weight f4 [128, 2]
0	0xbe908e95	-0.2823378
1	0x3ded6f04	0.1159344
2	0xbed57ec1	-0.41698268
3	0x3f274bf6	0.6535028
4	0xbd644983	-0.05573417
5	0xbe0d879d	-0.13821264
6	0xbdba62b8	-0.0910086
7	0xbeee73e8	-0.46572804
8	0x3e019ba3	0.12657027
9	0xbd5c0b31	-0.05372161
10	0x3d9ce3d7	0.076606445
11	0x3e7fe4ec	0.2498967
12	0x3f2674cb	0.6502196
13	0x3e5b4885	0.21414383
14	0x3ec55cd8	0.38547397
15	0x3e87ad79	0.26499537
16	0xbdb3b07c	-0.08773896
17	0x3f0d5125	0.5520194
18	0x3eeb3fae	0.4594702
19	0x3e94904b	0.29016337
20	0xbda0f3c1	-0.07858992
21	0xbde06391	-0.10956491
22	0x3c242b68	0.0100201145
23	0x3f425da4	0.75924134
24	0x3f0e53e2	0.55596745
25	0x3f0d6111	0.55226237
26	0xbd9bfa07	-0.07616048
27	0xbe67cdf6	-0.22637162
28	0xbdb1c5e6	-0.08680324
29	0xbd8758ee	-0.06608759
30	0xbf001fb1	-0.5004836
31	0xbf1a3bd4	-0.6024754
32	0xbea28816	-0.3174445
33	0xbee6397d	-0.44965735
34	0x3dd841b4	0.10559407
35	0x3be9e070	0.0071373507
36	0xbe602761	-0.21890022
37	0xbee99c99	-0.45627287
38	0x3f0828fd	0.53187543
39	0x3e613bc6	0.21995458
40	0xbf080531	-0.5313292
41	0x3ec2fb30	0.38082266
42	0x3f305d11	0.6889201
43	0x3ecd76f6	0.40129822
44	0x3e4d0716	0.20022234
45	0xbf207a0e	-0.6268624
46	0x3e3c31c6	0.18378362
47	0x3e8aef96	0.27135915
48	0xbf16663d	-0.58749753
49	0xbec07c0b	-0.37594637
50	0x3ed17753	0.4091135
51	0x3d4428c4	0.04789044
52	0xbf202ff5	-0.62573177
53	0x3f32c1f1	0.6982718
54	0x3f1fa623	0.6236288
55	0x3f10f9f0	0.56631374
56	0x3df15a07	0.117847495
57	0x3e3e9984	0.18613249
58	0xbea6cd55	-0.3257853
59	0x3d43297f	0.047646996
60	0xbecfc2c7	-0.4057829
61	0x3e8a65c3	0.27030763
62	0x3ec57a57	0.385699
63	0x3eb5d8e3	0.35517034
64	0xbe0afaa1	-0.1357217
65	0xbea0365e	-0.3129148
66	0x3e582f75	0.21111853
67	0xbee90349	-0.4551032
68	0xbec21ec6	-0.37914103
69	0x3e39f289	0.18158926
70	0x3ddf2804	0.10896304
71	0x3e6266c3	0.22109513
72	0x3d8ea80e	0.06965648
73	0xbd07d24e	-0.033159547
74	0xbdd35a04	-0.103199035
75	0x3f0fbb62	0.561453
76	0x3de95ab6	0.11394255
77	0x3f1c4a31	0.6105071
78	0x3f30c237	0.6904635
79	0x3f232d5d	0.63741094
80	0x3e6315ec	0.22176331
81	0xbee14d50	-0.44004297
82	0x3e3343ce	0.17506334
83	0x3f077c9e	0.52924526
84	0x3ee3e90a	0.44513732
85	0x3f0ede14	0.55807614
86	0xbefe9bd7	-0.4972827
87	0xbd5f7f3f	-0.05456471
88	0x3ea695ad	0.3253607
89	0x3e663dba	0.22484484
90	0x3f2b1acd	0.6683777
91	0xbdd01ff0	-0.101623416
92	0xbefb0506	-0.4902727
93	0x3f24bc1a	0.6434952
94	0xbf3cecbf	-0.73798746
95	0x3f1d60d2	0.6147586
96	0xbeae8b95	-0.34090868
97	0xbe2be85c	-0.16787857
98	0xbe820ee3	-0.25401983
99	0xbe57133a	-0.21003428
100	0xbddf58b0	-0.10905588
101	0x3f10dd62	0.56587803
102	0xbe21dce5	-0.15806921
103	0xbea6f16d	-0.32606068
104	0x3ed264fe	0.41092676
105	0x3efef59a	0.49796754
106	0x3e58bf07	0.21166621
107	0xbf26c266	-0.6514038
108	0x3f0f44eb	0.55964535
109	0xbde6128d	-0.11234007
110	0xbec33b4a	-0.3813117
111	0x3f00743f	0.5017738
112	0x3f0373c4	0.5134852
113	0x3dce149a	0.10062523
114	0xbf24548a	-0.64191496
115	0xbf0b58bb	-0.54432267
116	0xbd26c1e9	-0.04071227
117	0xbeaa98ab	-0.333196
118	0xbf18f413	-0.5974743
119	0x3ede79b5	0.4345223
120	0x3e0c1775	0.13680823
121	0x3ecf0232	0.40431362
122	0xbf23a2cd	-0.6392029
123	0x3f1abfae	0.6044873
124	0xbd81e3c2	-0.063422695
125	0xbf35d97d	-0.71034986
126	0xbda0c68b	-0.07850369
127	0xbf014793	-0.5049984
128	0x3e132264	0.14368588
129	0x3ebdf1f7	0.37098667
130	0xbe09e5a1	-0.13466503
131	0x3e701643	0.23445992
132	0xbd9beeb2	-0.07613887
133	0x3e82d709	0.25554684
134	0xbec7a286	-0.38991183
135	0x3f161729	0.5862909
136	0x3ee78cc3	0.4522458
137	0xbf1b2489	-0.60602623
138	0x3f062071	0.5239325
139	0xbef388f2	-0.47565418
140	0xbe2cabd9	-0.1686243
141	0x3f264a14	0.64956784
142	0x3e0b3161	0.13593055
143	0x3e62a925	0.22134836
144	0xbddef9a8	-0.10887462
145	0x3ca7094d	0.020390177
146	0x3edd837f	0.43264386
147	0xbf38fd63	-0.7226164
148	0xbf15fb0c	-0.5858619
149	0x3f3c0b4a	0.73454726
150	0xbe9f3a7a	-0.31099302
151	0xbeea4986	-0.4575922
152	0x3e9d19d3	0.30683765
153	0x3edf62b4	0.43629992
154	0x3dd5cf95	0.10439984
155	0x3f0e0dbd	0.5548971
156	0xbef9eebf	-0.4881496
157	0xbe3e7363	-0.18598704
158	0x3e4cd9cf	0.20004962
159	0xbec2f0fa	-0.38074476
160	0xbef5a721	-0.47979072
161	0x3e9d4368	0.3071549
162	0x3f0baacb	0.54557484
163	0x3e0b735e	0.13618228
164	0x3f09a883	0.53772753
165	0xbf34134a	-0.7034193
166	0xbe02c190	-0.1276915
167	0xbf0167b2	-0.5054885
168	0x3f215d54	0.6303303
169	0xbedd8d5c	-0.4327191
170	0x3f1c0089	0.60938317
171	0x3e560859	0.20901622
172	0x3da8f0ed	0.08249078
173	0xbeac84b2	-0.33694988
174	0xbefdadd4	-0.49546683
175	0x3d73baf6	0.05950447
176	0xbdfb3830	-0.12266576
177	0xbce62cfe	-0.028097626
178	0x3dfd42c7	0.123662524
179	0x3d16c3d5	0.036807854
180	0xbe065aa4	-0.13120514
181	0x3e622030	0.22082591
182	0xbecb39b6	-0.39692467
183	0xbd1043c3	-0.035220873
184	0x3f116278	0.56790876
185	0xbf08ebee	-0.53485
186	0x3f26ff42	0.6523324
187	0xbe9c7d27	-0.30564234
188	0x3de93d34	0.11388627
189	0xbefde00d	-0.49585
190	0xbf1c8c9f	-0.6115207
191	0x3e9f1070	0.31067228
192	0x3e1add57	0.15123497
193	0x3f1714bb	0.5901601
194	0xbdbe1c3b	-0.09282728
195	0xbe941626	-0.28923148
196	0x3f12f2c4	0.5740168
197	0xbeff5181	-0.4986687
198	0x3f261daf	0.64889044
199	0x3e64a67e	0.22329137
200	0xbecc304d	-0.398806
201	0xbdff68e0	-0.12471175
202	0xbdf20794	-0.11817852
203	0xbe001ea6	-0.12511691
204	0xbce90e50	-0.028449208
205	0x3d816c5a	0.063194945
206	0xbecb308a	-0.3968547
207	0x3dbdc843	0.092667125
208	0x3f231478	0.6370311
209	0x3f0f95c3	0.56087893
210	0xbeb6d723	-0.3571101
211	0xbe124689	-0.1428472
212	0xbe8183d3	-0.25295886
213	0x3ef4bf2f	0.47802112
214	0x3eb1c280	0.34718704
215	0x3e411d6a	0.18858877
216	0xbecf853e	-0.40531343
217	0x3c0ddc06	0.008658415
218	0xbf05d3ab	-0.52276105
219	0xbe3aa83b	-0.18228237
220	0x3dde027b	0.10840317
221	0xbeb951fd	-0.36195365
222	0xbec8d610	-0.39225817
223	0x3f27cc2d	0.6554592
224	0xbee92fc3	-0.45544252
225	0xbe3ccd15	-0.18437608
226	0x3d5d20f4	0.053986505
227	0x3e174b11	0.1477473
228	0xbeabf43a	-0.33584768
229	0xbea11e85	-0.31468597
230	0x3ec320b4	0.38110888
231	0xbe14efe4	-0.14544636
232	0xbf25150d	-0.64485246
233	0xbf0914c3	-0.53547305
234	0x3f1090ad	0.5647076
235	0x3f069ea8	0.5258584
236	0xbeb5fbdd	-0.3554372
237	0x3e9b2dad	0.30308285
238	0xbdba6d06	-0.09102826
239	0xbcf35774	-0.029704787
240	0x3edf905e	0.4366483
241	0xbd1454b4	-0.03621359
242	0x3ddf74c8	0.10910946
243	0xbe971add	-0.29512683
244	0xbf000fe4	-0.5002425
245	0x3d93cd2b	0.07216867
246	0xbed30685	-0.41215912
247	0x3e7cd7ec	0.24691743
248	0xbf04415e	-0.5166224
249	0x3ee934f3	0.4554821
250	0xbece6aa0	-0.40315723
251	0xbf048a48	-0.517735
252	0x3efd2e4c	0.49449384
253	0xbdb4b1f5	-0.08823005
254	0x3d70b21f	0.05876362
255	0xbd1277ca	-0.03575877

0.bias f4 [128]
0	0x3df94007	0.12170415
1	0xbef85a6d	-0.4850649
2	0x3e8036b6	0.2504174
3	0x3eba302e	0.36364883
4	0xbf064777	-0.52452797
5	0x3eced2c1	0.40395167
6	0xbd23fe94	-0.040037706
7	0xbed339ea	-0.41255122
8	0xbdd2279b	-0.102614604
9	0xbeba7be0	-0.36422634
10	0x3dc1ea2b	0.09468492
11	0xbe688aa4	-0.22709137
12	0x3f38bebd	0.72166044
13	0x398894bb	0.00026050754
14	0xbe2d5284	-0.16926008
15	0x3eccdb9d	0.40011302
16	0x3f43b2df	0.7644481
17	0x3dbb5a84	0.09148124
18	0xbe8fe718	-0.28105998
19	0xbec3ea85	-0.38264862
20	0xbd23f33b	-0.040026885
21	0xbe87aaa8	-0.26497388
22	0xbca98e4d	-0.020697737
23	0xbf32d66f	-0.6985845
24	0xbf07f00f	-0.53100675
25	0xbf33d3c3	-0.70245
26	0xbe968946	-0.29401606
27	0xbd680373	-0.056643914
28	0x3f4709a5	0.7774909
29	0x3e0eec36	0.13957295
30	0x3f15027e	0.5820693
31	0xbf4eb30b	-0.8074195
32	0x3ec25e9d	0.3796281
33	0xbd825b23	-0.06365039
34	0x3f2b2b54	0.6686299
35	0x3e43fa4e	0.19138452
36	0xbe0a0d0b	-0.13481538
37	0xbd2ce377	-0.042209115
38	0xbedbb581	-0.42911914
39	0xbda5e9e4	-0.08101252
40	0x3f10695e	0.5641078
41	0x3e51bd39	0.20482339
42	0x3f29eca4	0.6637671
43	0x3d9008dd	0.070329405
44	0xbf0980ed	-0.5371235
45	0x3f2c78d9	0.673719
46	0xbf027333	-0.5095703
47	0xba77212d	-0.0009427246
48	0x3f32846b	0.69733304
49	0x3ed884c8	0.42288804
50	0xbc82fd06	-0.015989792
51	0xbf282194	-0.65676236
52	0xbf03d403	-0.5149538
53	0xbf3794eb	-0.71711606
54	0xbe897af9	-0.26851633
55	0x3c85f813	0.016353643
56	0xbf0a2ef2	-0.5397788
57	0x3e85785b	0.26068386
58	0xbf2986d5	-0.6622136
59	0xbf1ab878	-0.60437727
60	0x3f146b25	0.5797599
61	0x3f02a26a	0.51029074
62	0xbe805086	-0.25061435
63	0xbe5a010f	-0.21289466
64	0xbf23bc97	-0.6395964
65	0xbebfaacc	-0.37434995
66	0xbdb97ec1	-0.090573795
67	0xbed06a70	-0.40706205
68	0xbe77430f	-0.24146675
69	0xbeb0b585	-0.34513488
70	0x3e8e6f6e	0.2781939
71	0x3dd8af18	0.105802715
72	0xbea8119d	-0.32825938
73	0x3ccfb1d4	0.02535335
74	0x3e34879c	0.17629856
75	0x3e8081f6	0.25099152
76	0x3f02b1ed	0.51052743
77	0x3f28b496	0.6590055
78	0xbe0d5906	-0.13803491
79	0x3f500f29	0.8127313
80	0x3da096a6	0.07841234
81	0x3eb5786c	0.35443437
82	0xbe3709e4	-0.17874867
83	0x3d3974f7	0.045277562
84	0xbec237e5	-0.3793327
85	0x3f468dd4	0.7756016
86	0xbf1a3537	-0.6023745
87	0xbddc0979	-0.10743994
88	0xbf4003de	-0.750059
89	0x3f30c6b3	0.6905319
90	0x3deb99eb	0.11503967
91	0xbecdca4e	-0.4019341
92	0xbecb6a56	-0.39729565
93	0x3da228ba	0.07917924
94	0xbd768e94	-0.060194567
95	0xbef5d6a8	-0.48015332
96	0x3f1d2bff	0.6139526
97	0xbf2d88d5	-0.67786914
98	0x3dea8f6e	0.11453138
99	0x3eb9fa6a	0.36323863
100	0x3e0afbc6	0.13572606
101	0xbe3e6bcd	-0.1859581
102	0x3e4dd6a0	0.20101404
103	0x3d8cffef	0.06884753
104	0xbf2a2018	-0.6645522
105	0xbf368604	-0.7129824
106	0x3e27a304	0.1637078
107	0x3f1f41c1	0.6220971
108	0x3d1dfbba	0.038570143
109	0xbe8180a2	-0.25293452
110	0x3d7b7005	0.061386127
111	0xbe0565d3	-0.13027124
112	0xbed9a50c	-0.42508733
113	0xbefa40c6	-0.48877543
114	0x3f1858e2	0.59510624
115	0x3e452fce	0.19256517
116	0x3e592468	0.21205294
117	0x3e8b296e	0.27180046
118	0xbcc1dfec	-0.023666345
119	0xbe85339e	-0.26015943
120	0x3dc2b7e0	0.095077276
121	0x3f24aa9f	0.6432285
122	0xbf3b6c5a	-0.73212206
123	0x3e9dfffb	0.3085936
124	0x3eaf970e	0.34294933
125	0x3f124a39	0.57144505
126	0xbe5161b0	-0.20447421
127	0x3e93a03f	0.28833196

2.weight f4 [128, 128]
0	0x3d2556bd	0.040365923
1	0xbd1b52f5	-0.03792091
2	0xbd83f88b	-0.0644389
3	0x3d4790c9	0.048722062
4	0x3b801dd8	0.0039098077
5	0xbca33fab	-0.01992782
6	0x3d27b3a9	0.04094282
7	0xbc363a88	-0.011122353
8	0xbd1e0f2c	-0.038588688
9	0xbbc5b5e3	-0.0060336455
10	0x3d4a9930	0.049462497
11	0x3db3a8b0	0.08772409
12	0xbc7520e4	-0.014961455
13	0xbd853472	-0.06504144
14	0x3c7099f3	0.014685142
15	0xbd210de9	-0.039319906
16	0x3da77f63	0.08178594
17	0x3b0bcfcc	0.0021333573
18	0xbd2b225e	-0.041780822
19	0x3d1578fb	0.03649233
20	0xbd9a0a32	-0.07521476
21	0x3b09ac2e	0.0021007168
22	0x3d98fee3	0.07470491
23	0xbd0b8419	-0.034061525
24	0xbcb20739	-0.02173196
25	0x3bd66bc7	0.00654361
26	0xbdad6d92	-0.084681645
27	0x3b287bdc	0.0025708592
28	0xbdaa3afe	-0.08312033
29	0x3d4aa76e	0.04947608
30	0x3b9cc4d2	0.004784205
31	0x3db3a53b	0.087717496
32	0x3c485132	0.01222639
33	0xbbdc7ad1	-0.006728508
34	0xbdb652d2	-0.089025155
35	0xbca790b0	-0.020454735
36	0xbdcef1f2	-0.10104741
37	0x3dae43f4	0.08509055
38	0x3daafb37	0.08348697
39	0xbd8dfbe3	-0.06932809
40	0x3d7ffd3d	0.062497366
41	0xbcf376da	-0.029719759
42	0x3d67a9c0	0.05655837
43	0x3c1233b9	0.008923464
44	0x3d959d07	0.07305341
45	0x3cec714c	0.028862618
46	0xbcbd3c9b	-0.023100188
47	0x3d932592	0.071849
48	0x3d9378db	0.07200786
49	0xbbbdbc46	-0.005790266
50	0x3d6e42b3	0.058169078
51	0x3d92b0e3	0.07162645
52	0x3d04ca3a	0.03241942
53	0xbd0f62ec	-0.03500645
54	0x3d2a1967	0.04152813
55	0xbd6aa5f5	-0.057287175
56	0xbd518870	-0.051155508
57	0xbccafe82	-0.024779562
58	0x3dd5f050	0.104462266
59	0xbd1438ad	-0.036186863
60	0xbdefd873	-0.11711206
61	0xbdbae3ce	-0.091254815
62	0x3db412a6	0.087926194
63	0x3d91bcef	0.07116114
64	0xbced2749	-0.028949397
65	0x3d0a3c39	0.03374884
66	0xbd3c5ddb	-0.045987945
67	0xbd92876d	-0.07154737
68	0x3da82f20	0.082121134
69	0xbcf4006b	-0.029785356
70	0x3d3b4d8d	0.045728255
71	0x3d89a3c8	0.06720692
72	0x3d74a803	0.05973054
73	0xbcf6d98b	-0.03013303
74	0x3d8cb179	0.06869788
75	0xbda08cae	-0.078393325
76	0xbcfa437b	-0.030549755
77	0xbc06de61	-0.00823173
78	0xbc757ccf	-0.01498337
79	0xbda5ab1d	-0.08089278
80	0xbd3af77b	-0.045646172
81	0xbd9e4b62	-0.07729222
82	0xbc8f71bf	-0.017510293
83	0x3d15a90a	0.03653816
84	0xbd3bc469	-0.04584161
85	0x3d22716d	0.039658953
86	0xbd1fceb7	-0.039015498
87	0xbbf93895	-0.007605622
88	0x3dee4fc3	0.11636307
89	0xbde73d06	-0.11290936
90	0xbd8e4404	-0.06946567
91	0x3cc67d75	0.024229744
92	0xbc7bb9cc	-0.015364122
93	0x3db24b9c	0.087058276
94	0xbdc3852b	-0.09546884
95	0x3d98bba6	0.07457666
96	0x3d835485	0.06412605
97	0x3e2016e0	0.15633726
98	0x3c880d56	0.016607922
99	0xbd2f4e54	-0.04279931
100	0x3cab231d	0.020890767
101	0x3bc4485f	0.0059900726
102	0xbd82e3f8	-0.06391138
103	0x3da9d636	0.082928106
104	0xbca865a7	-0.020556284
105	0x3db12f23	0.08651569
106	0xbd3b5f7a	-0.04574535
107	0x3cf21784	0.029552229
108	0x3d3f0744	0.04663779
109	0xbdb5275b	-0.08845397
110	0xbdc32526	-0.0952857
111	0xbd787f19	-0.060668085
112	0xbcc9c2d0	-0.024629027
113	0x3d6b1ad4	0.057398632
114	0xbc939a14	-0.018017806
115	0x3d558d7e	0.05213689
116	0xbdadec4a	-0.08492334
117	0xbd7322a1	-0.059359197
118	0x3da75f6c	0.08172497
119	0x3c6eee92	0.014583247
120	0x3d0219b0	0.03176278
121	0xbc8aaebd	-0.016929025
122	0x3d95148f	0.07279312
123	0xbdaf246b	-0.08551868
124	0x3c2e0638	0.0106216
125	0x3cb64710	0.022250682
126	0xbcf90c22	-0.030401293
127	0xbd5e7ad4	-0.054316357
128	0xbd3dddf1	-0.046354238
129	0x3d980c29	0.07424194
130	0x3d1b1e60	0.037870765
131	0x3be8fa9b	0.0071099526
132	0x3d549ffa	0.051910378
133	0x3cfda2a0	0.030961335
134	0xbdbdac40	-0.0926137
135	0xbc7c3412	-0.015393274
136	0xbd3fe784	-0.04685165
137	0xbd7345eb	-0.05939285
138	0xbc84ed44	-0.016226418
139	0xbd7d4d79	-0.06184146
140	0x3d601d04	0.05471517
141	0xbd020590	-0.031743586
142	0xbdf23b70	-0.11827743
143	0x3d782799	0.06058464
144	0x3c1e420e	0.009659303
145	0xbd7ae9ea	-0.061258234
146	0x3d91cf47	0.07119613
147	0xbda7571d	-0.081709124
148	0x3db9656f	0.0905255
149	0xbd8f7265	-0.07004241
150	0xbd8b737e	-0.06809138
151	0x3b27e488	0.0025618393
152	0xbd32318a	-0.043504275
153	0xbd03cc32	-0.032177158
154	0xbb90d393	-0.004419753
155	0x3d39ef95	0.0453945
156	0x3dd5c782	0.10438444
157	0x3c4f28e9	0.012644031
158	0xbd1a7b73	-0.037715387
159	0x3c73d741	0.0148828635
160	0xbc9dbe27	-0.01925571
161	0x3bcb025e	0.0061953506
162	0x3a7b1ff9	0.00095796544
163	0x3c833634	0.016017057
164	0x3dd07a70	0.10179603
165	0xbc3ecb01	-0.01164508
166	0xbcb8dcec	-0.022566281
167	0x3d6e7b61	0.058223132
168	0xbd9f5e2f	-0.07781636
169	0x3d7aa899	0.061195944
170	0x3a2773a0	0.0006387774
171	0x3d881268	0.06644136
172	0x3c507a3a	0.012724454
173	0x3d0fe598	0.035131067
174	0xbc84a971	-0.016194077
175	0xbd6c764c	-0.057730004
176	0x3d757e7e	0.059935085
177	0xbc91e6a3	-0.017810171
178	0x3d6e4e37	0.05818006
179	0xbd5fdc17	-0.054653253
180	0xbd988dec	-0.074489444
181	0xbcbbfd71	-0.022947999
182	0xbd5ca24c	-0.053865716
183	0xbcd719a5	-0.026257345
184	0x3d48b865	0.049003977
185	0xbca45b48	-0.020063058
186	0xbd407024	-0.046981946
187	0xbcb14d7e	-0.021643396
188	0xbd3a6661	-0.045507792
189	0xbcae0dab	-0.021246752
190	0xbdda64e2	-0.10663773
191	0xbdd59467	-0.10428696
192	0x3d6ad42b	0.057331245
193	0xbdc01a4a	-0.09380014
194	0xbc364397	-0.011124513
195	0x3dafb017	0.08578508
196	0xbd2ba243	-0.04190279
197	0x3d7e5c28	0.062099606
198	0xbd9e1b47	-0.077200465
199	0x3da7d7b1	0.08195437
200	0xbda32787	-0.079665236
201	0x3cfa2804	0.030536659
202	0xbd894ebe	-0.06704472
203	0x3c459afc	0.012060877
204	0x3d86886c	0.06568989
205	0x3da17011	0.07882703
206	0x3d8f9a03	0.07011797
207	0x3d1fec8a	0.03904394
208	0xbd0a50e2	-0.033768542
209	0xbda7baf8	-0.08189958
210	0xbda2343f	-0.079201214
211	0x3d78746d	0.060657907
212	0x3d801928	0.06254798
213	0xbd69ff4b	-0.057128232
214	0x3d8cc7a1	0.06874014
215	0x3ceedb8f	0.029157428
216	0xbe117bd0	-0.14207387
217	0x3dd6cc31	0.10488165
218	0x3cd267f7	0.02568434
219	0x3bcca1e8	0.0062448867
220	0xbd1e2529	-0.038609657
221	0xbdb23ba2	-0.0870278
222	0xbc82d54b	-0.015970847
223	0x3d6c2968	0.057656676
224	0x3c27c565	0.010239934
225	0xbe8cfa50	-0.27534723
226	0xbcb57da7	-0.022154642
227	0xbcb157be	-0.021648284
228	0x3d9c51df	0.07632803
229	0x3d2d3623	0.042287957
230	0xbd3ae563	-0.045628916
231	0x3bd4a0d2	0.006488898
232	0x3d975d1c	0.07390806
233	0xbc401bbc	-0.011725362
234	0x3c8bde3e	0.017073747
235	0xbc1c8a5d	-0.009554473
236	0xbd807dea	-0.06274016
237	0xbd17cf1d	-0.037062753
238	0xbbba0ebe	-0.005678027
239	0x3c9cc7a1	0.01913816
240	0xbb99f42c	-0.004698297
241	0x3c4a554c	0.012349438
242	0xbd48f254	-0.049059227
243	0xbd229ae4	-0.039698496
244	0x3c88ed88	0.016714826
245	0xbcaa771f	-0.020808754
246	0x3db588e1	0.08863998
247	0x3b9c0b8f	0.00476212
248	0x3da7179b	0.08158799
249	0x3e271d4f	0.16319774
250	0x3a866650	0.001025388
251	0x3c0d8026	0.00863651
252	0x3da3a1c8	0.07989842
253	0x3d37f231	0.044908706
254	0x3d5beb4e	0.0536912
255	0x3e3177c4	0.17330843

2.bias f4 [128]
0	0xbb98309c	-0.0046444666
1	0xbbcd94e1	-0.0062738513
2	0xbd5bbe6a	-0.05364839
3	0xbd74f231	-0.059801284
4	0xbd731f92	-0.05935628
5	0xbdc2db98	-0.095145404
6	0x3dca65ca	0.09882696
7	0xbd53c3fd	-0.05170058
8	0xbd7fc8ce	-0.06244736
9	0x3ced43b6	0.028962951
10	0x3d9869d3	0.07442059
11	0x3c36c697	0.011155746
12	0x3d413a10	0.047174513
13	0xbcf6967f	-0.030101059
14	0xbc33a0f1	-0.010963664
15	0xbbceb8f6	-0.00630867
16	0xbb1ea23e	-0.002420559
17	0xbc8619dd	-0.016369754
18	0xbc4b7285	-0.01241744
19	0x3cb72b1f	0.022359429
20	0xbcd693ab	-0.02619346
21	0x3db5090d	0.08839617
22	0x3d31e4b1	0.043430988
23	0x3cfe8e65	0.031073758
24	0xbd822d32	-0.063562766
25	0xbd3e92e8	-0.04652682
26	0x3d29f7db	0.04149614
27	0xbd6147ec	-0.05500023
28	0x3d09237b	0.033481102
29	0x3db0fee5	0.08642367
30	0xbd50630b	-0.050875705
31	0x3d49fc07	0.049312618
32	0xbd59628c	-0.053072497
33	0xbd31067f	-0.043219086
34	0x399055a9	0.00027529642
35	0x3d8a2b8a	0.06746586
36	0xbdbf48e3	-0.09340074
37	0xbcf35380	-0.029702902
38	0x3a411869	0.0007366003
39	0x3bc1f00b	0.005918508
40	0x3dbb74a4	0.09153107
41	0xbdacc6b5	-0.08436338
42	0x3d9f949c	0.07792017
43	0x3d9415ac	0.07230696
44	0x3d3b8091	0.045776907
45	0x3ae7256b	0.0017635053
46	0x3da59c56	0.08086459
47	0xbd94b286	-0.07260613
48	0x3d26f6f8	0.04076287
49	0xbc76da25	-0.015066658
50	0xbcc38821	-0.023868622
51	0x3d8f98c2	0.07011558
52	0x3cff2078	0.031143412
53	0xbd000a19	-0.03125963
54	0xbdc1bf2b	-0.094602905
55	0x3ca1866a	0.019717414
56	0x3d956438	0.07294506
57	0x3dac52e7	0.0841425
58	0xbdb37363	-0.08762243
59	0x3d970589	0.073741026
60	0x3bb7da42	0.005610735
61	0x3d6f8dd3	0.058484863
62	0xbdc20ceb	-0.0947512
63	0x3d937789	0.07200534
64	0xbdb27d9d	-0.08715365
65	0x3c9a5f7f	0.018844364
66	0xbced9ddf	-0.029005943
67	0x3d9e90dc	0.077424735
68	0x3d919a9a	0.07109566
69	0xbd5502c2	-0.052004583
70	0xbcd4a242	-0.025956277
71	0x3d98e38b	0.074652754
72	0xbda13000	-0.078704834
73	0xbcf78bda	-0.030218054
74	0xbd3e0da5	-0.04639973
75	0xbd559e74	-0.052153066
76	0x3d70091a	0.05860243
77	0xbd7f045e	-0.062260024
78	0xbae583b9	-0.001751057
79	0xbda1cbe3	-0.079002164
80	0xbda21b7e	-0.079154
81	0xbc77ff6b	-0.01513658
82	0x3d81e2cf	0.063420884
83	0xbce293ca	-0.027658362
84	0xbd545378	-0.051837415
85	0x3d092945	0.033486623
86	0x3d6de807	0.058082607
87	0x3d8c1ef4	0.06841841
88	0xbd98232a	-0.07428582
89	0xbcf593c1	-0.029977681
90	0x3a7a32df	0.00095443235
91	0xbc2a5fee	-0.010398848
92	0xbac73b73	-0.0015200212
93	0xbcf0732d	-0.029351795
94	0x3d8fb07e	0.07016085
95	0xbd345ad6	-0.04403194
96	0xbd33e7b7	-0.043922152
97	0xbcf409ba	-0.029789794
98	0x3d6c8136	0.057740413
99	0x3d459d21	0.048245553
100	0xbcf817a8	-0.030284718
101	0x3d178c13	0.03699882
102	0x3d46957f	0.048482414
103	0xbd034e5d	-0.032057155
104	0xbd7fac3c	-0.062420115
105	0x3c92ba74	0.017911173
106	0x3aaf5530	0.0013376828
107	0xbc565674	-0.0130821355
108	0xbc81f5cc	-0.015864275
109	0xbc2095b0	-0.009801313
110	0xbd387326	-0.04503169
111	0x3d043f5b	0.032286983
112	0x3dd41583	0.103556655
113	0xbdb89f87	-0.090148024
114	0xbc18fdf4	-0.009337891
115	0x3c761141	0.015018762
116	0xbd220a4b	-0.039560597
117	0xbd122520	-0.035679936
118	0x3cbafb4a	0.022824902
119	0x3d549458	0.051899284
120	0x3d795516	0.06087216
121	0xbd748c4d	-0.059704114
122	0x3c814d67	0.015783979
123	0xbd46a0a4	-0.048493043
124	0xbd6e474c	-0.058173463
125	0xbd0e8078	-0.034790486
126	0xbd5b403e	-0.053528063
127	0xbce97c10	-0.02850154

4.weight f4 [128, 128]
0	0x3e18a50d	0.14906712
1	0xbe74d1d9	-0.23908176
2	0xbdff27d3	-0.12458768
3	0xbdcec3e2	-0.100959554
4	0xbdc938ab	-0.09825262
5	0xbd57dbc1	-0.052699808
6	0xbc8a92f5	-0.016915778
7	0x3d502123	0.05081285
8	0xbdec095d	-0.115252234
9	0x3da2f020	0.079559565
10	0x3d8f86ce	0.07008134
11	0x3dd1f9fc	0.10252759
12	0xbdd37752	-0.10325493
13	0xbd00fe5a	-0.03149257
14	0xbddb6a0e	-0.10713588
15	0xbd9cb65a	-0.07651968
16	0xbd9ca395	-0.07648388
17	0x3d61a39f	0.05508768
18	0xbd0f0d3e	-0.034924738
19	0xbcd005e5	-0.025393436
20	0x3e15a45f	0.14613484
21	0xbdb6e0d0	-0.08929598
22	0xbc0b536f	-0.008503779
23	0x3d43b369	0.04777852
24	0x3d032d1f	0.032025453
25	0xbd0440d7	-0.0322884
26	0xbdb0e9dd	-0.08638356
27	0xbe0e04af	-0.13868974
28	0x3e140553	0.14455156
29	0xbdceb1f7	-0.10092538
30	0x3e4b8326	0.19874248
31	0xbdb30d63	-0.08742788
32	0xbd075ded	-0.03304856
33	0xbe83eef2	-0.25768238
34	0x3cca5b51	0.024701746
35	0x3d9d0908	0.07667738
36	0x3dd5606d	0.104187824
37	0x3d8b75ab	0.06809553
38	0x3d848df0	0.06472385
39	0x3ddb8dae	0.10720383
40	0x3d26a6f4	0.040686563
41	0x3e356fcd	0.1771843
42	0x3c1a2c25	0.009409939
43	0xbc62105c	-0.013797846
44	0xbcb1c3a8	-0.021699741
45	0x3d84a054	0.06475893
46	0xbdb0f4f5	-0.08640472
47	0xbe4f40e1	-0.20239593
48	0xbe47cc4a	-0.19511524
49	0xbc436981	-0.01192701
50	0x3e2fcfe1	0.17169143
51	0x3dbcf1d2	0.09225811
52	0xbe22e532	-0.15907744
53	0x3cef1674	0.029185511
54	0x3dd6f4f7	0.10495942
55	0xbd941163	-0.07229879
56	0x3dd65c44	0.10466817
57	0xbd64c7db	-0.05585466
58	0xbd1cc89a	-0.038277246
59	0xbd80a61f	-0.06281685
60	0xbd2d34ec	-0.0422868
61	0xbd9eee55	-0.07760302
62	0x3dd172ba	0.102269605
63	0x3c03faaa	0.008055368
64	0x3de945cc	0.11390266
65	0x3dadbc4b	0.0848318
66	0x3c20ad94	0.009807009
67	0x3da20ab2	0.07912196
68	0xbddaacc2	-0.10677482
69	0x3e00f7f8	0.12594593
70	0x3cf066ea	0.029345948
71	0xbd5e9431	-0.054340545
72	0x3e00b233	0.12567978
73	0xbdb4796d	-0.08812223
74	0xbca9a928	-0.020710543
75	0xbb9cf505	-0.004789951
76	0x3e06a937	0.13150488
77	0xbe06e078	-0.13171566
78	0x3ca7edaa	0.02049907
79	0xbe6d75af	-0.23189424
80	0x3df7495b	0.12074538
81	0xbda96504	-0.0827122
82	0xbe0d4c71	-0.13798691
83	0xbd4be615	-0.04977997
84	0x3c06ba0f	0.008223071
85	0x3e20981f	0.1568303
86	0xbdebb9a5	-0.11510018
87	0x3d78d9a4	0.060754433
88	0x3d67bf1c	0.05657874
89	0xbac82bae	-0.0015271807
90	0xbe3d3469	-0.18477024
91	0x3c2d4bbc	0.0105771385
92	0x3dd38bab	0.10329374
93	0x3dcb8437	0.09937327
94	0xbe4ebf1a	-0.20190087
95	0x3d36bd7f	0.04461431
96	0xbe0aed54	-0.13567096
97	0x3c3ad774	0.011403907
98	0x3cfa7f3e	0.030578252
99	0x3d24eea3	0.040266644
100	0x3e3db858	0.18527353
101	0xbe1bdb1d	-0.15220304
102	0xbda6d1dd	-0.08145497
103	0x3e12b48a	0.14326683
104	0x3cf42daa	0.02980693
105	0x3e28f96e	0.165014
106	0xbcf6d930	-0.03013286
107	0xbdf5b434	-0.11997262
108	0x3dbe7ad8	0.09300774
109	0xbda3893f	-0.07985162
110	0xbd3dba36	-0.046320163
111	0x3d2aac8e	0.041668467
112	0xbda112aa	-0.07864888
113	0x3d8c0946	0.06837706
114	0xbe0ee55a	-0.13954678
115	0xbe8a3841	-0.26996043
116	0x3cf18c1b	0.029485753
117	0xbd3dd0df	-0.046341773
118	0xbe3699cb	-0.17832105
119	0x3dccb30f	0.0999509
120	0x3de4c778	0.11170858
121	0x3d42813c	0.04748653
122	0x3cb9df28	0.022689417
123	0x3cabcd53	0.02097193
124	0x3db72571	0.08942688
125	0xbdcdcdb2	-0.10048999
126	0x3d9ad159	0.07559461
127	0x3e1b781f	0.15182541
128	0x3daf8165	0.08569602
129	0xbe24e3af	-0.1610248
130	0xbd7cf015	-0.061752398
131	0xbddad88f	-0.106858365
132	0x3d3189b3	0.04334421
133	0xbce7fd81	-0.028319122
134	0xbda243a3	-0.07923057
135	0x3e2281da	0.15869847
136	0xbdba9cf1	-0.091119654
137	0xbcef352f	-0.029200165
138	0xbd344834	-0.04401417
139	0xbd44302f	-0.047897514
140	0xbddf3bd4	-0.10900083
141	0xbaa2312d	-0.0012374275
142	0xbe1031c6	-0.14081487
143	0xbe138373	-0.14405613
144	0xbe2dc1a2	-0.16968396
145	0x3cb69438	0.022287473
146	0xbd0b4d90	-0.034009516
147	0xbdb1dba9	-0.08684475
148	0x3e087d90	0.13329148
149	0xbd8bce58	-0.06826466
150	0xbd24aa0f	-0.040201243
151	0xbd2a6f5e	-0.041610114
152	0x3d94c684	0.07264426
153	0xbe198061	-0.14990379
154	0x3c5966ef	0.01326917
155	0xbdab83e0	-0.083747625
156	0x3de2a729	0.110670395
157	0xbe3282b9	-0.17432679
158	0x3e235b0f	0.15952705
159	0xbdf5473d	-0.11976478
160	0x3dd2d1cf	0.10293924
161	0xbe11a570	-0.14223266
162	0xbd6b2e49	-0.057417188
163	0x3d559fd8	0.052154392
164	0x3dcaf618	0.0991022
165	0x3de06f1c	0.109586924
166	0xbdb9cd34	-0.090723425
167	0x3dff8134	0.124758154
168	0xbb760229	-0.0037537909
169	0x3e26b3d4	0.16279536
170	0x3d9f9a1e	0.077930674
171	0x3d89fc6d	0.067375995
172	0xbdcd89e0	-0.10036063
173	0x3d602268	0.054720312
174	0x3d2f0f07	0.04273894
175	0xbe3ccf7e	-0.18438527
176	0xbe0ca964	-0.13736492
177	0xbd4d5687	-0.050131347
178	0x3e1e5c50	0.15464902
179	0x3d089f8e	0.03335529
180	0xbe26808b	-0.16259973
181	0x3d639623	0.055563103
182	0x3e116edc	0.14202446
183	0xbd0dea57	-0.034647312
184	0x3df9c231	0.12195242
185	0xbcf6d77e	-0.030132052
186	0xbd857cee	-0.06517969
187	0xbd87a7b0	-0.06623781
188	0x3b880c59	0.0041518626
189	0x3da4c385	0.08045105
190	0x3dd4ce20	0.10390878
191	0xbd0812d0	-0.033221066
192	0x3d2a543e	0.041584246
193	0x3c57d0f2	0.013172375
194	0xbcd4471b	-0.025912812
195	0xbd56b2c8	-0.052416593
196	0xbe0cd849	-0.13754381
197	0x3d56bbe2	0.052425273
198	0x3d85d0e9	0.06533987
199	0x3cf76919	0.030201482
200	0x3dd852aa	0.10562642
201	0xbd3d0731	-0.046149436
202	0xbc16f02b	-0.009212534
203	0x3d1cc234	0.038271144
204	0x3d822a83	0.06355765
205	0xbe3775d9	-0.17916049
206	0x3d44ad24	0.048016682
207	0xbe331fa7	-0.17492543
208	0x3d1178ee	0.03551572
209	0xbdd08fd7	-0.10183685
210	0x3ca1c2a4	0.019746132
211	0x3ce0b99e	0.02743226
212	0xbce20d04	-0.027594097
213	0x3d88d829	0.06681854
214	0xbde90190	-0.11377251
215	0x3d8cdefb	0.06878468
216	0x3dad56ac	0.08463797
217	0x3be5ae55	0.0070093074
218	0xbdbc5577	-0.091959886
219	0xbd9ea7f2	-0.07746877
220	0xbc5e6a0e	-0.01357509
221	0xbc134966	-0.0089896675
222	0xbe550406	-0.20802316
223	0xbc136537	-0.0089962995
224	0xbe210263	-0.15723567
225	0xbdcd1a43	-0.10014775
226	0x3d4035a5	0.04692616
227	0xbdc6aa18	-0.097004116
228	0x3def75a6	0.116923615
229	0xbe048ee7	-0.12945138
230	0xbe1b1225	-0.1514364
231	0x3e00353f	0.12520312
232	0xbcbab3c9	-0.022790806
233	0x3e1d895e	0.15384433
234	0xbd461c8e	-0.048367076
235	0xbdef0c82	-0.116723076
236	0x3c286f87	0.010280496
237	0xbe0959bf	-0.13413142
238	0xbbbb962b	-0.0057246885
239	0xbd02a49e	-0.031895272
240	0xbbf64f1d	-0.0075167553
241	0x3d5695c4	0.05238892
242	0x3cabbd25	0.020964215
243	0xbe026e24	-0.12737328
244	0x3bb602d6	0.0055545373
245	0x3d52f609	0.05150417
246	0x3bb181f2	0.005417102
247	0xbc51d5c3	-0.012807312
248	0x3df96f51	0.12179435
249	0x3cc23bac	0.023710094
250	0x3d9d598d	0.07683096
251	0xbdde4097	-0.10852163
252	0x3d6cd2d3	0.057818245
253	0xbd11b94f	-0.035577115
254	0x3e11d50c	0.14241427
255	0x3c3acdb9	0.011401587

4.bias f4 [128]
0	0xbd280471	-0.04101986
1	0x3cc68650	0.024233967
2	0xbd1693cd	-0.036762048
3	0x3b7e3ee0	0.00387948
4	0x3d577042	0.05259729
5	0x3d919579	0.07108588
6	0xbd74ecf0	-0.059796274
7	0xbd0caefa	-0.03434656
8	0x3ca259a3	0.019818133
9	0xbd4c6de1	-0.049909476
10	0x3be52a35	0.006993557
11	0xbc61ad22	-0.013774188
12	0x3d36c91e	0.044625394
13	0xbb6f1f72	-0.0036487249
14	0xbc61c8b9	-0.013780766
15	0x3c83dcee	0.016096558
16	0xbcacf304	-0.021111973
17	0x3da89d64	0.08233145
18	0x3c89d8ec	0.01682707
19	0xbccd3260	-0.025048435
20	0x3d20b45b	0.0392345
21	0xbd8caba5	-0.06868676
22	0xbd44890a	-0.047982253
23	0x3d8c62f4	0.06854811
24	0x3cfc67c0	0.03081119
25	0xbca67fad	-0.020324552
26	0x3baeddd4	0.0053365026
27	0x3daf977b	0.085738145
28	0xbcc8879e	-0.02447873
29	0xbbcf9d36	-0.0063358797
30	0xbc9d3270	-0.01918909
31	0x3c946c27	0.018117977
32	0x3d37d2e0	0.04487884
33	0xbda4a5b2	-0.080394164
34	0x3d38354a	0.044972695
35	0xbce45b4c	-0.027875565
36	0xbd774851	-0.0603717
37	0x3b19e76b	0.0023483883
38	0xbcb83b02	-0.022489075
39	0xbd5c5aef	-0.05379766
40	0x3d465fd5	0.048431236
41	0x3c5a1fb0	0.013313219
42	0xbd8550dc	-0.06509563
43	0x3db93061	0.09042431
44	0xbd6ac84f	-0.057319935
45	0xbd6326ae	-0.05545681
46	0x3db2efaf	0.08737122
47	0xbdaa3e3d	-0.08312652
48	0x3c95c1a4	0.018280812
49	0x3db1cb57	0.08681362
50	0x3d0a3b21	0.033747796
51	0x3d0453ff	0.032306667
52	0x3d973b63	0.07384374
53	0x3d8274dd	0.06369946
54	0x3d35c9d2	0.044381924
55	0xbd75d1b7	-0.060014453
56	0xbd052f36	-0.032515727
57	0xbd791d40	-0.06081891
58	0xbd8cfd2b	-0.068842255
59	0x3d847acb	0.064687334
60	0x3c918e78	0.01776813
61	0xbd8afdf5	-0.0678672
62	0x3d9e0246	0.077152774
63	0x3cb064a7	0.02153237
64	0x3d88c19e	0.066775545
65	0xba5648f0	-0.00081743207
66	0x3d9e9ae1	0.077443846
67	0xbd87c0f9	-0.066286035
68	0xbd82bdb9	-0.06383843
69	0xbdac4056	-0.084107086
70	0xbd2d4171	-0.042298738
71	0x3da4cf17	0.08047312
72	0xbc606fa8	-0.013698496
73	0x3d4bfaf6	0.049799882
74	0x3be2e6e2	0.006924496
75	0xbc3c1cd5	-0.0114814835
76	0xbd8d46e9	-0.06898291
77	0xbd20c51f	-0.03925049
78	0x3d9bac7d	0.07601259
79	0x3cae8e77	0.021308167
80	0xbda83e66	-0.082150266
81	0xbd12c0c9	-0.035828386
82	0x3d5d0219	0.05395708
83	0xbd79da94	-0.060999468
84	0xbd8741ce	-0.06604348
85	0x3daa3d74	0.083125025
86	0x3d1658ac	0.036705658
87	0xbd9030ac	-0.070405334
88	0x3cc560dc	0.024094038
89	0x3c6fdbb1	0.014639781
90	0xbc976fba	-0.018485893
91	0x3d66259e	0.05618822
92	0x3d919a81	0.071095474
93	0xbd521cfb	-0.05129717
94	0xbc05c8b5	-0.008165528
95	0x3d927b8d	0.07152472
96	0xbd8a8c10	-0.06764996
97	0xbdbad7af	-0.0912317
98	0xbd6131e3	-0.054979216
99	0x3d8e9abc	0.06963107
100	0x3d710148	0.058839113
101	0xbca6dabe	-0.020367976
102	0xbc8b1273	-0.01697657
103	0x3d3ff4c3	0.046864282
104	0x3d080901	0.03321171
105	0x3c417a07	0.011808879
106	0xbd888f0b	-0.06667908
107	0xbdba58c9	-0.09098966
108	0x3d5d1997	0.053979483
109	0x3d9c2e18	0.07625979
110	0xbd8254be	-0.063638195
111	0x3c151949	0.009100267
112	0x3d764454	0.060123757
113	0x3d9ed2b4	0.07755032
114	0xbb48e7aa	-0.003065566
115	0x3d0290c8	0.031876355
116	0xbd086701	-0.033301357
117	0xbd40fd74	-0.04711671
118	0x3d834985	0.06410507
119	0xbd3f36ad	-0.046683002
120	0xbd85f991	-0.06541742
121	0x3d8e0af9	0.069356866
122	0x3c78b4e0	0.015179843
123	0x3d906b36	0.07051699
124	0x3ceec0d7	0.029144688
125	0x3b9e01d4	0.0048219953
126	0x3d8a3b18	0.067495525
127	0xbc837d38	-0.01605092

6.weight f4 [4, 128]
0	0x3daf2671	0.08552254
1	0xbc57a343	-0.013161483
2	0xbc8ffcbe	-0.017576572
3	0xbc0892ce	-0.008335782
4	0x3c7e83d2	0.015534358
5	0x3d80fc87	0.06298166
6	0x3d158612	0.036504813
7	0x3c12e399	0.008965396
8	0xbd2b0fae	-0.041763
9	0xbcb72ed2	-0.022361193
10	0x3db1f5e3	0.08689477
11	0x3dae3fc4	0.08508256
12	0x3d81aac4	0.06331399
13	0xbd11fb2e	-0.035639934
14	0xbd9133b3	-0.07089939
15	0xbcba286b	-0.02272435
16	0xbdc381db	-0.09546252
17	0x3d90213b	0.07037588
18	0xbd724e69	-0.05915681
19	0x3ca15490	0.019693643
20	0xbab4f330	-0.0013805386
21	0xbd0b7eeb	-0.034056585
22	0xbcdd4653	-0.027011072
23	0xbd78aae8	-0.060709864
24	0x3ad7c3be	0.0016461534
25	0x3cec7190	0.028862745
26	0x3cf610e3	0.03003735
27	0xbcb2c07a	-0.021820296
28	0x3d1adcda	0.037808277
29	0x3d72b925	0.0592586
30	0xbcadea8e	-0.021230008
31	0xbd1a00bb	-0.037598353
32	0xbd2c6517	-0.042088594
33	0xbc72e36f	-0.014824732
34	0x3c53abc1	0.012919367
35	0xbd719c68	-0.05898705
36	0xbdb7cfa5	-0.08975152
37	0x3db5f097	0.088837795
38	0xbc92273b	-0.017840972
39	0xbd4b6d75	-0.049664933
40	0x3d2dca2c	0.042429134
41	0x3cdf2361	0.02723855
42	0xbd8834f6	-0.066507265
43	0xbd9c5dbf	-0.07635068
44	0x3d74c323	0.05975641
45	0x3b2dba93	0.0026508912
46	0xbd06adc9	-0.03288058
47	0x3c74182e	0.014898343
48	0x3d3f341c	0.046680555
49	0xbd6cc3ab	-0.05780379
50	0xbd4026a8	-0.046911865
51	0xbd472705	-0.048621196
52	0x3c9b7f43	0.018981582
53	0xbd8c64fd	-0.068551995
54	0xbd869884	-0.06572059
55	0xbc23bf09	-0.009994277
56	0xbc164f28	-0.009174146
57	0x3c71f78b	0.0147684915
58	0xbc3dd6dc	-0.011586871
59	0x3b032b14	0.002001469
60	0xbdbb1c1e	-0.09136222
61	0x3d8d7d52	0.069086686
62	0x3d56ebaa	0.05247084
63	0x3d825e7e	0.06365679
64	0x3d485a1b	0.048914056
65	0x3d6da852	0.05802185
66	0xbca05f69	-0.019576745
67	0x3d8c6036	0.06854288
68	0xbd8aec4b	-0.067833506
69	0xbc5de35d	-0.013542977
70	0x3d69ff34	0.057128146
71	0x3d372063	0.04470862
72	0xbd22eea1	-0.039778356
73	0xbd53fff9	-0.051757786
74	0x3da233c1	0.079200275
75	0x3d8115f1	0.06303013
76	0xbd039f4c	-0.03213434
77	0x3d83e723	0.0644057
78	0xbc14df65	-0.0090864645
79	0x3ca029c6	0.01955117
80	0xbd399947	-0.045312192
81	0xbcd30252	-0.025757942
82	0x3da213b2	0.07913913
83	0x3c38b0e0	0.011272639
84	0x3d957451	0.07297576
85	0x3d6b73a9	0.05748335
86	0xbda8de85	-0.08245567
87	0x3c5e1639	0.013555103
88	0xbd9a7a67	-0.07542878
89	0xbcedff2a	-0.029052336
90	0xbbd6f471	-0.0065599014
91	0xbcaabcba	-0.020841945
92	0x3d8b444d	0.06800137
93	0x390a47ed	0.000131875
94	0x3d310e59	0.043226574
95	0xbd2e447b	-0.042545777
96	0xbda61ee7	-0.08111363
97	0x3c92c4eb	0.017916163
98	0xbd252a5c	-0.0403236
99	0x3d8bafa0	0.06820607
100	0x3c603d5e	0.013686506
101	0x3d8b0aa7	0.06789141
102	0xbd98063f	-0.07423066
103	0xbda1e256	-0.07904498
104	0x3d52bf71	0.051452104
105	0xbd3ee08e	-0.04660087
106	0x3d3a653f	0.045506712
107	0xbc6a6bd9	-0.014307939
108	0xbd744954	-0.059640244
109	0xbdb0a733	-0.08625641
110	0x3ca2b5fc	0.019862168
111	0x3cb09e69	0.02155991
112	0x3d6ea7ee	0.05826562
113	0xbcb89717	-0.022532983
114	0xbd90b846	-0.07066397
115	0x3da233c5	0.079200305
116	0xbd3157dc	-0.04329668
117	0xbc624699	-0.013810777
118	0xbc8f9a45	-0.017529616
119	0x3d899b95	0.06719128
120	0xbd7903e5	-0.06079473
121	0x3d8033a7	0.06259852
122	0x3d78e965	0.060769457
123	0x3aec81d3	0.0018044062
124	0x3d1b3659	0.037893627
125	0xbc994297	-0.01870851
126	0xbd5972c6	-0.053087972
127	0x3c9e9e8e	0.019362714
128	0xbbd638e0	-0.0065375417
129	0xbd8a81be	-0.067630276
130	0x3dad2639	0.08454556
131	0x3d16e19a	0.036836244
132	0x3d119451	0.035541836
133	0x3c7cfa46	0.015440529
134	0xbcf39dc5	-0.029738316
135	0xbcd1b376	-0.025598269
136	0xbd765ebb	-0.060148936
137	0xbc83457a	-0.01602434
138	0xbc8c7757	-0.01714675
139	0x3da477a5	0.08030633
140	0x3c7fb114	0.015606184
141	0xbd936164	-0.0719631
142	0xbc727398	-0.0147980675
143	0xbdaf01a7	-0.08545237
144	0xbc805f9b	-0.015670588
145	0xbd9ca59d	-0.07648776
146	0x3cd89ad9	0.026441025
147	0xbd0e2895	-0.03470667
148	0x3dab9340	0.08377695
149	0xbc2dc7c2	-0.010606708
150	0x3cff2cc2	0.031149272
151	0xbce47a3f	-0.027890323
152	0xbdae26fc	-0.085035294
153	0x3d9caef0	0.07650554
154	0xbcd744be	-0.026277896
155	0xbd785b4c	-0.060633942
156	0x3c0230b1	0.007946179
157	0x3aca083b	0.001541383
158	0xbd2490ee	-0.04017728
159	0xbd4180c0	-0.047241926
160	0x3c642362	0.013924452
161	0x3d83c918	0.0643484
162	0x3d41c96e	0.04731124
163	0xbd768d23	-0.060193192
164	0x3d54c073	0.051941346
165	0x3d265b77	0.04061457
166	0x3cd61690	0.026133806
167	0x3d10f261	0.0353874
168	0x3cef5944	0.02921737
169	0x3da8a0d4	0.082338005
170	0x3c6513bb	0.013981755
171	0x3d7c55e1	0.061605338
172	0xbd91df77	-0.07122701
173	0xbd0875cd	-0.03331547
174	0x3d5a476c	0.05329077
175	0x3d80ce53	0.06289353
176	0x3dacb10a	0.08432205
177	0xbd3d8eee	-0.046278886
178	0xbce64df4	-0.028113343
179	0xbd34280a	-0.043983497
180	0xbcf78eab	-0.030219397
181	0xbcf4cf8f	-0.029884128
182	0x3cd7a648	0.026324406
183	0x3cd51367	0.026010228
184	0xbc338f33	-0.010959434
185	0x3ce46c84	0.027883776
186	0x3cf3b0d2	0.0297474
187	0xbd451632	-0.04811687
188	0x3cb4c0b9	0.022064554
189	0xbd214419	-0.039371584
190	0xbccc0fe7	-0.024909927
191	0x3d62399e	0.05523073
192	0xbba95990	-0.0051681474
193	0xbd36837e	-0.044558994
194	0x3b2d84c2	0.0026476835
195	0xbcd576f8	-0.026057705
196	0xbd89bca8	-0.067254364
197	0x3a1a936c	0.00058966014
198	0x3da3d6c8	0.07999951
199	0xbd5360f0	-0.05160612
200	0xbc83f3ab	-0.0161074
201	0x3b4bd545	0.003110246
202	0x3b50f028	0.0031881426
203	0x3da27ee3	0.07934358
204	0x3d94a1c7	0.07257419
205	0x3cc50848	0.0240518
206	0xbd6749c8	-0.056466848
207	0xbd3d24ad	-0.046177555
208	0xbd907042	-0.070526615
209	0x38ee31fc	0.00011358035
210	0xbc87eaa2	-0.016591374
211	0x3d8726e0	0.06599212
212	0x3c7aa848	0.01529891
213	0x3b8ba9f5	0.004262204
214	0x3d981e3e	0.07427643
215	0xbd491a1f	-0.049097177
216	0xbc99e2a0	-0.018784821
217	0xbda47571	-0.08030213
218	0x3d852b61	0.065024145
219	0x3d69bfce	0.057067685
220	0x3c8c3fb8	0.017120227
221	0xbd0bd84f	-0.034141835
222	0xbda66bf2	-0.08126058
223	0x3d433eb0	0.047667205
224	0x3d8bdd2a	0.06829293
225	0xbd97e478	-0.07416624
226	0xbc4c776a	-0.012479642
227	0x3c3115e5	0.010808443
228	0xbd1d677b	-0.038428765
229	0xbd71218c	-0.058869883
230	0xbbbe419c	-0.005806161
231	0x3d3d5fa9	0.046233807
232	0xbcd363eb	-0.02580448
233	0xbd1edeb1	-0.038786594
234	0xbd834c5f	-0.06411051
235	0xbce29be3	-0.027662223
236	0xbda382da	-0.07983942
237	0xbbc03c54	-0.0058665667
238	0x3c7454c7	0.014912791
239	0xbd770e96	-0.060316645
240	0xbd8d4401	-0.06897736
241	0x3b9a03ba	0.0047001513
242	0xbd9d7fbd	-0.0769038
243	0xbd82b2ec	-0.06381783
244	0x3d6f8467	0.058475878
245	0x3d979843	0.074020885
246	0xbd100dcb	-0.035169404
247	0x3d36c09a	0.044617273
248	0x3daec582	0.085337654
249	0x3d2ef8de	0.042717807
250	0xbd79b930	-0.060967624
251	0xbda5ae83	-0.08089926
252	0x3d39f50c	0.04539971
253	0xbc5c23d9	-0.013436281
254	0x3d52523f	0.051347967
255	0x3c2d5de9	0.010581472

6.bias f4 [4]
0	0x3d48c17d	0.04901265
1	0x3c5ecfff	0.013599395
2	0x3c81ea34	0.015858747
3	0x3a4bd855	0.00077760714
