modelF.pt (torch, 137925 bytes, 8 tensors)

0.weight f4 [128, 2]
0	0xbe9c2f52	-0.30504853
1	0x3e6678ec	0.22507066
2	0x3e469303	0.19392018
3	0xbb9a3cd8	-0.00470696
4	0xbeb0e2fc	-0.34548175
5	0xbea2e312	-0.31813866
6	0xbf129552	-0.57259095
7	0xbe28cddc	-0.16484779
8	0x3e02d274	0.12775594
9	0xbf2d3c43	-0.6767008
10	0xbea7d906	-0.32782763
11	0x3d5969f7	0.05307957
12	0xbec63719	-0.3871391
13	0xbe9b66d5	-0.30351892
14	0xbdbe3896	-0.09288137
15	0x3e19e584	0.1502896
16	0x3cf9340e	0.03042033
17	0xbe69ed6d	-0.22844477
18	0x3e917200	0.28407288
19	0xbe8412f3	-0.25795707
20	0xbe4f7774	-0.20260412
21	0xbf0be4d6	-0.5464605
22	0x3f2bda55	0.67130023
23	0x3d18f7c0	0.037345648
24	0xbefa6847	-0.48907682
25	0x3ddac5d1	0.10682262
26	0xbf252d4b	-0.64522237
27	0x3f073ae4	0.52824235
28	0xbec59676	-0.38591355
29	0x3ef8c102	0.48584753
30	0x3e806a7d	0.25081244
31	0xbf1b1084	-0.60572076
32	0xbf04f067	-0.51929325
33	0xbea51e0c	-0.32249486
34	0xbef69637	-0.4816148
35	0x3dee2385	0.116278686
36	0x3e9fd483	0.3121682
37	0xbf0af24d	-0.5427597
38	0x3ef5d57c	0.48014438
39	0x3e9562cc	0.2917694
40	0xbf334eb5	-0.7004197
41	0xbf1679b4	-0.58779454
42	0xbdbfe53a	-0.09369893
43	0x3e09b98f	0.13449691
44	0x3b032404	0.002001048
45	0xbf3249a3	-0.6964361
46	0xbf091116	-0.53541696
47	0xbf26cb54	-0.65154004
48	0xbdf0340a	-0.11728676
49	0x3ee65ad1	0.44991162
50	0x3ea5b3e0	0.32363796
51	0xbf312bc3	-0.692074
52	0x3f0c00ab	0.5468852
53	0x3ee15568	0.44010472
54	0x3d3ba1c3	0.045808565
55	0x3f1b3986	0.6063465
56	0xbe95c0a5	-0.2924854
57	0xbf34c167	-0.7060761
58	0x3edf5d10	0.4362569
59	0xbedc2d34	-0.43003237
60	0xbf003483	-0.50080127
61	0xbf1eec00	-0.6207886
62	0x3ea5cbe0	0.32382107
63	0xbee7236a	-0.45144206
64	0x3f2acd36	0.6671938
65	0xbe80c2d5	-0.25148645
66	0xbf3299a4	-0.69765687
67	0x3ea67cd9	0.32517126
68	0x3ea1812a	0.31543857
69	0x3ede30f9	0.43396738
70	0xbe056fe3	-0.13030963
71	0xbee6fdc0	-0.4511547
72	0xbe900c83	-0.28134546
73	0x3e90019e	0.28126234
74	0xbde91a77	-0.11382001
75	0x3f1c7df5	0.61129695
76	0x3efbaf53	0.491572
77	0xbe962fa0	-0.2933321
78	0x3e4ab5f8	0.19795978
79	0xbe95e0fc	-0.29273212
80	0x3f32a265	0.69779044
81	0xbed19bbf	-0.40939137
82	0x3e971dae	0.2951483
83	0xbdcb2a7d	-0.09920213
84	0xbe4b67da	-0.19863835
85	0x3d906c67	0.07051926
86	0x3c35f44e	0.01110561
87	0xbf1d9631	-0.615573
88	0x3f2cee3b	0.6755101
89	0xbf14858d	-0.5801628
90	0xbf175b6c	-0.59123874
91	0xbe4b637f	-0.19862173
92	0x3e9bf953	0.30463657
93	0x3da1cf49	0.07900865
94	0x3e8d2709	0.27568844
95	0x3ef7b824	0.48382676
96	0xbe160cf5	-0.1465338
97	0x3f2bd950	0.6712847
98	0x3f103334	0.5632813
99	0x3e861bf8	0.26193213
100	0x3d7f9d6e	0.062405996
101	0xbf316c08	-0.6930547
102	0xbea713e5	-0.32632366
103	0xbf0ac756	-0.5421041
104	0xbf1052a9	-0.5637613
105	0x3dff29ba	0.124591306
106	0xbf1a480c	-0.60266185
107	0x3f185d4d	0.59517366
108	0x3f2da321	0.6782704
109	0x3f2cbdc1	0.6747704
110	0x3e92c6cb	0.28667292
111	0xbf32e53a	-0.6988102
112	0xbe7845ce	-0.24245378
113	0x3f04b855	0.5184377
114	0xbd387755	-0.04503568
115	0xbf07f3e6	-0.53106534
116	0x3e30dd76	0.1727198
117	0xbedc90f3	-0.43079337
118	0x3d87ba85	0.06627373
119	0xbc99e8e0	-0.018787801
120	0xbef79b9d	-0.4836091
121	0xbda82e19	-0.082119174
122	0xbe227838	-0.15866172
123	0xbe17604d	-0.1478283
124	0x3e493c5a	0.19651929
125	0x39a9ed35	0.00032410925
126	0xbf328aef	-0.69743246
127	0x3ddbbc33	0.107292555
128	0xbdd02c8f	-0.10164749
129	0x3e8df141	0.27723125
130	0xbd1c9500	-0.038228035
131	0x3e2069b6	0.15665326
132	0x3f2309e8	0.6368699
133	0xbe4ba488	-0.19886982
134	0xbf2d7a48	-0.6776471
135	0xbf25cac3	-0.64762515
136	0x3f2053dd	0.62627965
137	0xbd6e4dfd	-0.058179844
138	0xbecfcbe8	-0.40585256
139	0x3da6d8b2	0.081468
140	0x3ee68c94	0.45029128
141	0xbe422804	-0.18960577
142	0xbe047f6d	-0.12939234
143	0xbe75355c	-0.23946136
144	0xbe31f777	-0.17379557
145	0x3ef1a2a9	0.47194412
146	0x3e6aa869	0.22915806
147	0xbe1578a4	-0.14596802
148	0xbed6edd3	-0.4197832
149	0xbed2ddc5	-0.41184822
150	0x3f2d1c90	0.6762171
151	0x3f2c3f74	0.6728432
152	0x3ebfd587	0.37467596
153	0xbf122f44	-0.5710337
154	0x3ee20ec2	0.44151884
155	0xbf09b607	-0.53793377
156	0xbeeddb21	-0.46456245
157	0x3ed9ac69	0.4251435
158	0x3f2e1ef6	0.6801599
159	0xbf209715	-0.6273053
160	0x3edd746b	0.43252882
161	0x3e8d3c83	0.2758523
162	0x3f08bb65	0.5341094
163	0x3ed75428	0.42056394
164	0x3e516f11	0.20452525
165	0xbe94fd3d	-0.29099455
166	0xbf03ef0a	-0.5153662
167	0x3ef4b35a	0.47793084
168	0xbe87a3dc	-0.26492202
169	0x3d0b0fbb	0.03395055
170	0x3eb6137c	0.3556174
171	0xbd51f79b	-0.051261526
172	0x3e91bb3e	0.28463167
173	0xbf055190	-0.5207758
174	0xbdab4ea1	-0.08364607
175	0x3eaa2b17	0.33236
176	0x3f067203	0.5251772
177	0xbee6e6ef	-0.45098063
178	0xbed84d44	-0.4224645
179	0xbe86a63d	-0.26298705
180	0xbf0de83f	-0.55432504
181	0xbf17d7e5	-0.59313804
182	0x3e7f527f	0.24933814
183	0x3c9bd642	0.019023065
184	0x3d913018	0.07089251
185	0x3f29319c	0.6609132
186	0x3ef2ccdf	0.4742193
187	0xbf1a1ed3	-0.60203284
188	0x3f0d390e	0.55165184
189	0xbf164098	-0.5869231
190	0xbdb19954	-0.08671823
191	0x3d8a49e0	0.06752372
192	0xbe469b96	-0.19395289
193	0x3ec1684a	0.3777488
194	0x3e86add7	0.26304504
195	0x3ec79060	0.38977337
196	0x3f255bf2	0.6459342
197	0x3e165dca	0.14684215
198	0x3e68c05a	0.22729626
199	0xbe195be5	-0.14976461
200	0xbe531aa0	-0.20615625
201	0x3ef9d109	0.48792294
202	0xbed09344	-0.40737355
203	0xbe80193f	-0.2501926
204	0x3f1f1d91	0.6215449
205	0xbe1875d7	-0.14888702
206	0xbea13d64	-0.3149215
207	0xbe91c90a	-0.28473693
208	0x3f1a2c3b	0.6022374
209	0xbdebb933	-0.11509933
210	0x3b5fcc9e	0.003414906
211	0xbe64db17	-0.22349201
212	0xbdad07a5	-0.08448724
213	0x3e94c232	0.2905441
214	0xbe7f7054	-0.24945194
215	0xbc999ece	-0.018752482
216	0x3ed258b6	0.41083306
217	0x3f128687	0.5723652
218	0xbef35d96	-0.47532338
219	0x3eb310ac	0.34973657
220	0x3e51714d	0.20453377
221	0x3dfbcca6	0.12294893
222	0xbdf733a0	-0.120703936
223	0xbe987ab4	-0.29781115
224	0xbf040486	-0.515694
225	0xbeb9b17f	-0.3626823
226	0x3c657ce8	0.014006831
227	0x3d639c40	0.055568933
228	0xbf102a59	-0.5631462
229	0xbdd0974a	-0.10185106
230	0xbc3872d3	-0.011257845
231	0x3eb072ad	0.3446249
232	0x3c645c0d	0.013937962
233	0x3ea5b11a	0.3236168
234	0xbf19f77b	-0.6014325
235	0x3ee231bf	0.44178578
236	0xbeb8e541	-0.36112407
237	0xbf0c6596	-0.5484251
238	0xbe4b5ad0	-0.19858861
239	0x3efd4abb	0.49471077
240	0x3e686abf	0.2269697
241	0x3e9f5098	0.31116176
242	0xbcd3066d	-0.0257599
243	0xbf08305c	-0.5319879
244	0xbe89941e	-0.26870817
245	0xbde00114	-0.10937706
246	0xbdad7035	-0.084686674
247	0xbe475993	-0.19467764
248	0xbf04bcb9	-0.5185047
249	0xbf17ffa3	-0.59374446
250	0x3ed45ec7	0.4147856
251	0xbeaf23f0	-0.34207106
252	0x3d5b80fb	0.053589802
253	0x3e77a036	0.2418221
254	0xbe5fcca4	-0.21855408
255	0x3ea05e7a	0.3132208

0.bias f4 [128]
0	0x3d85fbd9	0.06542177
1	0x3f2e4b96	0.68084085
2	0x3dd7d5c4	0.105388194
3	0x3e8088f6	0.25104493
4	0x3e279c9c	0.16368335
5	0xbeb00c1d	-0.34384242
6	0xbce9495b	-0.028477361
7	0x3d972a5d	0.07381127
8	0x3ef41f91	0.47680333
9	0x3eb1ca5a	0.34724694
10	0x3ea85659	0.32878378
11	0x3e5c3896	0.21505961
12	0xbedec1c6	-0.43507212
13	0xbe85beed	-0.26122227
14	0xbf16c7b4	-0.5889847
15	0xbea77f71	-0.32714418
16	0xbc03623e	-0.008019028
17	0xbe0d8394	-0.13819724
18	0x3e4f4b04	0.2024346
19	0x3ef7d1a1	0.48402122
20	0x3f2e3799	0.68053585
21	0xbd8efd5f	-0.069819205
22	0x3f261ce7	0.6488785
23	0xbf2b7b6a	-0.6698519
24	0xbe4f9be4	-0.20274311
25	0x3ee7889b	0.4522141
26	0x3e8afa1f	0.27143952
27	0x3ebfc35d	0.37453738
28	0x3eb86ebc	0.36021984
29	0x3f31f069	0.6950746
30	0xbea50bd7	-0.32235596
31	0xbeb20332	-0.34768063
32	0xbdf46f80	-0.119353294
33	0xbf1cc011	-0.6123057
34	0x3ef0b97e	0.4701652
35	0xbd759e0e	-0.059965186
36	0x3e703a9a	0.23459855
37	0x3ea72f5c	0.3265332
38	0x3d3be496	0.045872293
39	0xbec8f0ea	-0.39246303
40	0xbdc4b29f	-0.09604382
41	0x3e015ff4	0.1263426
42	0xbcbddaa1	-0.02317554
43	0x3e2433b5	0.1603535
44	0xbf2ca25c	-0.6743524
45	0x3e9d255c	0.30692565
46	0x3b77d747	0.0037817524
47	0xbea0edee	-0.31431526
48	0xbed1d0ed	-0.4097971
49	0x3ecae714	0.39629424
50	0x3e5d2ba1	0.21598674
51	0xbef49bdd	-0.47775164
52	0xbf18e639	-0.5972629
53	0x3f0b69e6	0.54458463
54	0xbe4e22ac	-0.20130414
55	0xbe33ddb6	-0.17565045
56	0x3e847db7	0.25877163
57	0xbe88d8e3	-0.2672797
58	0x3ee72b72	0.45150334
59	0xbe938af3	-0.28816947
60	0xbd2f0013	-0.04272468
61	0xbdb44076	-0.088013574
62	0x3e415a89	0.18882193
63	0xbb838703	-0.0040138974
64	0x3f1a17b9	0.6019245
65	0xbf1c7221	-0.61111647
66	0x3e10df9e	0.14147803
67	0xbf29e36a	-0.6636263
68	0xbf27f1f8	-0.6560359
69	0xbf0dfec9	-0.55466896
70	0xbe8cb5b8	-0.2748239
71	0xbd96ea80	-0.07368946
72	0x3ec8cbd8	0.3921802
73	0xbd857fe2	-0.06518532
74	0x3d6e5718	0.058188528
75	0x3e0e3860	0.13888693
76	0xbd2d0fdd	-0.042251457
77	0x3f1ce087	0.612801
78	0x3e8be9cc	0.2732681
79	0xbeee6d4a	-0.46567756
80	0xbe773fbc	-0.24145406
81	0xbe284d24	-0.16435677
82	0x3e0f49bd	0.13992973
83	0x3f1a2f82	0.6022874
84	0x3ebf544b	0.37368998
85	0xbf01da2f	-0.50723547
86	0x3cfc4278	0.030793414
87	0x3e95c9e4	0.29255593
88	0xbd9ca456	-0.07648532
89	0xbdb5f8d0	-0.08885348
90	0xbe1dbb8e	-0.15403578
91	0x3f2093c0	0.6272545
92	0xbd5ce683	-0.05393077
93	0xbf030e46	-0.51193655
94	0x3eb67661	0.3563719
95	0xbf08ca0e	-0.5343331
96	0x3ec2cc1c	0.38046348
97	0x3e93aa4e	0.2884087
98	0xbe935aff	-0.28780362
99	0x3e46c21f	0.19409989
100	0xbedde0b4	-0.43335497
101	0xbde9cd8a	-0.114161566
102	0x3ee1a9e5	0.44074932
103	0x3e768fa5	0.24078234
104	0xbf0ff388	-0.56230974
105	0xbe3a5be0	-0.1819911
106	0xbea8d5d0	-0.32975626
107	0x3b8d9ec7	0.0043219062
108	0x3d3eb411	0.046558443
109	0xbe96d0e4	-0.29456246
110	0xbe7c63af	-0.24647401
111	0xbdcbaa08	-0.0994454
112	0xbe9b29db	-0.3030537
113	0x3f2db2a1	0.6785069
114	0x3d028dc1	0.03187347
115	0x3f1f2139	0.6216007
116	0xbeb2439c	-0.34817207
117	0xbe89ea02	-0.26936346
118	0xbdb968f1	-0.09053219
119	0xbebcbb8b	-0.36861834
120	0xbeb55880	-0.35419083
121	0xbef0c6ee	-0.4702677
122	0xbe12d911	-0.14340617
123	0x3e732f23	0.2374845
124	0x3f11c6de	0.5694407
125	0x3c0d15f4	0.008611191
126	0xbf093b90	-0.5360651
127	0xbeae998b	-0.3410152

2.weight f4 [128, 128]
0	0xbd08f263	-0.033434283
1	0xbd44e440	-0.04806924
2	0x3ccff962	0.02538747
3	0xbce788c8	-0.028263465
4	0x3cd70e57	0.026251955
5	0xbbe7e6a7	-0.0070770564
6	0xbd20daf6	-0.039271317
7	0x3d3ded3a	0.046368815
8	0x3a4169bd	0.0007378122
9	0xb854d6d2	-5.0744806e-05
10	0xbd949ef6	-0.07256882
11	0xbc01e7a1	-0.00792876
12	0xbcf351b8	-0.029702052
13	0x3d865034	0.06558266
14	0xbd3d5335	-0.04622193
15	0x3cf9e36b	0.03050395
16	0x3c825dd4	0.015913881
17	0xbcff2182	-0.031143907
18	0xbc5cdf92	-0.013481038
19	0x3d2f0131	0.042725746
20	0xbce64f89	-0.028114097
21	0xbc1ae3c3	-0.009453717
22	0x3d78c7e4	0.060737506
23	0xbd9e924b	-0.07742747
24	0xbd89dd21	-0.0673163
25	0xbd842d97	-0.06454008
26	0xbb8bdbff	-0.004268169
27	0x3ca4efd2	0.020133886
28	0x3d4ad0eb	0.049515646
29	0x3d78d2f6	0.060748063
30	0x3d877592	0.06614222
31	0xbb3a2a4a	-0.0028406554
32	0xbd37998d	-0.04482417
33	0xbda0fc4b	-0.07860621
34	0x3caa52f2	0.020791505
35	0xbd90fae5	-0.07079104
36	0xbb1ee06e	-0.0024242657
37	0xbd5b6356	-0.05356153
38	0xbc35159c	-0.011052515
39	0xbc9b75f0	-0.018977135
40	0xbd4c8b72	-0.049937673
41	0x3d7384b3	0.059452724
42	0x3da2436f	0.07923018
43	0xbd9d3486	-0.07676034
44	0xbd864e90	-0.06557953
45	0xbd893014	-0.06698623
46	0x3d2786ff	0.040900227
47	0x3c0d1309	0.008610495
48	0x3d72a46d	0.05923884
49	0x3d49c174	0.049256757
50	0x3d2823e0	0.041049838
51	0xbd074ea1	-0.03303397
52	0xbdaaccc5	-0.08339838
53	0xbb26937d	-0.00254175
54	0x3b88cb76	0.004174645
55	0xbd927e15	-0.071529545
56	0x3d053669	0.032522593
57	0x3d0423c7	0.032260682
58	0xbc3c2acf	-0.011484816
59	0x3d90b8ee	0.070665225
60	0x3cd6b05c	0.026207142
61	0xbd0afa36	-0.033930026
62	0x3cc6afea	0.024253804
63	0xbc0221a8	-0.007942595
64	0xbda408e8	-0.08009511
65	0x3d23ad1a	0.039960004
66	0xbd72ca93	-0.05927522
67	0x3c5f3410	0.0136232525
68	0xbd3c64cb	-0.04599456
69	0xbd7cfd5b	-0.061765056
70	0xbdb2681f	-0.08711266
71	0x3cb6b1ec	0.022301637
72	0xba22a108	-0.0006203805
73	0xbd3e972f	-0.0465309
74	0x3d6f4aa9	0.05842081
75	0x3cb4c232	0.022065256
76	0xbd4a8103	-0.04943944
77	0x3d0a9512	0.03383357
78	0xbc9d1195	-0.019173423
79	0x3c20b9d6	0.009809932
80	0x3c939dee	0.018019643
81	0x3cd5e423	0.02610976
82	0xbc2774f7	-0.010220758
83	0x3d19376c	0.03740637
84	0xbc22097e	-0.009889958
85	0x37bb8f61	2.2358903e-05
86	0x3d64b241	0.05583406
87	0x3d587f6a	0.052855887
88	0x3d038d24	0.032117024
89	0xbd5a22a1	-0.05325568
90	0xbd2976a8	-0.041372925
91	0x3aceef06	0.0015787787
92	0xbceb7f4e	-0.028747227
93	0x3c5076ac	0.012723606
94	0xbcf5c2a0	-0.030000031
95	0xbd3cf814	-0.046135023
96	0xbd92003a	-0.071289495
97	0x3c0d59ec	0.008627396
98	0x3bd89345	0.006609353
99	0x3c8ef37e	0.01745009
100	0xbd682333	-0.056674194
101	0xbcca0cfe	-0.024664398
102	0x3c508b39	0.012728506
103	0xbd062f12	-0.032759733
104	0xbcfaae89	-0.030600803
105	0xbd987359	-0.07443876
106	0x3da5fd37	0.081049375
107	0xbd847b40	-0.064688206
108	0xbc00e677	-0.007867447
109	0x3d63c2fc	0.055605873
110	0x3cd18cca	0.025579829
111	0x3d8268cc	0.06367645
112	0x3d54aa70	0.051920354
113	0x3c668c64	0.014071558
114	0xbd711981	-0.058862213
115	0x3cfcc5dc	0.030856065
116	0xbd9cdd4c	-0.076593965
117	0xbd15cf16	-0.036574446
118	0x3d239217	0.039934244
119	0xbd21c95d	-0.039498676
120	0xbd0ad07e	-0.03389024
121	0xbcb6b5fc	-0.022303574
122	0xbd4744ba	-0.048649527
123	0xbba50ffe	-0.005037307
124	0xbcfa75ae	-0.030573692
125	0xbda76b56	-0.081747696
126	0xbd183116	-0.037156187
127	0xbb4b0d02	-0.0030983095
128	0xbce864ea	-0.028368432
129	0x3d609cdd	0.054837096
130	0x3d1cfc3d	0.03832649
131	0xbd5c420e	-0.053773932
132	0x3d950edb	0.07278224
133	0xbd835b41	-0.0641389
134	0xbd940a65	-0.07228545
135	0x3d85ab43	0.06526806
136	0x3d4a25bb	0.04935239
137	0xbb6c0ca3	-0.0036018274
138	0x3d5c2add	0.053751815
139	0xbdb43968	-0.08800012
140	0xbd972fb2	-0.07382144
141	0x3c95c70b	0.018283388
142	0x3d0ccce4	0.034375086
143	0x3d4b8099	0.049683187
144	0xbda40ad3	-0.08009877
145	0xbc0463ce	-0.008080436
146	0x3db321a3	0.0874665
147	0x3d1f7e36	0.038938724
148	0x3dae0b6b	0.084982716
149	0x3c928316	0.017884772
150	0x3d95ab6a	0.07308085
151	0xbd2c0d89	-0.042005096
152	0xbbe21220	-0.0068991333
153	0xbda58b61	-0.08083225
154	0x3ac797e4	0.0015227762
155	0x3d348ab8	0.044077605
156	0xbd9b850d	-0.07593737
157	0x3d95037a	0.07276054
158	0xbd5c411a	-0.053773023
159	0x3c8c338c	0.017114423
160	0x3ce228b6	0.027607303
161	0x3d74fb09	0.05980972
162	0xbc19c563	-0.00938544
163	0x3da74a63	0.08168485
164	0xbd910b52	-0.07082237
165	0x3da56f3a	0.080778554
166	0x3cffb622	0.031214777
167	0x3cdee834	0.027210332
168	0xbd165f7d	-0.03671216
169	0xbd55a962	-0.05216349
170	0xbd5e05d1	-0.054204766
171	0x3d8256ba	0.06364198
172	0x3d55f8f1	0.052239362
173	0xbb1cd148	-0.0023928452
174	0xbd14c2ed	-0.03631871
175	0xbd419202	-0.047258385
176	0xbd866cba	-0.06563707
177	0xbd949da9	-0.07256634
178	0x3d746247	0.059664037
179	0x3d54a571	0.05191559
180	0x3d1924ba	0.03738854
181	0x3c4846fc	0.012223955
182	0xbd9e4366	-0.07727699
183	0xbc9d3287	-0.019189132
184	0x3d87b06f	0.06625449
185	0xbd2827a8	-0.041053444
186	0xbc5b844b	-0.01339824
187	0xbcac768e	-0.021052625
188	0xbd3e159e	-0.046407335
189	0x3db150f2	0.08658017
190	0xbd534397	-0.05157813
191	0xbda3055c	-0.079600066
192	0x3d9174e8	0.07102376
193	0xbc0c3c6e	-0.008559329
194	0xbbc30ed2	-0.0059526945
195	0xbae6696f	-0.0017579029
196	0x3d2f16e4	0.04274644
197	0x3cc781d6	0.024353903
198	0x3d2c9b9c	0.04214059
199	0xbd971e72	-0.07378854
200	0xbd1ad503	-0.0378008
201	0xbd65fc92	-0.056149073
202	0x3d472354	0.048617676
203	0x3d8b06e5	0.067884244
204	0xbda86746	-0.08222823
205	0x3d70c783	0.05878402
206	0x3c9347aa	0.017978508
207	0x3d3f35e3	0.04668225
208	0x3c652e05	0.013988023
209	0xbda3106b	-0.07962116
210	0x3db45b2d	0.08806453
211	0xbd22ea5f	-0.039774295
212	0x3d3712bd	0.044695605
213	0xbcf99187	-0.0304649
214	0xbd971bce	-0.0737835
215	0xbd4754c5	-0.048664827
216	0x3d05f3c3	0.032703172
217	0x3bd46fc2	0.006483049
218	0x3dab0c85	0.08351997
219	0x3d6e9e37	0.058256354
220	0x3d44e393	0.048068594
221	0x3da4f151	0.0805384
222	0x3ca6f528	0.020380571
223	0x3ca9b192	0.020714555
224	0x3da231c0	0.07919645
225	0x3d63d200	0.055620193
226	0x3c93c88e	0.018039968
227	0xbc4a92e7	-0.012364126
228	0xbb59e095	-0.0033245434
229	0x3d687002	0.056747444
230	0xbcb3f72a	-0.021968443
231	0x3c2fdb96	0.010733506
232	0x3d78abaa	0.060710587
233	0x3d98a8cb	0.0745407
234	0xbc3e76b9	-0.011624985
235	0x3d638a38	0.055551738
236	0x3c87ade7	0.016562415
237	0xbbcb0908	-0.006196145
238	0x3cc87ab1	0.024472566
239	0x3da2caa0	0.07948804
240	0x3d4b9e2d	0.049711395
241	0xbdab08e0	-0.08351302
242	0x3d94c316	0.07263772
243	0xbdaa7044	-0.08322194
244	0xbd7c44ca	-0.06158904
245	0x3daed2a6	0.08536272
246	0x3d23abdb	0.039958816
247	0x3d331b9f	0.043727513
248	0x3c8bfce1	0.017088355
249	0x3d502c9e	0.0508238
250	0xbd28200e	-0.041046195
251	0x3cfee7f2	0.03111646
252	0xbc80707d	-0.015678639
253	0xbbe852ed	-0.0070899636
254	0xbda925f1	-0.0825919
255	0x3cb78876	0.022403937

2.bias f4 [128]
0	0x3d308da8	0.043103844
1	0xbd39453e	-0.04523205
2	0x3ccf6e97	0.025321288
3	0xbc2d4255	-0.010574897
4	0x3d07c6e2	0.033148654
5	0xbcedb503	-0.029016977
6	0xbc864a07	-0.01639272
7	0x3d22f662	0.03978575
8	0x3d8e91a7	0.06961375
9	0xbd3d9487	-0.046284225
10	0x3cd8b246	0.026452195
11	0x3d83a9cc	0.064288706
12	0x3da1c81b	0.07899495
13	0x3d75db66	0.060023688
14	0x3d55d6c2	0.052206762
15	0xbd1baa79	-0.038004372
16	0x3db0bca7	0.086297326
17	0x3d86f9d5	0.065906204
18	0xbd44bbec	-0.04803078
19	0xbc80b14c	-0.015709542
20	0xbd5ad612	-0.05342681
21	0xbd9e44d6	-0.07727973
22	0xbd4dd1ee	-0.050249033
23	0x3cf4569f	0.02982646
24	0xbbfe4a5f	-0.0077603306
25	0x3d41fb0f	0.04735857
26	0x3d8460f3	0.06463804
27	0x3d335e8b	0.043791335
28	0xbd1bab44	-0.03800513
29	0x3ccfeed2	0.025382433
30	0x3ce6c86e	0.028171744
31	0x3d7f9001	0.062393192
32	0x3d8225fe	0.06354903
33	0x3d5c2f2c	0.053755924
34	0x3d94907f	0.07254123
35	0x3ceda7ff	0.02901077
36	0xbd995463	-0.074867986
37	0x3d68b07f	0.056808945
38	0xbbe72d09	-0.007054929
39	0x3daccba9	0.084372826
40	0x3d152e6e	0.036421232
41	0xbd931a37	-0.071827345
42	0x3ce51b80	0.027967215
43	0x3d16208c	0.036652133
44	0xbb19f5f4	-0.0023492547
45	0xbd989559	-0.07450361
46	0x3d227bfd	0.039669026
47	0xbbaf11d7	-0.005342703
48	0x3d947b8a	0.07250126
49	0x3cddf314	0.027093448
50	0xbda645a8	-0.081187546
51	0xbd47f630	-0.048818767
52	0xbd46fcd0	-0.048580945
53	0x3af48446	0.0018655143
54	0xbdaabbbf	-0.08336591
55	0xbd2c3698	-0.042044252
56	0x3d338695	0.04382952
57	0x3c330129	0.01092557
58	0x3d8ddf0b	0.06927308
59	0x3c9cc197	0.01913528
60	0x3c69d677	0.014272324
61	0x3ce63329	0.028100567
62	0x3cc0cd3f	0.023535369
63	0xbd367c83	-0.044552337
64	0x3c56d368	0.013111927
65	0xbc955fe4	-0.0182342
66	0xbd542ea6	-0.0518023
67	0x3bb1a1af	0.0054208855
68	0x3c30badb	0.010786737
69	0xbba3c9c1	-0.004998416
70	0xbcf5f946	-0.03002609
71	0x3d6b14d2	0.057392903
72	0x3d8bb050	0.06820738
73	0x3c1b47c6	0.009477561
74	0xbc244634	-0.010026503
75	0xbd69af06	-0.05705168
76	0x3d22ff5d	0.039794315
77	0x3d9c4cee	0.07631861
78	0xbd6c8eae	-0.057753257
79	0xbd21d264	-0.039507285
80	0xbd12f313	-0.035876345
81	0xbd6faf11	-0.058516566
82	0x3c2fad24	0.010722432
83	0x3a45e99d	0.00075497647
84	0x3d058a2c	0.032602474
85	0x3d764b1c	0.060130224
86	0x3cf751db	0.030190399
87	0x3cacd4dd	0.021097595
88	0xbd3ff5fd	-0.046865452
89	0x3cf6ebc4	0.030141719
90	0xbcc903fb	-0.02453803
91	0x3db1328c	0.08652219
92	0x3d1d7e44	0.038450494
93	0x3ce046d1	0.027377518
94	0x3a702328	0.0009160512
95	0x3cd286a9	0.025698977
96	0x3d616f4b	0.055037778
97	0x3d5e3c6b	0.054256838
98	0xbd217848	-0.03942135
99	0x3d31c53a	0.04340098
100	0xbd9ceab0	-0.076619506
101	0x3d8f3773	0.06992998
102	0x3d8c2e4e	0.068447694
103	0x3dad0488	0.0844813
104	0x3d77bab2	0.06048078
105	0xbd4a9e3d	-0.049467314
106	0xbb205ef9	-0.002447067
107	0xbdb3915f	-0.08767962
108	0xbc20aa1a	-0.00980618
109	0x3d4e82dc	0.050417766
110	0x3d80d674	0.06290904
111	0x3d2d24d0	0.042271435
112	0x3ccfe61d	0.025378281
113	0x3bf89199	0.007585716
114	0x3cfe12dd	0.031014854
115	0xbdac82df	-0.08423399
116	0xbd43f145	-0.047837514
117	0xbb39c0c1	-0.002834365
118	0xbda0c2be	-0.07849644
119	0x3d71a252	0.05899269
120	0xbd82ecb3	-0.06392803
121	0xbda81eae	-0.08208977
122	0xbcb083c5	-0.021547208
123	0xbda8483b	-0.08216902
124	0x3d960dd4	0.07326856
125	0xbc8317cc	-0.016002558
126	0xbd2d9562	-0.04237879
127	0x3d430297	0.04760989

4.weight f4 [128, 128]
0	0xbd22e728	-0.03977123
1	0x3d89fe1f	0.06737923
2	0x3d2b3e63	0.041807543
3	0x3c5fa615	0.013650437
4	0x3d8bde23	0.068294786
5	0xbc7235d7	-0.014783344
6	0x3c745ae8	0.014914252
7	0x3b92a36a	0.004475047
8	0xbb86a1fa	-0.0041086646
9	0xbc70045a	-0.014649475
10	0xbd88638a	-0.066596106
11	0xbd68ac2d	-0.056804825
12	0x3da94ec1	0.08266974
13	0xbd4ae849	-0.04953793
14	0x3db3c5e9	0.08777983
15	0xbbae1266	-0.005312252
16	0xbcb6f1b7	-0.022332055
17	0x3cf8086c	0.030277453
18	0x3b6c3168	0.003604019
19	0xbd710d65	-0.058850665
20	0xbd41d992	-0.04732663
21	0xbcf36cd0	-0.029714972
22	0x3c44e374	0.01201712
23	0xbcd2a413	-0.025713002
24	0xbbf5ac60	-0.0074973553
25	0xbd0cfac0	-0.03441882
26	0xbc23f9d6	-0.010008296
27	0xbd7f1503	-0.062275898
28	0x3d1054c8	0.035237104
29	0xbc410c50	-0.011782721
30	0x3da77f98	0.081786335
31	0x3d528696	0.051397882
32	0x3cdeb6fe	0.027186867
33	0xbcc507ce	-0.024051573
34	0xbd60b553	-0.054860424
35	0x3c9cffa9	0.019164877
36	0xbd02ba78	-0.03191611
37	0x3d355c1a	0.044277288
38	0xbd4223ed	-0.047397543
39	0x3c5ffcec	0.013671141
40	0x3c213e82	0.009841563
41	0xbae1adce	-0.0017217936
42	0x3d871027	0.06594878
43	0x3dac5b5e	0.084158644
44	0x3a0ad98d	0.00052967
45	0x3d6d15f5	0.057882268
46	0x3bad61e3	0.00529121
47	0x3b125438	0.002232803
48	0xbd51576c	-0.051108763
49	0xbda6fee4	-0.08154085
50	0xbd9d22ae	-0.0767263
51	0x3c045cde	0.008078782
52	0xbb57815b	-0.0032883498
53	0xbcb20190	-0.02172926
54	0x3d3c692e	0.045998745
55	0x3d8b7764	0.06809881
56	0xbd91e290	-0.071232915
57	0x3d4854d2	0.048909016
58	0x3d9831c8	0.0743137
59	0xbc54def3	-0.012992608
60	0x3d91fdf6	0.07128517
61	0xbcc6da19	-0.024273919
62	0x3d8a4c25	0.06752805
63	0xbd84bd75	-0.064814486
64	0xbc9acbcf	-0.018896012
65	0xbd198f01	-0.037489895
66	0x3dab13d1	0.08353389
67	0x3d6ace81	0.057325844
68	0x3d010b85	0.031505127
69	0xbce69aaa	-0.028149921
70	0xbd2a7d18	-0.041623205
71	0xbd9a629b	-0.07538339
72	0xbd75f8a2	-0.060051568
73	0x3c3f9137	0.011692337
74	0xbd51801d	-0.05114757
75	0x3d91a207	0.071109824
76	0x3cfd28ec	0.030903302
77	0xbcf4607f	-0.02983117
78	0x3d9ac2d5	0.075566925
79	0x3c512e7a	0.0127674285
80	0xbda730c4	-0.08163598
81	0xbd6bac02	-0.057537086
82	0x3d2b2c5b	0.041790348
83	0xbd172452	-0.036899872
84	0xbcbc1bbd	-0.022962445
85	0x3c8bb1f2	0.017052624
86	0x3da999aa	0.08281262
87	0x3d1b2816	0.037880026
88	0x3d825ade	0.06364988
89	0x3d8838b9	0.06651444
90	0xbd3eba30	-0.04656428
91	0xbd8a5884	-0.06755164
92	0xbd068bb6	-0.032848082
93	0xbdb28f86	-0.08718781
94	0x3c5c3ffd	0.01344299
95	0xbd7256b3	-0.059164714
96	0x3d620788	0.055182964
97	0x3d02d4cc	0.03194122
98	0xb99db936	-0.00030083366
99	0xbdab04d3	-0.083505295
100	0x3ca51dfb	0.020155897
101	0xbd997ba1	-0.074942835
102	0x3d025b41	0.031825308
103	0xbd6bc61a	-0.05756197
104	0xbceb93b9	-0.028756963
105	0x3c39a220	0.0113301575
106	0xbcbbe08a	-0.022934217
107	0x3d386643	0.0450194
108	0x3db47c94	0.08812824
109	0xbd0fbe06	-0.03509333
110	0xbd9bef5d	-0.07614014
111	0xb90d3bc9	-0.0001346908
112	0x3ccbfd6d	0.024901116
113	0xbd3a3dbc	-0.04546903
114	0xbcd8528c	-0.026406549
115	0x3d931cf0	0.07183254
116	0x3d4e29a2	0.050332673
117	0xbd43f43b	-0.04784034
118	0xbc27e4d2	-0.010247426
119	0x3ce185ad	0.027529562
120	0xbd06fbc1	-0.032954935
121	0xbd9cd387	-0.07657533
122	0xbd887388	-0.06662661
123	0x3cf4fae4	0.02990479
124	0xbd2bb7f4	-0.04192348
125	0xbd8319dd	-0.064014174
126	0xbbfe1cda	-0.007754904
127	0xbd690a9c	-0.056894884
128	0x3d3253e5	0.04353704
129	0xbcb16967	-0.021656705
130	0xbd612e81	-0.05497599
131	0x3d31b031	0.04338092
132	0xbd9355e5	-0.071941175
133	0x3d5baf5f	0.053634044
134	0x3ac8446c	0.001527918
135	0x3da70f6a	0.08157237
136	0x3d47ee3c	0.048811182
137	0xbc54642e	-0.012963338
138	0x3cf4c406	0.029878628
139	0xbc976d2f	-0.01848468
140	0x3d9df100	0.07711983
141	0xbd4b9d59	-0.049710605
142	0xbd58d4b6	-0.052937232
143	0x3d9b0eaa	0.07571156
144	0xbd67ac3a	-0.056560732
145	0xbd1fa3f4	-0.038974717
146	0xbd7b01c4	-0.06128098
147	0xbd093168	-0.033494383
148	0x3cfae945	0.03062881
149	0xbd5d8e45	-0.054090757
150	0x3d8ad91d	0.06779692
151	0x3d1b60ec	0.03793423
152	0xbd0b0b42	-0.033946283
153	0xbc3ab054	-0.011394579
154	0xbd524092	-0.05133111
155	0xbd456a5e	-0.048197143
156	0x3d850056	0.06494205
157	0x3c7e0ad2	0.015505509
158	0xbd838d6a	-0.06423457
159	0x3d7b096c	0.061288282
160	0x3ceda958	0.029011413
161	0xbcc65e6b	-0.024214944
162	0xbd49a68a	-0.04923109
163	0xbd1de25b	-0.038545948
164	0x3d82cc06	0.06386571
165	0xbcafd013	-0.021461522
166	0xbd9acf73	-0.07559099
167	0xbd2d9ae0	-0.04238403
168	0xbd55ba36	-0.052179538
169	0x3d35e137	0.044404235
170	0xbd51dbc6	-0.051234983
171	0x3d98fa98	0.07469672
172	0xbcd51d00	-0.026014805
173	0xbcdab243	-0.02669633
174	0x3d38f7ea	0.045158304
175	0xbd9deecc	-0.077115625
176	0x3c9e8e56	0.01935498
177	0x3d2d018b	0.0422378
178	0x3d594757	0.05304655
179	0x3d564bc6	0.052318357
180	0xbcb873d7	-0.022516174
181	0xbd1e4510	-0.038640082
182	0xbc974e5c	-0.018469982
183	0x3d80bb8a	0.0628577
184	0xbd6c477b	-0.057685357
185	0xbd97fa93	-0.0742084
186	0xbbb448dc	-0.0055018496
187	0xbd17112f	-0.036881622
188	0xbcecb000	-0.028892517
189	0x3c938868	0.01800938
190	0xbda65a13	-0.08122649
191	0xbc0bb6b3	-0.008527446
192	0x3dae5140	0.08511591
193	0xbb866e9f	-0.0041025425
194	0x3d6797f1	0.056541387
195	0x3d4ef936	0.050530635
196	0x3d6ed865	0.05831184
197	0xbd549802	-0.05190278
198	0xbd63898e	-0.055551104
199	0x3d9133d3	0.07089963
200	0x3bf351d5	0.0074255266
201	0x3d4160db	0.04721151
202	0xbd0cf8e5	-0.03441705
203	0x3d3d30b1	0.046189014
204	0xbc898d85	-0.016791115
205	0x3d1a7c87	0.037716415
206	0xbc3ba404	-0.011452679
207	0xbd89a562	-0.067209974
208	0xbc070bf4	-0.008242596
209	0xbd2b805c	-0.04187046
210	0x3adef98c	0.0017011627
211	0x3d5b2ce4	0.053509608
212	0x3d9933e0	0.074805975
213	0xbd939c09	-0.07207496
214	0x3da579e9	0.08079893
215	0xbba2309a	-0.0049496414
216	0x3cd48a1f	0.025944768
217	0xbc269c81	-0.010169149
218	0xbd6bad5e	-0.057538383
219	0x3c7acbed	0.015307409
220	0xbdac2d46	-0.08407073
221	0xbd6818bf	-0.056664225
222	0x3c2e0305	0.010620837
223	0x3d71201d	0.058868516
224	0xbd45feb5	-0.04833861
225	0xbd9aeeb6	-0.07565062
226	0x3d44ee2f	0.048078712
227	0xbd0a28d4	-0.033730343
228	0xbc1e9283	-0.009678486
229	0x3d95885a	0.073013976
230	0x3da9dee7	0.082944684
231	0x3cd8d25b	0.026467493
232	0xbd76c9d6	-0.06025108
233	0x3d7faa0c	0.06241803
234	0xbbdde7fc	-0.0067720395
235	0x3d0c6fd7	0.034286346
236	0x3d902511	0.0703832
237	0xbd113952	-0.035455056
238	0x3d2a20dc	0.041535243
239	0x3cd6d9dc	0.02622693
240	0x3d8d95d0	0.0691334
241	0x3d147a5c	0.036249503
242	0xbd14afd8	-0.03630051
243	0xbcffe0a6	-0.03123505
244	0xbc36c509	-0.011155375
245	0xbb75457d	-0.0037425451
246	0xbd9c6190	-0.07635796
247	0x3b95a3c6	0.0045666425
248	0xbc9469b5	-0.018116811
249	0xbd3fd316	-0.046832167
250	0x3d4897e8	0.048972994
251	0xbc42cfb6	-0.011890342
252	0x3d11e003	0.035614025
253	0xbc600985	-0.013674145
254	0x3bed4ed0	0.007242061
255	0xbd5c83c5	-0.053836603

4.bias f4 [128]
0	0xbd3026bd	-0.043005694
1	0xbc97d7b7	-0.018535478
2	0x3d023b1a	0.031794645
3	0xbbfcd5fe	-0.0077159395
4	0x3b78a237	0.0037938484
5	0x3bd4097e	0.006470858
6	0xbdb397d8	-0.08769196
7	0x3da57167	0.080782704
8	0x3cac2ed9	0.021018432
9	0x3d2f9b8a	0.042872943
10	0x3d58afe0	0.052902102
11	0xbd91d026	-0.07119779
12	0xbd0632f6	-0.032763444
13	0xbd84ba69	-0.064808674
14	0xbd00877b	-0.031379204
15	0x3d0c6319	0.034274194
16	0xbd4e53e7	-0.050372984
17	0xbc9260b4	-0.017868377
18	0x3d1135dd	0.03545176
19	0xbd821adf	-0.063527815
20	0xbc849153	-0.016182577
21	0xbda66154	-0.081240326
22	0xbd2b111c	-0.041764364
23	0xbd74201b	-0.05960093
24	0x3d7753cc	0.06038265
25	0xbc8f19cf	-0.017468361
26	0xbd817100	-0.06320381
27	0xbd5a9049	-0.053360257
28	0x39d1c8c2	0.00040013163
29	0xbd681f33	-0.05667038
30	0x3d37399b	0.04473267
31	0xbc851f74	-0.01625035
32	0xbb3c944d	-0.0028774918
33	0x3d16babd	0.03679918
34	0xbce74514	-0.028231181
35	0x3db34f05	0.08755306
36	0xbd30ce20	-0.043165326
37	0x3d718677	0.058966126
38	0x3d99f08c	0.07516584
39	0xbd860f0f	-0.06545841
40	0xbd87c3d7	-0.0662915
41	0xbd257450	-0.040394127
42	0xbcac5283	-0.021035438
43	0x3d58dfae	0.052947693
44	0x3c856cb4	0.016287185
45	0xbbf1f4e0	-0.0073839277
46	0x3d49d89d	0.049278844
47	0xbb797b4c	-0.0038067875
48	0x3d06b506	0.03288748
49	0xbc6db26d	-0.014507872
50	0xbdad5abf	-0.08464574
51	0xbd01f28c	-0.03172545
52	0xbd7712ec	-0.06032078
53	0xbc16b342	-0.009198012
54	0xba9e8865	-0.0012095092
55	0xbd6babaa	-0.05753676
56	0xbd7fbb07	-0.062434223
57	0x3d5890cb	0.05287246
58	0x3d508cce	0.05091553
59	0xbd20018c	-0.039063975
60	0xbda5f5e1	-0.08103538
61	0x3d0cce3a	0.03437636
62	0xbd608dae	-0.054822616
63	0xbd9a7065	-0.07540969
64	0xbd771fcb	-0.060333055
65	0xbd8af26e	-0.06784521
66	0xbd6df3e9	-0.05809394
67	0xbdae716b	-0.085177265
68	0x3d4339b6	0.04766246
69	0x3d2da15c	0.042390212
70	0xbc3bcec1	-0.011462868
71	0xbd14f034	-0.036361888
72	0x3d25fa9c	0.040522203
73	0xbd40cb78	-0.047069043
74	0xbc8010eb	-0.015633067
75	0xbb51aa2d	-0.0031992302
76	0xbc687c8f	-0.014189853
77	0xbd0ef181	-0.034898285
78	0x3a8622df	0.0010233781
79	0x3d81107f	0.063019745
80	0xbd867d8f	-0.06566917
81	0xbdadeaef	-0.08492076
82	0xbd541b29	-0.051783714
83	0x3cbb537f	0.022866962
84	0x3d98cfb4	0.07461491
85	0x3d4bcd9e	0.04975664
86	0x3d886f92	0.06661905
87	0xbd80e1f3	-0.062930964
88	0xbaef232f	-0.0018244738
89	0x3ca096fd	0.019603247
90	0x3d83825c	0.064213485
91	0xbcbe833b	-0.023255935
92	0xbbaa0c7f	-0.005189478
93	0x3d83bfb3	0.06433048
94	0x3d3fb8e6	0.046807192
95	0xbcbfae23	-0.023398465
96	0x3c11fc2f	0.008910223
97	0x3bbf53df	0.0058388556
98	0x3d5cabf4	0.053874925
99	0xbd9a42d7	-0.0753228
100	0x3d8f9b04	0.07011989
101	0x3da4d98a	0.08049305
102	0x3d9fc588	0.07801348
103	0x3cf17d1b	0.0294786
104	0xbd9a0e58	-0.07522267
105	0xbb9366ee	-0.004498354
106	0x3d154081	0.03643847
107	0x3c4fe612	0.01268913
108	0xbcc3cfaf	-0.023902742
109	0xbd17c2a8	-0.037050873
110	0x3d5e6012	0.05429084
111	0xbdb41f4d	-0.08795033
112	0x3d82cf83	0.06387236
113	0xbc972e90	-0.01845482
114	0xbd0da5ba	-0.034581877
115	0x3d81c916	0.06337182
116	0x3d76bc36	0.060238086
117	0x3ca6d770	0.0203664
118	0x3d856b51	0.065146096
119	0xbd248772	-0.040168233
120	0x3db1e30d	0.086858846
121	0xbd7064c0	-0.058689833
122	0x3cfab053	0.030601656
123	0xbd24dd9a	-0.0402504
124	0xbd6bb818	-0.057548612
125	0x3c0bde13	0.008536833
126	0xbd886a93	-0.066609524
127	0xbd8802fa	-0.06641193

6.weight f4 [4, 128]
0	0xbcc55cb3	-0.024092054
1	0x3d0021c4	0.0312822
2	0x3dae29f7	0.08504098
3	0xbc8041f3	-0.015656447
4	0x3d22f37d	0.03978299
5	0x3dae7ad3	0.085195206
6	0x3d1ee81b	0.03879557
7	0x3cfc12e0	0.030770719
8	0xbd18186a	-0.037132658
9	0x3d7a6469	0.061130915
10	0xbd58ae3d	-0.05290054
11	0x3d0b8462	0.034061797
12	0xbd0f1f97	-0.034942236
13	0x3d922156	0.071352646
14	0xbd8729f9	-0.065998025
15	0x3ca0e1a2	0.01963884
16	0x3cea83e2	0.02862734
17	0x3d037f99	0.03210411
18	0xbdae0c3a	-0.08498426
19	0xbd48eaf5	-0.049052197
20	0x3da86884	0.0822306
21	0x3d3e9395	0.046527464
22	0x3d82aa2d	0.06380115
23	0x3d848c7c	0.06472108
24	0xbd72852e	-0.05920904
25	0xbdb00275	-0.08594219
26	0x3d3eea4e	0.04661017
27	0x3d5d9d49	0.054105077
28	0x3d96abe5	0.07357005
29	0x3d9dade0	0.0769918
30	0xbc7c4d63	-0.01539931
31	0xbcea59d0	-0.028607279
32	0xbd81bb76	-0.063345835
33	0x3c7cd806	0.015432363
34	0x3cde5e78	0.027144656
35	0xbd937af4	-0.07201186
36	0x3b5e026a	0.003387595
37	0x3d72291a	0.05912123
38	0xbc782164	-0.01514468
39	0x3d9fb903	0.0779896
40	0x3d8602ec	0.06543526
41	0xbd18c0c3	-0.037293207
42	0x3ca7c8df	0.020481525
43	0x3d86530d	0.065588094
44	0xbba29ba4	-0.0049624015
45	0xbd30bc7e	-0.04314851
46	0x3cf8e2d4	0.030381598
47	0x3d479e87	0.048735168
48	0x3cc797c2	0.024364356
49	0xbd201a6d	-0.0390877
50	0xbd6e0112	-0.05810649
51	0x3c452b18	0.0120342
52	0xbd042a1f	-0.032266732
53	0x3cdea7f1	0.02717969
54	0xb909e86d	-0.00013151923
55	0xbd2ad778	-0.041709393
56	0xbc7d3a44	-0.015455786
57	0xbd968ec3	-0.073514484
58	0x3ce36222	0.027756754
59	0x3da9a293	0.08282962
60	0x3c653068	0.013988592
61	0xbd758280	-0.059938908
62	0x3da6d5ec	0.08146271
63	0xbd4df8a7	-0.05028596
64	0xbdab1b82	-0.08354856
65	0x3d20ace6	0.03922739
66	0x3dabecd5	0.083947815
67	0x3db2def7	0.087339334
68	0xbd8c344f	-0.068459146
69	0xbc91fdb5	-0.017821172
70	0xbc3d9139	-0.011570268
71	0xbd44894f	-0.04798251
72	0xb8bef0e0	-9.1047725e-05
73	0xbda98f7c	-0.082793206
74	0xbd446ce7	-0.04795542
75	0x3c2e6762	0.010644766
76	0x3c299d65	0.010352467
77	0xbd84456c	-0.06458554
78	0xbd1cd747	-0.038291242
79	0x3d8e4c6f	0.06948172
80	0xbd312478	-0.04324767
81	0xbd953b99	-0.07286758
82	0x3d34b276	0.044115506
83	0xbd510a76	-0.051035367
84	0xbda74a57	-0.08168476
85	0xbb7c1154	-0.0038462477
86	0x3ba19b51	0.0049318452
87	0xbc856af5	-0.016286353
88	0x3bd3b3c2	0.006460638
89	0x3da5ee38	0.08102077
90	0xbd9cfcd5	-0.076654114
91	0x3c1ecf80	0.009693027
92	0x3d8e1241	0.069370754
93	0x3d83c628	0.0643428
94	0x3caa516b	0.020790776
95	0xbd2c60fa	-0.04208467
96	0xbc37885f	-0.011201947
97	0x3c9b7003	0.01897431
98	0xbc7134ac	-0.014722031
99	0xbc6f61f0	-0.014610752
100	0xbcf2ae72	-0.029624198
101	0xbd8586a7	-0.065198235
102	0x3d6909d9	0.056894157
103	0x3d90b3cb	0.07065543
104	0x3c432589	0.011910805
105	0x3ced589a	0.028972913
106	0x3b20c49f	0.0024531258
107	0xbd9adf36	-0.07562105
108	0x3dad48b4	0.08461133
109	0x3d3d35d7	0.046193924
110	0xbd239dbc	-0.03994535
111	0xbd12af61	-0.035811786
112	0x3d847cc3	0.06469109
113	0xbd5b2462	-0.053501494
114	0x3d7838ea	0.060601152
115	0x3da26790	0.07929909
116	0xbcd04e97	-0.0254281
117	0x3d060461	0.03271902
118	0xbda53210	-0.08066189
119	0x3d111394	0.03541906
120	0x3d232603	0.039831173
121	0xbd9725c1	-0.07380248
122	0x3d80c261	0.06287075
123	0xbd91b501	-0.07114602
124	0xbd9d9752	-0.07694878
125	0x3d902b99	0.070395656
126	0xbcaae961	-0.020863237
127	0xbd9b11d5	-0.075717606
128	0xbd639f47	-0.05557182
129	0xbc8fc13d	-0.017548198
130	0x3d834ab6	0.06410734
131	0xbda1b561	-0.078959234
132	0x3d3ba4d0	0.045811474
133	0x3cd3dd69	0.025862413
134	0xbd868971	-0.065691836
135	0xbd85edde	-0.0653951
136	0x3da116be	0.07865666
137	0x3d29dfaf	0.041473087
138	0x3d6802f8	0.056643456
139	0xbd47160f	-0.04860502
140	0xbd74e16f	-0.059785303
141	0xbd811cd8	-0.0630433
142	0x3bf43021	0.0074520265
143	0xbc6d9460	-0.014500707
144	0x3bb8d25f	0.0056403126
145	0x3c834354	0.016023315
146	0xbda00b3c	-0.07814643
147	0xbcad2af4	-0.021138646
148	0xbd250081	-0.040283684
149	0x3d815a21	0.06316019
150	0x3c9042c6	0.017609965
151	0xbd1b1263	-0.03785933
152	0x3c56dac9	0.013113686
153	0xbc2414c0	-0.010014713
154	0xbd091c10	-0.033474028
155	0xbccca3b5	-0.024980405
156	0xbd090b83	-0.033458244
157	0xbd997446	-0.074928805
158	0xbd2780b9	-0.040894244
159	0xbca8b6a8	-0.02059491
160	0x3d860f2f	0.06545865
161	0x3d8c4bbb	0.06850382
162	0xbd9d31fe	-0.07675551
163	0xbd84bdcd	-0.06481514
164	0x3befc834	0.0073175672
165	0x3d9febfc	0.07808682
166	0x3c21b8bf	0.009870707
167	0xbc9d85bf	-0.019228814
168	0x3d971b6b	0.073782764
169	0x3cedfeaf	0.029052107
170	0x3dae262c	0.085033745
171	0x3ce7ea14	0.02830986
172	0xbc3804b1	-0.011231587
173	0xbd3ae89f	-0.045632
174	0x3d2f26e4	0.0427617
175	0xbcb0845d	-0.02154749
176	0xbdaa041b	-0.08301564
177	0x3b9b5f49	0.0047415835
178	0xbcd34fbf	-0.025794862
179	0xbce5219a	-0.027970124
180	0xbd362357	-0.044467296
181	0x3d234ff1	0.03987116
182	0xbd172e49	-0.036909375
183	0x3d62bee4	0.05535783
184	0x3d3e7878	0.046501607
185	0xbceb4a18	-0.028721854
186	0xbd8b9c12	-0.068168774
187	0xbc13715c	-0.008999195
188	0xbcf056d2	-0.029338274
189	0x3d60d601	0.05489159
190	0x3d4cb491	0.04997689
191	0x3cf7463b	0.030184856
192	0x3d92462e	0.07142292
193	0xbda314e7	-0.07962971
194	0x3d5bbd6d	0.053647447
195	0x3c931ee5	0.017959068
196	0x3cc36f5d	0.023856813
197	0x3daf3b36	0.085562155
198	0xbc8c0b2d	-0.017095173
199	0xbd15651e	-0.036473386
200	0x3d364284	0.044497028
201	0x3d20b37e	0.039233677
202	0x3ce06ce9	0.027395682
203	0x3d9e75f4	0.077373415
204	0xbd9d49e6	-0.07680111
205	0xbd31d605	-0.043416996
206	0x3d125526	0.035725735
207	0xbb80bb27	-0.0039285603
208	0x3da0e36e	0.07855879
209	0x3d358f41	0.04432607
210	0xbd7e02bb	-0.062014323
211	0x3d893f17	0.067014866
212	0x3d81b557	0.06333416
213	0x3b48f232	0.0030661938
214	0xbda4d051	-0.08047546
215	0x3d60538b	0.054767173
216	0x3c85c003	0.01632691
217	0x3d71c2d0	0.05902368
218	0x3c217bc3	0.009856167
219	0xbd8a1f8e	-0.067443
220	0xbd126939	-0.03574488
221	0x3d6c85a4	0.057744637
222	0xbd768054	-0.060180977
223	0x3d7145f4	0.058904603
224	0x3d9605e3	0.073253416
225	0xbd340ddf	-0.04395854
226	0x3d595269	0.053057108
227	0x3caa4451	0.020784529
228	0xbd307f40	-0.043090105
229	0xbc1bfde6	-0.009520983
230	0x3d1c4710	0.038153708
231	0xbd73cc2f	-0.059520897
232	0x3c923192	0.017845903
233	0x3d97c5b6	0.07410757
234	0x3dafe87a	0.08589263
235	0x3ab9eb01	0.0014184417
236	0x3d1d9bec	0.038478777
237	0xbcc26435	-0.023729423
238	0xbcdc4506	-0.026888382
239	0x3b46bfde	0.0030326764
240	0xbc4f17dc	-0.012639966
241	0xbd915f92	-0.07098307
242	0x3d795586	0.060872577
243	0xbda383e0	-0.079841375
244	0x3ce4b033	0.02791605
245	0xbdafd9fb	-0.08586498
246	0xbd9220ec	-0.071351856
247	0xbd88831d	-0.06665633
248	0x3a335ece	0.0006842435
249	0x3c1e77e9	0.0096721435
250	0x3bec2672	0.0072067315
251	0xbd8b3a5c	-0.067982405
252	0x3dadcf88	0.08486849
253	0x3d8370d6	0.06418006
254	0xbd85f55e	-0.06540941
255	0x3d8c3481	0.06845952

6.bias f4 [4]
0	0x3c90f1fb	0.01769351
1	0x3cde1154	0.027107872
2	0x3cae74ee	0.02129599
3	0xbcacdc28	-0.021101072
