demo/2Dball/modelF.pt (torch, 138356 bytes, 8 tensors)

0.weight f4 [128, 2]
00000000: d7ab c1be 7224 38be 83a9 263f 60ed 6e3e
00000010: 0225 213f 2629 023e 81ac 99be 8131 23bf
00000020: 5457 173e 6b7c 0ebf cb14 93be 6904 763d
00000030: 8f4e aa3e 1668 96bb 2a68 463e 832f e73e
00000040: 1613 883e 2f0e 05bf c113 24be 97f9 bfbe
00000050: 9e9f 72be fe9e 2cbe d785 42be 94ad 8ebe
00000060: 815a 3a3e 1fde 03bf 98c1 803e 7713 323f
00000070: 02ff cfbe da5d 8cbe 6235 423e 3ab9 0cbf
00000080: 6762 eb3e a9dd 17be aa1d 6e3e 6b2f 073e
00000090: 61da d63e 09fe 03bf fc26 0f3f 42b8 e33e
000000a0: 3579 de3c c29f 573d 6dad 1bbf e7d6 2bbe
000000b0: 90e7 94be 266d 91be c083 623e d250 8bbe
000000c0: d7f5 f23e bc93 f13c 0546 2ebd d056 b0be
000000d0: 994a 0b3f 9172 edbe f6cc 0c3f b970 f5be
000000e0: 6cd9 2b3f 8c86 f2be bd79 513d cc36 143e
000000f0: cf18 edbe 9e75 203f 3625 463e 226a 12bf
00000100: 7d55 26bf b470 29bf 8cef 2c3f 932a 9fbe
00000110: c1d1 183f 201e 0ebf 9a5a 0ebd c5c1 bd3e
00000120: 32db 32bf ff51 1dbe be56 59be b28d 873e
00000130: 97be 8abd 9a81 ebbe d336 c13e 71be f0be
00000140: 4107 24bf a5c6 b23d d6ae 97be 4d79 11bf
00000150: 5934 0c3f 85ab 04bf 4a8a 223f bd8a 3fbe
00000160: db41 a33d 5311 0fbf 2161 f4be 2cf3 d8bc
00000170: 1bf3 9bbe be7e 1dbe 32e8 07be cebc c23e
00000180: 511f edbe e63e 123f 5a65 e73e b674 a1be
00000190: 3ee9 17bf 0429 22bf 9913 573e 5a8e 19bf
000001a0: 500c 5ebe 8f04 05be b873 ad3e 97d0 1ebf
000001b0: 182f f33e 62d6 10bd 5af8 043f 72f8 e6be
000001c0: de2e e3bd 82ef 893e 1c57 dabe a25c 2fbf
000001d0: 7254 80bd de4d 1cbe 4ff9 013e d54e f43e
000001e0: a86c 88be 8e95 953e ddc1 fb3d e144 863e
000001f0: aa2e f7be 0def 8a3e f041 b5be 611c 01bd
00000200: a1cd 1abf 5120 093f a539 c93e 3f20 98be
00000210: 68c4 29bf a479 853e 9054 29bd 06c9 0a3d
00000220: a865 eebe cd4d 2abf b060 82be 58c5 e03d
00000230: 9590 2abf bce9 bf3e 71ed 163f b22c 0d3f
00000240: 4d9b 26bf 1443 12bf 0aea c43d 4b5e 2d3f
00000250: 3810 ca3d 4f03 903d 3fe6 b43e 2f73 f83e
00000260: fc99 483d 8974 943e 4ff5 0a3f 1123 d33e
00000270: 6f66 063f 7274 473d 4795 27bf 6295 e4be
00000280: 81ce 5e3e 1799 d6be c440 70be 8bf4 c53e
00000290: 49d1 67be a00e adbe 7762 df3e f1f7 0dbf
000002a0: 6e72 0d3e 3bbb 033f 85dc ccbc 22ec aa3e
000002b0: 219c 11be 82fd b9be 429d 043d 4a7d d9be
000002c0: ee5b 233f 4e43 cf3e 61c6 173f f749 3c3e
000002d0: fdbf 0d3f 6263 f43e 13bc 73be 6193 ae3e
000002e0: 6ce3 d73d 5354 ce3e 394f fe3e 4a26 0e3f
000002f0: 87a0 0cbf ef88 32bf 7566 75be ffd8 27bf
00000300: 3784 623e 2f40 c53e 4dcf c43c a7f6 1a3f
00000310: f599 01be 4ade 36be 9d4d 55be 0a41 12bd
00000320: 6d22 d5be 77ba 02bf 4c76 e1bc 0131 153f
00000330: 75ae 223f 9797 2cbf 5fc3 483e d733 353e
00000340: 616c 2a3e fe4c 09bf b540 733e 77c2 dfbe
00000350: f567 3bbd bad3 823e 9238 243e 75f2 24bf
00000360: 961e c33e e9b0 f23e 7fe0 e93c 6e56 fbbd
00000370: 6fb8 113e 5b2d 053f 19fc 163f e87e c5be
00000380: 9d37 ab3e 5f55 2fbe 10ce abbe cb22 ddbe
00000390: 10ea c63e a8e4 163f 0008 0fbe 2767 0abf
000003a0: 19e1 0c3e ffe9 a2be 9e41 083f c497 e73e
000003b0: ff1b 0ebf 0474 8ebe 480a 133f d36d 063d
000003c0: d7b8 a93d 2a9c 1f3d 2540 04bf 46de 46bc
000003d0: d14a 103f 04f1 16bf e1ad 163f adc3 253f
000003e0: 8b79 2ebf 6a47 05bf 71e7 2ebf 4901 20bf
000003f0: 9119 b1bd 947d 70be 8246 2abf 06c8 263f
-0.37826416 -0.17982653 0.65102404 0.23332739 0.62947094 0.1271101 -0.30014423 -0.6374741
0.14779407 -0.55658597 -0.287268 0.0600628 0.3326306 -0.0045900447 0.19375673 0.45153436
0.2657706 -0.5197477 -0.1602316 -0.3749511 -0.23693702 -0.16857526 -0.18996368 -0.27866805
0.18198587 -0.51510805 0.251477 0.6956095 -0.40624243 -0.27415353 0.18965676 -0.54970133
0.45973513 -0.1483065 0.23253503 0.13201682 0.41963485 -0.515595 0.5591886 0.44476515
0.027157405 0.05264259 -0.608115 -0.16781197 -0.29082918 -0.28403586 0.22120571 -0.27210099
0.47453186 0.02948939 -0.042547245 -0.34441233 0.544107 -0.4637647 0.55000246 -0.47937563
0.67128634 -0.47368276 0.05114149 0.14474028 -0.4630799 0.6267947 0.19350132 -0.57193196
-0.64974195 -0.66187596 0.6755302 -0.3108717 0.5969506 -0.5551472 -0.034754373 0.37061897
-0.69865716 -0.1536331 -0.21224496 0.26475292 -0.067746334 -0.45997316 0.3773714 -0.47020295
-0.6407357 0.08729295 -0.29625577 -0.56825715 0.54767376 -0.5182422 0.6349226 -0.18705268
0.07971545 -0.5588581 -0.47730353 -0.02648314 -0.30458912 -0.1538038 -0.13272169 0.38034672
-0.46312955 0.57127225 0.45194513 -0.31534356 -0.59340274 -0.63343835 0.2100357 -0.59982836
-0.21684384 -0.1299002 0.3387735 -0.6203703 0.47496867 -0.0353607 0.51941454 -0.45111424
-0.110929236 0.26940542 -0.42644584 -0.6850072 -0.06266107 -0.15264079 0.1269276 0.47716394
-0.26645398 0.29215664 0.12292836 0.26224425 -0.4827779 0.27135506 -0.3540187 -0.031521205
-0.60470015 0.53564936 0.39301792 -0.29712102 -0.6631532 0.26069367 -0.04134041 0.033883117
-0.46561933 -0.66524965 -0.25464392 0.1097514 -0.66626865 0.37483013 0.58956057 0.55146325
-0.6508072 -0.57133603 0.09614952 0.67722005 0.09866375 0.07031881 0.35331914 0.48525378
0.048974976 0.2899516 0.5428056 0.4123769 0.5250005 0.048695035 -0.65462154 -0.4464522
0.21758462 -0.41913673 -0.23462206 0.38663134 -0.2263843 -0.3380022 0.4362981 -0.55456454
0.13813183 0.51457566 -0.025007496 0.3338328 -0.14219715 -0.36326224 0.032376535 -0.424784
0.6381215 0.40481037 0.5928708 0.1838759 0.55371076 0.47732073 -0.23802213 0.34096816
0.10541424 0.4029871 0.49669817 0.55527174 -0.54932445 -0.69740194 -0.23964866 -0.65565485
0.22120748 0.3852553 0.02402463 0.6053261 -0.12656386 -0.17858234 -0.20830388 -0.035706557
-0.41627827 -0.5106577 -0.027522229 0.582779 0.6354745 -0.6741881 0.19605778 0.17695557
0.16642906 -0.53633106 0.23755153 -0.43703052 -0.045753438 0.2555216 0.16037205 -0.6443246
0.38109273 0.47400597 0.02854943 -0.122723445 0.14230512 0.5202233 0.5897842 -0.38573384
0.33440867 -0.1712241 -0.3355565 -0.43190607 0.3885045 0.5894265 -0.13967896 -0.5406365
0.13757743 -0.3181915 0.53225124 0.45232975 -0.5551147 -0.27822888 0.5743756 0.03281958
0.082872085 0.03896729 -0.51660377 -0.012137955 0.5636416 -0.5896151 0.5885907 0.647517
-0.6815421 -0.52062094 -0.683219 -0.6250196 -0.086474545 -0.23485404 -0.66513836 0.6514896

0.bias f4 [128]
00000000: 84fc 0c3f a601 fabd bfc3 723e b5dd 81be
00000010: 4ae0 fcbe b4da 85bd fc07 273e fc4c fb3e
00000020: 350f 973e 7368 573e a90a 16bd 18c5 09be
00000030: aeae 1d3f 33c6 e13c 05cb 08be 1227 fcbd
00000040: 77be 1bbf 40a5 2abf 011a ab3e b8a0 fd3e
00000050: f0eb f53e c5d9 82bb 429a 813e ded5 d4be
00000060: 4fdc 243e 4e8c 1bbf 37b7 4d3e 2422 e13e
00000070: 1194 a73e d028 cebd ede6 913d a1bb 9d3e
00000080: a1a0 34bd d01f 043e 9797 dabd ee5f 01bf
00000090: 6eb5 b7be 6988 0a3f 718c bf3d 8054 0d3f
000000a0: a1c9 90be d5d1 073f ca48 273f 9f9f 083d
000000b0: 86a4 11be eb30 fd3e 63db 013e 35e1 c7bd
000000c0: d321 84bd a435 89be 0724 03bf 9b0d a13e
000000d0: 3b8e ebbe 9c0c b0be 9a96 113f a70a 3d3e
000000e0: 1e57 07bf d268 43be 35d1 1a3f ce21 1abf
000000f0: 4ac6 2c3f 3e86 973d e7a1 be3e c0ec 7cbe
00000100: b68b 6dbd 49b8 90bd 81fe e13d 3214 c03e
00000110: eced a6be 7923 d5be 282c 4d3e 2d41 cc3d
00000120: 5b0a 8cbe dc82 123f 0781 56bd 2115 383d
00000130: 59bb e83e 63a5 cabe 0472 0c3e 851f ff3d
00000140: 8882 19bf b25c 81be 8528 2e3e 89a2 1e3f
00000150: b279 3cbd cffd 193f e01b 0dbe a865 ecbe
00000160: 2be5 053f ad5e dd3e 32b3 5d3e be71 85bc
00000170: e6d0 8e3e 839c 1dbf 4b44 e7be 8eab bf3c
00000180: c3c5 aa3d cdc8 0abe 4d3f 6dbe d66e e4be
00000190: 43fd fbbe 6845 f4be cc73 923e de26 5f3e
000001a0: b1a6 163f 0c5a ccbe 35db 9dbe 4ba4 843e
000001b0: d24a a03e a238 2dbe 5186 0d3f a58a 663e
000001c0: f08c 45be 154a 0dbf 8811 323f 5616 423e
000001d0: 321a b5be ebf3 3bbe 6fae b33e d4ea f8be
000001e0: b11a 31be de80 2e3f df87 6cbe 8ff8 b3bd
000001f0: 87b0 27bf 9352 3e3e b9ee 273e a8b0 22bf
0.5507281 -0.12207346 0.23707484 -0.25364462 -0.4938987 -0.06535855 0.1631164 0.49082172
0.2950379 0.21035938 -0.03663126 -0.13454092 0.61594665 0.027560329 -0.13358696 -0.123121396
-0.608375 -0.666584 0.33418277 0.4953668 0.4803157 -0.0039932453 0.25313002 -0.41569418
0.16099666 -0.6076096 0.20089422 0.4397136 0.32730153 -0.10066378 0.07124124 0.30807212
-0.0440985 0.1290276 -0.10673445 -0.50537 -0.35880607 0.54114395 0.09352959 0.5520706
-0.2827883 0.53054553 0.6534544 0.03335535 -0.14222917 0.49451384 0.12681346 -0.09759752
-0.06451764 -0.26798737 -0.5122685 0.31455693 -0.4600695 -0.3438462 0.56870425 0.18461095
-0.52867305 -0.19082955 0.60475475 -0.6020783 0.67490065 0.073986515 0.37232897 -0.24699688
-0.057994567 -0.070663996 0.11034871 0.37515408 -0.32603395 -0.41628626 0.20036376 0.09973369
-0.2735165 0.57230926 -0.052369144 0.044942025 0.45455435 -0.39579305 0.13715369 0.12457184
-0.599648 -0.25266033 0.17007644 0.6196676 -0.046014495 0.60152906 -0.13780165 -0.46171308
0.5230281 0.43236294 0.21650389 -0.016289588 0.27893752 -0.6156694 -0.4516929 0.023397233
0.08338501 -0.13553162 -0.23168679 -0.4461581 -0.4921666 -0.47709203 0.2860397 0.2179217
0.588481 -0.3991245 -0.30831304 0.25906596 0.31307083 -0.16916135 0.55283076 0.22513826
-0.19292045 -0.55191165 0.69558 0.18953833 -0.35371548 -0.18354766 0.3509402 -0.4861666
-0.17295338 0.68165386 -0.23098706 -0.08787643 -0.65503734 0.18586187 0.16399659 -0.63550806

2.weight f4 [128, 128]
00000000: e642 cc3a c5f7 a2bd c150 46bd 27bc 83bc
00000010: 2bca af3d 6060 ee3c e775 2abd 235b 293d
00000020: c7f9 3bbd d82e b3bd 788c 9c3c 27e7 a83d
00000030: 1e36 c1ba cbdf a4bd 40f5 b63b 3d47 7b3d
00000040: 0367 8abd d745 a5bd 1d56 653d ceae 3abd
00000050: d7a7 99bd 3e43 003d 729a b33d 46d2 2d3d
00000060: 373a 50bd 20d0 363c 3611 d33c 4a46 84bd
00000070: aad4 aebd c608 353d fa2a 533c a619 6f3d
00000080: d110 80bd 01b1 14bd fc63 683c 6cc6 833d
00000090: b15e 25bd 4187 943d 6804 843d 9da2 37bd
000000a0: d5e7 153d 47b6 d73c 1dc0 963d 625c a5bc
000000b0: 3ab2 28bd 33fc debc 7027 a63d 4d8a 94bc
000000c0: bcb1 623d 1c07 dcbc a76d 4dba 2fda 07bd
000000d0: a127 a8bd ab40 0bbd 3687 5dbd 82ec 693d
000000e0: 6fab c53c 394e 74bd 2404 853d e30a b3bd
000000f0: 3997 a33d 88df 573d 90f2 933c a20d 4ebc
00000100: 838c 7d3c 199d 1a3c beb6 0fbd 7605 0cbd
00000110: 00a0 923d 899a 4c3d 3023 813c b861 f3bc
00000120: 66b9 9fbc fcf4 323d 2319 bf3c 73af 0b3d
00000130: 0de9 413d 4ee8 29bc 43d4 f03c 7cc8 703c
00000140: ce0e a73d 8630 0b3c c00b 733d 6b1c 763d
00000150: 9535 31bd a512 4fbd ae87 8ebd fc6e 003d
00000160: a851 753d 34b2 003d d3f4 d03c 7a28 e43c
00000170: db48 a8bc 1f03 0ebd 6b56 603c 6aad 51bd
00000180: 1101 6fbb 1647 b43d 1e7c d33c 3e46 16bd
00000190: e149 033d be80 1bbd a676 8ebd 9cf9 8f3d
000001a0: 0abc aa3b 420e b0bc 3ecf a1bd bfcb 4ebd
000001b0: 3989 a4bd 1bf0 9e3d 53ed 39bd 48d2 9ebd
000001c0: 903a 8e3d ad1f 13bd 1eda ab3d e534 e43c
000001d0: 7b4e 9e3d 0dd4 a43d 83c1 8fbd daac 1e3d
000001e0: 7157 8a3c 892c a33d 69d0 a4bd 46da a3bd
000001f0: d151 903d 592a 7fbd 2103 91bd d194 213c
00000200: 6982 90ba 5324 88bd cc2a b3bd f290 9a3d
00000210: be4d 99bd 7ebf 9a3d 296e a33c ea9d 40bb
00000220: 4f0e 133d b86b 80bd 0bd2 4ebd eb33 4abd
00000230: 9225 8cbd 4aa7 8c3a 5b92 23bd 955e aabd
00000240: 7038 f4bc 0c65 683c 2c1d b33d ec37 c33b
00000250: 4248 bdbc 13b2 b63c 3085 b3bd 2d0a 5dbc
00000260: ee11 423d 0d25 27bd d262 613d c794 143d
00000270: 1102 b3bd 049a 443d eb00 003b d387 90bc
00000280: 9be6 02bd f3df 0cbd ba06 2bbc 74af 6f3d
00000290: f811 abbd 35e3 49bd 49ef a93d 867e 73bd
000002a0: 54dc d7bc 398f 8dbc 2545 973d 7b37 53bd
000002b0: 252f 20bd f304 8d3d 9a9e 91bd c879 8abd
000002c0: c2ae 13bd 1c47 8f3d e4f2 cebc bdc9 b2bd
000002d0: a58f e5bc 0b80 52bd c611 c0bc 8524 5abd
000002e0: a191 09bd 93e6 3bbc ec53 1e3d 2c0d 97bc
000002f0: 395d a93d cf0a 963d e1b6 9f3d 26de 49bc
00000300: de4c 7ebd 0885 5e3d 7be7 303d e165 92bd
00000310: 2299 613d ac5c d33c c297 b23c 39cf 1abd
00000320: 13af 1cbd 3209 d23c ebe3 81bc b18b 6dbd
00000330: 2e8c a73d 108f 92bd cdf0 b0bd 66f1 a5bd
00000340: a029 b43d 7482 833d 714e 883d 13e5 473d
00000350: 0b99 833d 21a9 833d f81d 32bd 22b4 873d
00000360: 76fc 6b3d 16d7 883d 87d3 0a3d d6f5 623d
00000370: 0c32 aa3d 61b5 8dbd dd67 acbd 302e 063b
00000380: 799c 94bd 304a 9abc f8b1 83bc 9632 b33d
00000390: 4292 9cbb 92ba a33c e28e 96bd a7ac 073d
000003a0: 8d6d 9cbd cd6b a9bd a990 67bd e789 14bb
000003b0: 3d97 dabc 5e3e 53bd 3fe7 b13c 37dc 75bd
000003c0: 6aaf 293d d257 123d d775 d3bc 8966 9fbc
000003d0: 74d2 8bbd b2ff a0bd 07ae 633d 9b58 803d
000003e0: 63fb b3bd 3ab6 0abd 355e 05bd 209d 6b3d
000003f0: 9b65 86bd 5ed7 c83c 5c0d 9b3d 6eec a73d
0.0015583902 -0.079574145 -0.048416857 -0.016080929 0.08583482 0.02909869 -0.041616347 0.04134668
-0.045892503 -0.08749169 0.01910995 0.08247214 -0.001474086 -0.080504976 0.0055834353 0.061347235
-0.06757929 -0.080699615 0.055990327 -0.045576863 -0.07502716 0.031314127 0.087696925 0.04243686
-0.050836768 0.011158019 0.025765043 -0.06458719 -0.08536656 0.04419782 0.012888664 0.05837407
-0.062532075 -0.036301617 0.014183994 0.0643433 -0.040373508 0.0725236 0.06446153 -0.044832814
0.036598045 0.026332034 0.073608615 -0.020185653 -0.041185595 -0.027219867 0.08112991 -0.018132353
0.055345282 -0.026858859 -0.0007836469 -0.03316706 -0.082106836 -0.03399722 -0.054084025 0.057110317
0.024129597 -0.05964491 0.064949304 -0.08742311 0.07987828 0.05270341 0.018059999 -0.0125764925
0.015475395 0.009436869 -0.035086386 -0.034184895 0.07159424 0.049952064 0.015763849 -0.029709682
-0.019497585 0.043690667 0.023327416 0.03410287 0.047341395 -0.010370327 0.02939809 0.014696237
0.08157121 0.008495456 0.059337378 0.060085695 -0.04326399 -0.05055489 -0.069594726 0.031355843
0.059892327 0.031419948 0.025507366 0.027851332 -0.020542553 -0.034670945 0.013692479 -0.05119077
-0.0036469141 0.08802621 0.02581602 -0.036688082 0.03205288 -0.037964575 -0.06956224 0.07030031
0.0052104043 -0.021491174 -0.079008564 -0.050487276 -0.08033986 0.0776064 -0.045392346 -0.07754952
0.06944764 -0.03591888 0.08391212 0.027857253 0.07729813 0.08048258 -0.07019331 0.038739063
0.016887398 0.07967479 -0.080475636 -0.08000617 0.07046855 -0.062296245 -0.07080675 0.009862141
-0.0011025193 -0.06647553 -0.08748397 0.075471774 -0.07485531 0.075560555 0.01994999 -0.0029391
0.035902318 -0.06270546 -0.05049328 -0.04936592 -0.068431035 0.0010731008 -0.039934497 -0.08318821
-0.029812068 0.014184248 0.087457985 0.005957594 -0.023105744 0.02230171 -0.08765638 -0.013491196
0.04738038 -0.04080682 0.055025883 0.036274698 -0.087406285 0.047998443 0.0019531797 -0.017642891
-0.031958204 -0.034393262 -0.010438615 0.058516935 -0.08353037 -0.049288947 0.08297593 -0.059446834
-0.026350178 -0.017280208 0.07386235 -0.051566582 -0.03910746 0.068857096 -0.07110329 -0.06761509
-0.036055334 0.06995985 -0.025262304 -0.08729885 -0.028022597 -0.051391643 -0.023445975 -0.053257484
-0.03358615 -0.011468547 0.038654253 -0.018438898 0.08269734 0.0732628 0.07798553 -0.012321031
-0.062085025 0.054326087 0.043189507 -0.07148338 0.05507768 0.025801025 0.02180088 -0.03779528
-0.0382529 0.02563915 -0.01585575 -0.05799455 0.08181034 -0.07156193 -0.08639679 -0.08102684
0.08797002 0.06421366 0.066555865 0.048802447 0.06425675 0.06428743 -0.04348561 0.066261545
0.057613812 0.066816494 0.033893134 0.05541023 0.08310327 -0.06919361 -0.08418248 0.0020474307
-0.07256407 -0.018834203 -0.016076073 0.08749883 -0.0047781775 0.019986425 -0.073514715 0.03312364
-0.07638083 -0.082725145 -0.056534443 -0.0022665204 -0.026683444 -0.05157315 0.021716712 -0.060024466
0.041427054 0.035728283 -0.025813026 -0.019458072 -0.0682725 -0.0786127 0.055585887 0.062669
-0.087881826 -0.03386519 -0.032560546 0.057522893 -0.065623485 0.024516758 0.075709075 0.08199392

2.bias f4 [128]
00000000: 1674 0b3d 9ed2 24bd aa3f 633d 858b 5fbc
00000010: 92d9 993d 0b15 c0bc 82d6 943d a3a7 12bd
00000020: 34a4 07bc 59af 0ebd 2d3a 6dbc f933 cabc
00000030: 8777 a03d cb29 813d cae2 a9bd f236 003d
00000040: 2c29 323d a583 a33d 7979 b4bc 69f7 1cbd
00000050: 8919 afbd a206 99bd 7609 9bbb dbca cd3c
00000060: be3a b23d 81fc 0d3d 3920 60bd f838 89bd
00000070: 126a 8fbd 6bb9 3b3d 74e3 4dbd b09d 17bd
00000080: 1476 aa3c 3595 d9bc 0ace 49bd 1469 38bd
00000090: 7efa dbbc a1ff 1e3d f680 1d3d 09e0 4bbd
000000a0: 68e7 813b b730 063d 9975 86bd 1501 72bd
000000b0: a1c8 acbd 033f d4bc 9b7f 4dbd d139 9abd
000000c0: b9c8 c7bc 4cb2 513d 60b8 1abd ef7a 2f3c
000000d0: 4fa2 14bd 0d77 923d e8f8 e23c cd12 d7bc
000000e0: b662 973d 3840 e23c 1cd1 f33c e47f 323c
000000f0: c939 a63d ab14 ad3d 0730 35bd 7e23 2cbd
00000100: 5c15 96bd 11a4 f93c dd45 95bd a057 e1bb
00000110: bc8c b5bc 1e35 a7bd 5b5f 293d acce 593d
00000120: cfba 8cbd 1e95 60bd e39d b4bb 0259 8e3d
00000130: f3c8 16bd a943 09bd 9008 a13d e124 0fbc
00000140: f4fe 6a3d 7074 a73c 0277 2c3d 1e46 213d
00000150: 90f3 48bd 4f88 953c 4b0e 813d 5654 7abd
00000160: a2f1 e3bc 2af4 7c3d 88f4 9bbc f1f1 8dbd
00000170: 965a 8dbd 2df8 9a3d f0d1 9abd ba12 1abd
00000180: 41fe 8ebc 9cf8 2b3d cbde 483c 0983 a43c
00000190: 0f20 7fbd 9c55 80bd 4263 82bd c426 16bd
000001a0: c7f3 453d 62c9 e9bc 6e79 a5bd 02e7 75bd
000001b0: 69ee 0a3c b3cf 96bd 5a13 64bd 1b89 103d
000001c0: e674 4b3d 097a a1bc ea3d 4abc 1451 56bc
000001d0: 4efa 5dbd e4e6 0dbd f773 2f3d 1753 23bd
000001e0: baab 59bb d719 92bc 518b b03d 1c88 873d
000001f0: 52bd 9ebd 94f5 1dbd a2bf 573d 6301 a13c
0.034046255 -0.040239923 0.055480637 -0.013644104 0.07512201 -0.023447534 0.072674766 -0.035804402
-0.008278895 -0.034835193 -0.014479202 -0.024682986 0.07835298 0.063067995 -0.0829521 0.0313024
0.043496296 0.079840936 -0.022030579 -0.038321886 -0.08549792 -0.07471968 -0.0047313524 0.025121143
0.087026104 0.034664635 -0.05471823 -0.06700319 -0.07002653 0.045831125 -0.050265744 -0.037015617
0.020808257 -0.026560405 -0.04926876 -0.045022085 -0.026852842 0.038818005 0.038453065 -0.049774203
0.0039643534 0.0327613 -0.06565399 -0.059083063 -0.084367044 -0.025908953 -0.050170522 -0.07530559
-0.024387704 0.051195428 -0.03777349 0.010710462 -0.036287602 0.071516134 0.027706578 -0.026254082
0.073918745 0.027618513 0.029762797 0.010894749 0.081164904 0.08451208 -0.044235256 -0.042026035
-0.07328293 0.03047374 -0.07288716 -0.006876901 -0.022161834 -0.08164428 0.041350704 0.053175613
-0.068715684 -0.05482971 -0.0055119856 0.06950571 -0.036812734 -0.03351179 0.07862961 -0.00873682
0.05737205 0.020441264 0.042105682 0.03937351 -0.049060404 0.018253474 0.06301554 -0.061115585
-0.02782518 0.06175629 -0.0190375 -0.06930912 -0.069020435 0.07566867 -0.07559574 -0.037615515
-0.017455222 0.04198514 0.012260149 0.020082014 -0.062286433 -0.06266329 -0.06366588 -0.036658064
0.048328187 -0.02853841 -0.080798015 -0.06003476 0.008479693 -0.07363834 -0.055682518 0.035287004
0.04967203 -0.019711511 -0.012343863 -0.013080854 -0.054193787 -0.034644023 0.042835202 -0.039874163
-0.003321393 -0.017834587 0.086203225 0.06617758 -0.07750954 -0.03856428 0.05267299 0.019653982

4.weight f4 [128, 128]
00000000: 7922 20bc f740 a4bd ed2d 6a3c b25b 193d
00000010: c7b2 d4bc ac6a 033d 2ed9 5dbd 309e a2bd
00000020: 2290 a13d c767 163d 415a ff3c 71c3 853d
00000030: bfe3 193c 5ec2 a83b 0e8d 6cbd 6b9d 4a3c
00000040: 7882 1a3d c967 0cbd 9148 9bbd 6be1 7b3b
00000050: 08d3 9ebd 8a15 5c3d ecc1 9b3d 5aaf ccbc
00000060: e67a c7bc dcb2 253d ff2c 73bd f53c 41bd
00000070: 3f5c a4bd 9891 103d 416a 803d 9a94 84bd
00000080: bfb6 1b3c 90f4 d43c 8c1f aebc de27 8ebd
00000090: 4ca7 c63b b89c 8c3d 2dde 26bc 955d a13d
000000a0: 9dfa 393d a2c8 aebd 62ca 8fbd ff51 a1bd
000000b0: 1375 9f3c f6d5 753d 5e89 72bc 8bba 72bd
000000c0: b768 a93c ffe1 9dbd b083 443c 1926 52bb
000000d0: 67d8 5cbd ae47 803d 2c21 b43c 0b59 dc3c
000000e0: dfad 3dbd d2b6 763d 584a 01bc 5ec3 42bd
000000f0: a591 6b3c 2ade b4bd 9722 99bd 2992 a0bd
00000100: dac6 f03a fd17 17bd 0cf2 7b3d 3451 aebd
00000110: 4835 d13c 0e21 333d 578b a9bc 4a59 a63d
00000120: 11cb 9dbd 7475 af3d b459 4c3b 0fe4 a53c
00000130: 3b33 acbd a24c 893d 1ef5 b23c 488f acbd
00000140: be3d 283c d1f7 0bbd 41fd 39bd 6a51 7f3c
00000150: 0fe2 5ebd be59 8abb 984c 9cbd fea1 613d
00000160: 2666 cf3c a5a2 4e3d d3fc aabb a573 593c
00000170: 2a5e 92bc e75c acbd 9e77 8c3d a372 81bd
00000180: 6254 343d 80d0 883c 584f 843c 513c 983d
00000190: 0595 be3c 5301 553d be9f 50bd 0d3f 963d
000001a0: 4db3 863b 675c 56bd 7822 93bd 4393 4dbd
000001b0: 6975 57bd f293 883d 10dd 8d3d d7c0 40bd
000001c0: ed51 043d fcc4 093d 8e3c 9abc 303d 2a3d
000001d0: 59fc 2dbd 4a06 02bd 827c 063d 1f7c a33d
000001e0: f55a a33c 8a07 973c f3c3 a9bd b4ff 10bd
000001f0: cdd2 f93c fafc ab3b 569c 6cbd 4f80 84bc
00000200: 5ccc 8abd c453 a5bd 576a aabd ba60 4d3d
00000210: c297 3c3d e744 d63c 65e7 9dbd 2791 573d
00000220: e4b1 553d 1669 b2bb 0fc6 2a3d e92a 20bc
00000230: 9bcf 363d b6ce 9dbd 834e 97bd 0ba0 323d
00000240: c39b a3bd 0e61 de3c 145b 883d 3d95 77bd
00000250: e26c 35bd d52c 3cbd 9dbd 6a3d 2b03 fbbc
00000260: a259 ea3c 6db0 2a3d 2d17 85bd adda a7bd
00000270: 9056 afbc 34be e53c b08a a53d 54f9 a9bd
00000280: dd7f 1abd 1c5d 9d3b 17f4 9fbd 31d7 8fbd
00000290: 0e73 e4bc efea a93d 90b9 91bc dc5c 07bd
000002a0: 72d4 a03d bae9 73bc d179 a43d 16d6 b7bc
000002b0: c4ac b73c 4a67 97bd 64ad 3ebc e5bd 1fbd
000002c0: 51c2 a53d 5fc8 27bd 5994 61bb f208 85bd
000002d0: 3367 bcbc 50c0 e3bb 5c6b 70bd 373c a23d
000002e0: 07a6 15bd 14f0 4dbd e0e9 1a3d 22f5 88bd
000002f0: a770 2e3d 8440 673d 2d44 0a3d 4664 16bd
00000300: 975a 28bd d8c4 1dbd 3a0d 2c3d c021 913d
00000310: c3d8 803a abca 6dbd b5e2 a83d 4fd4 df3c
00000320: fa42 e3bc 37ec 7f3d 7cf1 8f3d e7d5 0a3d
00000330: 47ce 0fbc c812 a0bc beb4 1ebd 321d 273c
00000340: 052b 10bd 5a51 17bd 1a40 9bbd 01da c73a
00000350: cd38 24bd 4c30 c7bb 23dc 663d 4cc6 05bd
00000360: 2181 383d ed27 423d 9a66 623d 6351 0abc
00000370: 6b2f 9fbd ec07 0dbd 8f5c cfbc 8b29 673c
00000380: 1d28 42bd bad2 6c3d 2127 943d db01 6cbb
00000390: d22f 50bd 17be 903d 970b 61bd 2ff5 5e3d
000003a0: 8853 b43d a1f7 d1bc 0492 a23d f785 a93d
000003b0: cc88 43bd e5ec 47bd c569 99ba c5f4 723d
000003c0: 9c63 1abd 1723 763d 5fd5 063d bc2b 9f39
000003d0: 45b9 9a3d fd3e a03d e4d0 8dbd d009 8fbd
000003e0: 9904 a2bd 4b9c 0d3d 52eb 403d afd2 5dbc
000003f0: ee1f 92bd 7c63 fc3c 7052 99bb a3dd 9f3c
-0.009773844 -0.080202036 0.014293176 0.037440963 -0.025964154 0.032084152 -0.054162197 -0.07940328
0.07888819 0.036720064 0.031170966 0.06531418 0.009392678 0.0051501235 -0.057751708 0.012366633
0.03772208 -0.034278665 -0.075822 0.003843392 -0.07755095 0.05373148 0.07605347 -0.024985958
-0.024350595 0.040453777 -0.059369083 -0.047177274 -0.08025407 0.0352951 0.06270266 -0.06473656
0.009504019 0.025995523 -0.021255277 -0.06941198 0.006062424 0.06865829 -0.010184807 0.078791775
0.04540502 -0.085343614 -0.07021023 -0.07876968 0.019465005 0.060018502 -0.014803259 -0.059259932
0.020679815 -0.07709121 0.011994287 -0.0032066165 -0.053917315 0.06263672 0.021988474 0.026897928
-0.046308395 0.060232945 -0.00789126 -0.047549598 0.014377986 -0.08831437 -0.074773006 -0.07840378
0.0018369809 -0.03688811 0.06151013 -0.08511582 0.025538102 0.043732695 -0.020696325 0.08122499
-0.077047475 0.08567324 0.0031181397 0.020250348 -0.08408209 0.0670407 0.021845397 -0.08425766
0.010268627 -0.034171883 -0.045407537 0.0155833755 -0.054414805 -0.004222124 -0.076317966 0.05508613
0.025317263 0.05044808 -0.0052181273 0.013272201 -0.017867167 -0.08416157 0.06858753 -0.06320693
0.044025786 0.016700983 0.016151115 0.074333794 0.023264417 0.052003216 -0.050933592 0.07336245
0.00411073 -0.052334215 -0.07184309 -0.050189268 -0.052602205 0.06668843 0.0692693 -0.047058906
0.032304693 0.033635125 -0.018827703 0.04156226 -0.042476986 -0.03174428 0.032833584 0.079826586
0.019940833 0.018436212 -0.082893275 -0.035400108 0.030496025 0.005248663 -0.05776628 -0.016174464
-0.0677726 -0.08072618 -0.08321064 0.050141074 0.046043165 0.026155902 -0.07710151 0.052628662
0.052171603 -0.005444656 0.04169279 -0.009775856 0.04463158 -0.077054426 -0.07388022 0.04360966
-0.079886936 0.027145889 0.06657997 -0.06044506 -0.044293292 -0.045941193 0.057309736 -0.030641159
0.028607193 0.04167216 -0.06498561 -0.08196006 -0.02140358 0.028044797 0.08083093 -0.08299509
-0.037719596 0.0048023593 -0.07810228 -0.070234664 -0.027886894 0.08296763 -0.017788678 -0.033047542
0.07853021 -0.014887268 0.08031047 -0.022440951 0.022421248 -0.07392748 -0.011638019 -0.038999457
0.080937035 -0.040962573 -0.0034420697 -0.06495847 -0.022998428 -0.0069504157 -0.058696136 0.07921641
-0.03653529 -0.050277784 0.037820697 -0.066873804 0.042587902 0.05645801 0.033756424 -0.036716722
-0.04110202 -0.038517803 0.0420048 0.070865154 0.0009830225 -0.058054607 0.08246366 0.027322916
-0.027741898 0.06248113 0.07028481 0.0338954 -0.008777208 -0.019540206 -0.038746588 0.010199832
-0.035197277 -0.036942817 -0.07580586 0.0015247465 -0.040093232 -0.0060787555 0.056362282 -0.032659814
0.045045022 0.047401357 0.05527363 -0.008442256 -0.07772716 -0.034431383 -0.02531269 0.014109026
-0.047401536 0.057818152 0.07234026 -0.0036011848 -0.050826855 0.07067507 -0.054942694 0.054433044
0.08804995 -0.025630774 0.079380065 0.08277505 -0.04773788 -0.048809905 -0.0011704495 0.05931546
-0.03769265 0.060092058 0.03291833 0.00030359428 0.075548686 0.07824514 -0.06924608 -0.069842935
-0.07911033 0.03457288 0.04709942 -0.013539 -0.07134996 0.030809157 -0.004679017 0.019514864

4.bias f4 [128]
00000000: 034d 97bb 09ee c5bc 6f2f a63b 3355 323c
00000010: 84e4 8e3d cec9 653b b737 d1bc 3d78 e2bc
00000020: 37f9 56bd a381 f5bc 7e99 4d3a 3936 3abd
00000030: e620 aabd 137e 20bd 0a20 8fbc 18ab 843d
00000040: 088f 9dbd a20e a3bc 819f 2b3d b3a3 383d
00000050: c4a7 23bd a33f 553d 3a41 98bb 2774 84bd
00000060: afec 67bd 3fb1 903d 7642 5cbb 1c56 84bd
00000070: 5edc 08bd 6fc6 a4bd ffea 36bc 38bb 743d
00000080: 9b86 913d 4aed 5dbc c87c dbbc 06f2 e4bc
00000090: ab05 fabc e7f2 8c3d 71c6 223d d82b 9d3d
000000a0: 41f0 733d 7cb7 913c c9d9 2dbd 392a 21bd
000000b0: e1ef 7c3d 506e 32bd 0d11 80bc bffc 933c
000000c0: ef32 3bbd 9523 a93d ad2d acbb 88a1 93bc
000000d0: 5d73 71bd 7617 473d 33b7 c3bc d855 833d
000000e0: 228c 10bd 71db 62bd db8e 80bd e999 963d
000000f0: 1e05 99bc 2725 7b3c 8ccf 393d 4fe0 aa3d
00000100: 6b44 6fba 91e0 a23d e169 913c 360c 9dbc
00000110: 3edd a03d d191 e83c b480 6e3d 6f89 913c
00000120: 473c f93c 69b1 95bc 5413 87bd 443a adbd
00000130: 7ce6 aabd 9759 c03b db1f 5a3d 5437 86bd
00000140: 4eea 53bd 4a7b 1abd c229 b03d 1c96 32bd
00000150: a6f8 3b3c ed5c ab3c f6af 3dbd 545d 283d
00000160: ddbe 9b3d 3fdb 9ebd 855d 4d3d db7d d83c
00000170: 3cda 713d 8a5e 81bd c89b a53c 5848 35bd
00000180: f021 a3bd 2ffe 8b3c 753c 11bd ac7a 15bb
00000190: fdb5 443d c7f7 41bd d028 9c3c 86ea 013d
000001a0: 87ac 88bb 1f4a 25bd a8c2 9cbd 2509 593d
000001b0: 6eda a53d 7c79 9f3d 61cd 203d f856 a83d
000001c0: 307d bc3c a751 6b3d d759 8e3d 5796 f6bb
000001d0: 619f 43bd c59e 393d 9833 143c 7b83 b2bd
000001e0: 2d1c 633d 55b7 1bbd 0fcb 9f3d 4233 b13d
000001f0: 765e 683c 7129 8b3d f7b3 0cbd ddca 693d
-0.004617335 -0.024161356 0.0050715725 0.010884571 0.0697718 0.0035062912 -0.025539262 -0.027645225
-0.052483764 -0.029969042 0.00078430015 -0.045461867 -0.08307056 -0.039182734 -0.017471332 0.06477946
-0.07693297 -0.019904438 0.04190016 0.04507799 -0.039954916 0.05206264 -0.0046464475 -0.06467467
-0.056622203 0.07065057 -0.003360895 -0.064617366 -0.033413284 -0.08045661 -0.011164426 0.05974886
0.07105752 -0.013545344 -0.026792899 -0.027947437 -0.03052028 0.068822674 0.03974003 0.07674378
0.059555296 0.017787687 -0.042444024 -0.039346907 0.061752204 -0.043562233 -0.01563313 0.018064855
-0.04570287 0.0825874 -0.0052544684 -0.01802136 -0.05894791 0.04860636 -0.023891067 0.06412858
-0.03528989 -0.055385057 -0.062772475 0.07353575 -0.018679198 0.015328682 0.045363948 0.08343565
-0.00091273215 0.07952989 0.017750682 -0.019170862 0.078546986 0.028389843 0.05822821 0.017765729
0.03042425 -0.018273072 -0.065954834 -0.08458379 -0.08344743 0.005870055 0.053253036 -0.06553522
-0.051737122 -0.037715234 0.08601715 -0.043600187 0.011472857 0.020918334 -0.046310388 0.04110463
0.07604764 -0.077566616 0.050138015 0.0264272 0.059046015 -0.0631686 0.020215884 -0.044258446
-0.079654574 0.017088978 -0.035458047 -0.0022808714 0.04802512 -0.04735544 0.01906243 0.0317178
-0.0041709575 -0.04035389 -0.07654315 0.052987237 0.08098303 0.07786843 0.039258365 0.08219713
0.023008913 0.057450917 0.06950729 -0.007525246 -0.047759417 0.04531743 0.009045504 -0.08716484
0.055446792 -0.038016636 0.07802402 0.08652355 0.0141826775 0.06795014 -0.034351315 0.05707823

6.weight f4 [4, 128]
00000000: 08b6 babc 4974 1a3d 4ab1 0e3d cf44 993d
00000010: 2890 9dbd a6f1 45bd 0752 c5bc 4699 b33d
00000020: 3205 e33c c65c a1bd 5cba 7abd 3971 833d
00000030: 7de9 61bd f1c0 1ebd 79c9 81bd 89f7 e7bb
00000040: 63bf 9c3d fdc4 5cbd 9598 563d dfea c1bb
00000050: 6dbe ae3d 8769 9abd 0cf4 2bbb cd40 50bc
00000060: 91f4 9abd 3063 91bd c2c5 fabc e170 8ebd
00000070: 2333 063c 60cd 753d f1d8 693c 6f99 523d
00000080: e88b b33d a2e2 49bd 7f87 d7bc 9263 4cbd
00000090: 4a83 a6bc 6def 6b3d 96f1 b1ba 323d a73b
000000a0: a114 bbbc 0937 523d 9ece 2bbc 7703 013d
000000b0: 96b4 48bd 738f 0ebd 8c56 323d 6544 853d
000000c0: 6be6 91bc 9218 46bd 4913 9d3d e04b 8cbc
000000d0: 84b2 87bd 2ca1 8cbd 29f0 9d3d d5fd dabc
000000e0: 8603 afbc d560 523d 2873 b2bd 5815 a9bd
000000f0: 4849 903d 0e82 283d c086 30bc ce57 19bd
00000100: 8b4d 323d 5220 65bd 126f 863d 0574 b13d
00000110: 277b 9b3c e519 18bb d4ea a73d b3b4 20bd
00000120: ec20 6abd 72ac 093d 4594 403d 0e7d c03c
00000130: ec1e eabc 5f0d 7abd 0f18 ba3c 3c42 833d
00000140: b10e 03bd d430 25bd 4b54 9bbd 1b0b a73d
00000150: d562 34bd 09c0 d0bb a7b6 ec3c 7dc9 cd3b
00000160: ed10 c2bc 7901 ab3d d608 aa3d fab0 96bd
00000170: 286d c2bc 4235 45bd 6f9e 6c3c 9393 af3c
00000180: b653 143d 9aad 553c 9c52 893c 583c 873d
00000190: 56c8 32bd de0c 6a3c 95d5 803d 9ce0 b03d
000001a0: 63da 2cbc 618c 573d 700e 923c d760 9abc
000001b0: f8b8 edbc 092d 39bd 7f99 ea3c 7c76 263d
000001c0: 076d 3d3d a3bc 21bb f16f a0bc c14e dfbc
000001d0: b488 8dbc d857 86bd 206a 453d c9a2 8f3d
000001e0: 63b1 32bc 57ed 273d 1c95 f03c c840 0cbd
000001f0: 3ba4 b83c 97dd 7c3c f70b 633d bb60 24bd
00000200: 4509 1cbd dc4e 213c d2df 0bbd bd8a 923d
00000210: ca34 9fbd c08b 7d3d 8ae2 373d 07d0 89bd
00000220: 9068 443d df84 a73d f6fa 5ebd 08d7 0abd
00000230: 55a1 96bd c91d a0bd 5808 43bd 0f6e 0cbc
00000240: e121 dabc f74e 413d 40ba dc3c b782 59bc
00000250: d994 a43d 80a2 ca3b 2d03 4fbc 65a7 593d
00000260: a106 1e3d d743 a53d 2a56 183d fa42 82bc
00000270: 84ac 58bd f82b 383d f3ad 973c 719b ae3d
00000280: bf56 34bd 5b81 db3c 2547 493d 179e 93bd
00000290: 4bcf 2abd 9da2 78bd b23a 66bd 9382 633c
000002a0: 7dbe 11bd 43cd 373d 22f9 8bbd f7d3 8ebd
000002b0: 9619 5b3d b400 b6bc 0f03 8cbd dc34 86bd
000002c0: 6f74 8bbd 24a9 5dbd 4357 db3c 6e42 7b3d
000002d0: 5b6b a8bd d85d 483d 6ba8 23bd c510 29bc
000002e0: 13c6 94bd 9220 dfbc 4cea e7bc 2286 8ebc
000002f0: 0e76 ab3d d798 923d eeb0 993d 8e9e d9bb
00000300: bd82 0fbd ee8f e53c 4212 64bd 3d99 733d
00000310: fa43 143d 28dd f23b 1332 fc3c 479d e13b
00000320: 47c2 8ebd db01 1c3d fd4a 37bc 99a8 64bd
00000330: d1bb 91bc 5a6b 30bc ad02 fcbc 3cb8 5dbd
00000340: 7d12 9abd b709 9dbc 4286 573c 5e3f aabc
00000350: 3da3 99bd a9b1 74bc 457f 61bd fd24 14bd
00000360: 8285 b1bc 0d21 90bc fc6b fdbb 9344 eabc
00000370: 62a6 65bd d4ac 66bd 03ac 993d b9d2 92bd
00000380: 915e 7abd d34a a2bd b434 113d f393 5fbd
00000390: 364c 8ebd 953f 8b3d 2273 813c bec4 a33d
000003a0: 5d67 ae3c 5b90 beba f109 84bd c954 4abd
000003b0: 2976 8d3d 8ff5 12bd 140a 37bd 0dd1 ad3d
000003c0: 9e7a f8bb dabb 0a3d 571f acbd 3da8 85bd
000003d0: 3a6d 503d 88e6 9b3d 8ad6 9abd 941f 26bd
000003e0: 7259 fdbc 336a 3f3d aa5c 8a3d 8f05 72bd
000003f0: ac83 82bd de88 803d 01fe 533c 2e3d 21bc
-0.022791877 0.037708554 0.034837045 0.07483827 -0.07693511 -0.048326157 -0.024086965 0.08769469
0.027712438 -0.07879023 -0.061212882 0.0641808 -0.055154312 -0.038758222 -0.06337256 -0.007079069
0.076536916 -0.0538988 0.052391607 -0.0059178914 0.085324146 -0.07539659 -0.0026237993 -0.012710762
-0.075661786 -0.07098997 -0.030611876 -0.06955124 0.008190903 0.060010314 0.014272914 0.051415857
0.087669194 -0.0492884 -0.026309727 -0.049899645 -0.020326275 0.05760138 -0.0013576027 0.0051037306
-0.022836985 0.051322017 -0.010486273 0.031497445 -0.049000345 -0.034804773 0.04353957 0.06507186
-0.017810067 -0.048363276 0.07669694 -0.017126024 -0.06625846 -0.068666786 0.077118225 -0.026732365
-0.021363985 0.051361877 -0.087133706 -0.08256024 0.07045227 0.041139655 -0.010774314 -0.037437253
0.043530982 -0.055939026 0.06564154 0.08664707 0.018979622 -0.0023208794 0.08199087 -0.03923483
-0.057160303 0.033611722 0.0470164 0.02349713 -0.028579198 -0.061047908 0.02271655 0.064091176
-0.031996433 -0.04032977 -0.07584437 0.08156415 -0.044039566 -0.0063705486 0.02889569 0.006280123
-0.023689711 0.0834989 0.083024666 -0.07357974 -0.02373369 -0.048146494 0.01444207 0.021432674
0.036212645 0.013041878 0.016763024 0.066033065 -0.043648086 0.014285294 0.062907375 0.08636591
-0.010550114 0.05262411 0.01782915 -0.018845005 -0.029018864 -0.045208964 0.028637646 0.04064034
0.046246555 -0.0024679087 -0.019584628 -0.027259232 -0.0172771 -0.065597236 0.04819691 0.07013471
-0.01090655 0.04099783 0.029367976 -0.034241468 0.022539249 0.0154336905 0.055431332 -0.040131312
-0.038094778 0.009845462 -0.034149 0.071553685 -0.077737406 0.061900854 0.04489378 -0.06729131
0.04795128 0.0817964 -0.054438554 -0.033896476 -0.073549904 -0.07818181 -0.04761538 -0.008571162
-0.026627483 0.047194447 0.02694428 -0.013275794 0.08036203 0.0061839223 -0.0126350345 0.053138155
0.03858054 0.0806958 0.037191547 -0.015901078 -0.0528989 0.044963807 0.018515563 0.08525742
-0.04402804 0.02679508 0.049140114 -0.072078876 -0.041701596 -0.060701955 -0.05620832 0.013886112
-0.035582054 0.044873487 -0.06834628 -0.06974023 0.053491198 -0.022217132 -0.06836521 -0.06553051
-0.06809317 -0.054116383 0.026775008 0.06134265 -0.082236014 0.04891762 -0.039955538 -0.01031894
-0.07264342 -0.02723721 -0.028309964 -0.017397944 0.083721265 0.07158058 0.0750445 -0.0066412156
-0.03503679 0.028022733 -0.055681475 0.05947231 0.03619764 0.007411618 0.030785596 0.006885204
-0.06970649 0.038087707 -0.011187312 -0.05582485 -0.017789753 -0.010767782 -0.030762995 -0.054130778
-0.075230576 -0.019169671 0.013154568 -0.020782169 -0.07501838 -0.014934936 -0.055053014 -0.036168087
-0.021670107 -0.017593885 -0.00773382 -0.028597152 -0.05606688 -0.056317165 0.07503512 -0.071690984
-0.06112534 -0.07924428 0.035450652 -0.054584455 -0.0694813 0.06799237 0.01580197 0.0799651
0.021289522 -0.0014538871 -0.06447209 -0.049397264 0.06907303 -0.035878714 -0.044687346 0.08487139
-0.0075829765 0.033870555 -0.08404415 -0.065262295 0.050885417 0.0761233 -0.07560451 -0.04055746
-0.03092644 0.04673214 0.067559555 -0.059087332 -0.06372771 0.06276105 0.012938977 -0.0098412465

6.bias f4 [4]
00000000: c563 563d f04f a7bd 014e 673d 9000 113d
0.05234124 -0.08169544 0.056470875 0.035400927
