demo/2Dball/modelF.pt (torch, 138356 bytes, 8 tensors)

0.weight f4 [128, 2]
000000 46 d6 b9 bd 1b 46 a3 bc 87 3e 19 3f dc 86 c1 bd
       -0.090740725 -0.01993089 0.59861034 -0.094495505
000010 ab 98 0a bf ba 39 29 3f 36 5a 53 3f 9b d5 68 3e
       -0.541392 0.6610371 0.82559526 0.22737734
000020 45 9c 9d be 91 d3 1f 3e 47 45 56 3d e0 97 b1 be
       -0.30783287 0.1560805 0.05231216 -0.34686184
000030 39 cd 06 bf ba 44 2f bf b4 33 aa 3e 42 74 07 3f
       -0.52656895 -0.68464243 0.3324257 0.5291177
000040 ef 14 1f 3f c3 78 aa 3e 1d da 20 3f 4f e1 a2 3b
       0.6214132 0.3329526 0.62832814 0.0049707065
000050 d2 9a 18 bf 01 cc b6 3d 53 b4 19 3f 2f de e0 be
       -0.5961124 0.089256294 0.6004078 -0.43919513
000060 9c b0 4a bf 7f 56 a9 3e d6 a7 cf 3d 83 fd 08 3f
       -0.79175735 0.33073804 0.10139434 0.5351183
000070 f3 af d9 3e 6d c8 e7 3c 36 88 01 bf 35 d5 19 bf
       0.4251705 0.028293813 -0.50598466 -0.60090953
000080 b7 42 3b 3e 14 3b 1e 3f c9 5a e8 3d ad 92 5a be
       0.18287168 0.61808896 0.11345441 -0.21345015
000090 2d ac 19 3f 7e 17 22 bf f7 1a d2 3e 88 d2 05 bf
       0.60028344 -0.63317096 0.41036198 -0.5227437
0000a0 77 b4 88 3d ac 9f 13 3f 6a 96 33 bf b1 80 09 bc
       0.06675046 0.57665515 -0.7015139 -0.008392499
0000b0 62 75 21 3f 09 43 07 bf 57 5f 03 bf 23 d5 2c 3f
       0.63069737 -0.5283666 -0.5131735 0.6751272
0000c0 1b 0f a7 bd 9d 76 f4 3e 49 5f 2f 3f 1b 52 0d 3f
       -0.08157178 0.47746745 0.6850477 0.5520341
0000d0 65 82 aa bd 54 9c 88 bd a8 3a 69 bd d4 2f 09 bf
       -0.08325652 -0.06670442 -0.056940705 -0.53588605
0000e0 be 35 f1 bd a3 26 57 3e 77 9a f5 be f7 aa 15 bf
       -0.11777829 0.21010832 -0.4796941 -0.58463997
0000f0 9e 27 c8 bd 6b d4 36 3f d4 9d 19 bf 90 a2 6e 3e
       -0.097731814 0.71417874 -0.6000645 0.233042
000100 7e db 3c bf 7b 12 ab 3e c0 df 51 bd 46 ce 0b 3f
       -0.7377242 0.33412537 -0.051238775 0.54611623
000110 96 1b 0f bd e1 b7 25 bf cb 52 10 bf 41 e5 fd be
       -0.034938417 -0.647337 -0.5637633 -0.4958897
000120 7c 09 8a bd 70 97 0e bf 87 50 2c 3f c0 ea 8b bd
       -0.0674009 -0.55699825 0.67310375 -0.068318844
000130 02 6f 2f bf 56 31 96 bd 42 e0 05 bf 77 62 08 bf
       -0.6852876 -0.07333629 -0.52295315 -0.53275245
000140 7d dd b0 3e 86 03 e4 be 14 43 22 be e5 82 b2 be
       0.34543982 -0.44533938 -0.15845901 -0.3486549
000150 e3 60 e3 3e be e5 51 bf db 40 12 3f 3a 2b d1 be
       0.44409856 -0.81991184 0.5713021 -0.40853292
000160 93 7e 88 bd 4c 5a 29 3f ea a4 1d 3f e5 80 cf 3e
       -0.06664767 0.6615341 0.61579764 0.40528026
000170 f5 1b 3b 3e 9c 5c 9b 3e af 5e d2 bd bb 71 b6 3e
       0.18272384 0.30344093 -0.10271966 0.35633644
000180 ad 40 bb be 81 72 88 be 78 11 2b bf 62 fd 28 be
       -0.3657278 -0.2664986 -0.6682353 -0.16502908
000190 3b 1e 59 3d 25 f5 10 be ec 4e 16 3f 64 eb ed 3e
       0.053007346 -0.14156015 0.58714175 0.4646865
0001a0 68 66 02 3f 91 01 fb 3e 3f e7 ff be a5 02 41 3e
       0.5093751 0.49024633 -0.49981114 0.18848665
0001b0 e1 87 0a 3f 7a 52 78 3e 73 af cb bd bf 4b 9d 3e
       0.54113585 0.24250212 -0.09945574 0.30721852
0001c0 23 d6 03 3e 4b 95 37 bf 78 f9 1e 3f d3 aa 08 bf
       0.12874655 -0.7171218 0.6209941 -0.5338566
0001d0 b8 d7 05 bf 08 5d 00 3f c3 de a1 be 64 27 ec be
       -0.52282286 0.50141954 -0.31615266 -0.46123803
0001e0 f9 39 01 bf e8 1e 98 bd 71 7a 30 3d 09 72 a5 be
       -0.50479084 -0.0742777 0.04308552 -0.32313564
0001f0 8d 7f 64 3d 68 22 0f 3e 01 80 4c be f8 d8 d5 bb
       0.055785704 0.13977969 -0.19970705 -0.006526109
000200 a1 11 e7 be 72 1a f8 3e 74 8b e6 bd d1 a7 2e 3e
       -0.45130637 0.48457676 -0.11257067 0.17056204
000210 df eb cd be 50 e9 0d 3f df ec 04 be c7 b0 ce 3e
       -0.40219018 0.5543413 -0.12980984 0.40369245
000220 53 70 ee bd 0a 1e 83 3e 07 a2 11 3e 3f fb 00 3e
       -0.11642518 0.25608855 0.14221965 0.12595843
000230 5d 13 ae bd 62 fb 95 bd 84 af 03 3f 96 8d f1 3e
       -0.08499787 -0.07323338 0.5143969 0.47178334
000240 bf ed bb be d6 65 2f bf 72 21 92 bd 1e d8 09 bf
       -0.36704823 -0.68514764 -0.071352854 -0.53845394
000250 8f c4 c9 bc 07 6a fe be ee 92 28 3f 38 72 18 3f
       -0.02462986 -0.49690267 0.65849197 0.59549284
000260 c9 d9 ac bd 35 87 a7 be 9e 51 1b 3e 3f 7f 25 3f
       -0.08439977 -0.32720342 0.15167853 0.6464729
000270 7b d2 43 bf e3 bd 76 ba 7e 00 b4 3d 7a 79 f5 be
       -0.7649304 -0.00094124506 0.087891564 -0.47944242
000280 19 23 00 be 63 15 21 bd e0 68 e1 3e 2a d5 23 3f
       -0.12513389 -0.039327037 0.44025326 0.6399714
000290 dc 3f 24 bf 04 30 94 be a9 bb 18 3f 5a 94 32 be
       -0.6415994 -0.28942883 0.59661347 -0.17439404
0002a0 f3 5c 99 bd c8 51 5f 3e f4 5d 27 bf f2 29 8d bd
       -0.07488432 0.21808541 -0.65377736 -0.06892766
0002b0 1c 3b cd 3e 80 16 d6 3e de ad 30 3f dc 8f 8b 3d
       0.4008416 0.4181404 0.690153 0.068145484
0002c0 6f 6b 33 bd d7 98 1e bf 4b 3a fd 3d 22 6e 4e 3d
       -0.04380363 -0.61951965 0.12364634 0.050398
0002d0 13 26 33 3f 07 6a 8e be 5f 1a e4 3e c3 9b 21 3d
       0.6997997 -0.27815267 0.4455137 0.039455187
0002e0 4b 12 ef bd ee db 2d be 79 b5 6d be 66 97 2f 3f
       -0.11673411 -0.16978428 -0.23213758 0.6859039
0002f0 9c dc 27 3f 59 d4 0b 3f 0b e5 1a 3f 14 84 b9 3d
       0.65571 0.5462089 0.6050574 0.09058395
000300 f6 9b df be ab 2f 51 3f f2 69 16 bf 26 3a 9a be
       -0.43673676 0.8171336 -0.5875541 -0.3012249
000310 fb 96 3a 3f d6 80 0e 3f 6a ba 0b bf fe 22 27 bf
       0.7288663 0.5566534 -0.5458132 -0.6528777
000320 49 e7 27 3f d6 05 8f be cc 36 da be 09 25 b4 3e
       0.6558729 -0.2793414 -0.42619932 0.35184506
000330 f3 d4 a3 3e ff 2e fe 3e 1d ac 03 3f b9 91 fd be
       0.31998405 0.4964523 0.514345 -0.4952524
000340 98 6c 5a bb 3a e2 18 3f c6 45 2d bf 2a 13 0a 3e
       -0.0033328887 0.59720194 -0.6768459 0.13483873
000350 8c 2a a5 be ed a3 46 3f 75 97 b3 3d e9 84 fa 3e
       -0.32259023 0.7759388 0.087691225 0.48929527
000360 e4 53 a7 3e d8 66 34 bf 6c f3 c3 3e 08 44 29 3f
       0.3268119 -0.7046943 0.38271654 0.6611943
000370 83 b3 07 bf d2 28 c6 3d 31 41 d5 3d de f5 64 3e
       -0.5300829 0.096757546 0.10412825 0.22359416
000380 85 d0 f1 be cc 70 00 3f 40 7b 50 be e0 b7 f8 be
       -0.472294 0.50172114 -0.20359516 -0.48577785
000390 e0 e4 8d bd 59 b4 1d be f5 3c b3 be ed 19 d7 3e
       -0.0692842 -0.15400828 -0.35007444 0.42011967
0003a0 2e 6e d1 bd 2b 6e ef 3d cd 09 49 bf cf 28 0e 3f
       -0.10226093 0.11690935 -0.7853058 0.5553102
0003b0 d9 ac e4 bd cc d1 5d be 6d a4 b3 3e 1f 7e 43 bf
       -0.111657806 -0.21662062 0.35086384 -0.7636432
0003c0 f5 da eb 3e 72 92 f9 3e 98 7c 72 3d 99 0b 21 bf
       0.46065488 0.4874454 0.059200853 -0.6290832
0003d0 53 6f 43 3f 2c 20 11 3d 72 bc a8 3e 91 5f 3a 3f
       0.7634174 0.035431072 0.32956272 0.7280207
0003e0 e5 6b be bd 77 a3 9d be ea b1 12 be 77 0c 44 bf
       -0.09297923 -0.30788776 -0.14325681 -0.7658152
0003f0 08 30 3c bc 49 b3 41 3f df 6d a0 3e bf 35 72 be
       -0.011486061 0.7566419 0.31333825 -0.23653315

0.bias f4 [128]
000000 d2 47 bf be 75 6a cc 3e 13 a1 0c 3f 52 5f 92 bd
       -0.37359482 0.3992497 0.5493328 -0.07147087
000010 26 7d 9f 3e 35 f5 b2 be ef 20 1d 3f f1 d0 cc be
       0.31150168 -0.34952703 0.6137838 -0.4000316
000020 ce 4b 87 be d8 11 18 bf ef ee af be 61 b6 fc 3d
       -0.26425022 -0.5940223 -0.3436198 0.123394735
000030 1e 0b db be ae be 63 3c 08 c7 07 3f 9f 5c 20 3e
       -0.4278192 0.013900442 0.5303807 0.15660332
000040 5d 34 c6 3e 1d 22 0e 3f e8 d8 13 bf c4 48 50 be
       0.38711825 0.555208 -0.5775285 -0.20340258
000050 5b f6 ab 3e d9 15 bc be 39 7a c5 be bb 2d 89 be
       0.33586392 -0.36735418 -0.3856981 -0.26792702
000060 0c aa 99 3e b3 44 8d 3e f6 a5 99 bd bc 14 03 bf
       0.30012548 0.27591476 -0.07502358 -0.51203513
000070 44 73 32 bf 49 aa 47 3e 98 ab a5 3c 58 d9 b8 3d
       -0.6970713 0.19498552 0.020223424 0.0902583
000080 13 2e 22 be 2c 66 2a 3e 0c 85 a8 be 21 68 e7 3e
       -0.15837888 0.16640538 -0.32914007 0.45196632
000090 7e 87 86 be 76 6e a8 be 3c 82 a8 3e 88 47 09 3f
       -0.26275247 -0.32896775 0.3291186 0.53624773
0000a0 c8 d7 3a bf e9 28 48 3f 14 33 12 3f c8 7b 53 3e
       -0.72985506 0.78187424 0.5710919 0.20652688
0000b0 10 9c e9 3c 14 9e 51 bf be 0a 29 3f 97 06 d4 3e
       0.0285168 -0.81881833 0.66032016 0.41411278
0000c0 23 fc f9 3d 7f da e2 be 61 38 0c be 7e 6e 48 bd
       0.122062944 -0.44307324 -0.13693382 -0.0489335
0000d0 20 18 f1 3e e7 55 12 bf 89 3a 42 bf f5 02 39 bf
       0.47088718 -0.57162327 -0.7587057 -0.7227014
0000e0 50 a9 4f 3f 36 1d 07 3f 26 fa 45 3e 71 c1 a8 3e
       0.81117725 0.5277895 0.19333705 0.32960084
0000f0 10 a3 19 3f 66 cc 24 bf c0 86 a3 be d9 25 c9 3e
       0.6001444 -0.6437439 -0.31938744 0.39286688
000100 82 72 0f 3e a6 34 20 bf 04 0c f1 3e 51 ea c8 be
       0.14008525 -0.62580335 0.4707948 -0.3924127
000110 b1 9a 38 bf a4 c9 38 3f 4d 0b 2e 3e 88 0f db 3e
       -0.7211104 0.7218268 0.16996498 0.42785287
000120 cb 2f 98 3e 53 cb da 3e 0e c3 00 3f 60 7e 01 3e
       0.29723963 0.4273325 0.5029763 0.12645864
000130 87 da d9 3e 5f 9e 9f bc 62 6f 73 be 14 f3 61 3e
       0.42549536 -0.019484697 -0.23772958 0.22065383
000140 eb 6d e1 be c7 09 20 3f a5 70 17 3f 0f 29 84 be
       -0.44029173 0.6251492 0.59156257 -0.25812575
000150 30 8f 97 3d 49 65 1e 3f ed 7d 60 3e b2 b1 af be
       0.07400358 0.618733 0.21923037 -0.34315258
000160 eb 05 12 3f af a0 7a be 14 4f 07 bf 9a b8 ed bd
       0.5704028 -0.24475358 -0.5285504 -0.116074756
000170 af 30 d4 be 98 a4 20 be ba bd 6b 3e 48 ad a3 3e
       -0.41443393 -0.15687788 0.23021594 0.3196814
000180 f4 3e 56 be 16 40 0a 3f 2c 38 77 be 55 bf a8 be
       -0.20922452 0.5400404 -0.24142522 -0.32958475
000190 b6 03 82 3e f0 fb fe 3d 38 f9 16 bf d3 5c 32 be
       0.25393456 0.12450397 -0.5897403 -0.17418222
0001a0 35 3b c5 3d 48 87 92 3d bf 99 21 3f 10 5d 1d 3f
       0.096304335 0.07154709 0.6312522 0.6147013
0001b0 be e9 9f 3e 63 2c 9c 3d 93 e2 1f 3f 12 9b d3 3e
       0.3123302 0.076256536 0.624551 0.41329247
0001c0 a4 9e 0a 3f 68 bc d5 be 6a 81 40 be e2 7d d3 be
       0.54148316 -0.41745305 -0.18799368 -0.41306978
0001d0 2b 4b 10 bf 5e 6e 14 be 9a 63 a5 be 7d 85 db 3c
       -0.563647 -0.14495227 -0.32302552 0.02679705
0001e0 23 c2 31 bf f4 94 2e be 9a 73 73 3e f9 0d 47 be
       -0.69436854 -0.17049009 0.23774567 -0.19438924
0001f0 22 a3 1d bf b3 b7 f3 3e 08 ee 29 be e9 a9 ae 3e
       -0.61577046 0.4760109 -0.16594708 0.34114006

2.weight f4 [128, 128]
000000 10 43 0a 3d 4f 33 a7 3d be 57 34 bc e7 2a b0 3d
       0.033755362 0.08164083 -0.0110072475 0.08601933
000010 b2 ee 97 bd bd 64 4c bd 72 ed 32 bd 34 b0 b2 bb
       -0.074185744 -0.04990076 -0.043683477 -0.005453134
000020 11 ae 57 3b 70 b4 2d bd bb 2f 94 bd dd 42 c8 3b
       0.0032910148 -0.042408407 -0.07235666 0.0061114863
000030 d5 f6 b7 bc c9 e2 21 bd 87 c1 e2 bc 19 84 9b bd
       -0.022456566 -0.03952292 -0.027680172 -0.07593555
000040 ab 80 3e bd be ef e8 bc 64 0e 34 3b 18 8c af bc
       -0.046509426 -0.02843463 0.0027474398 -0.021429107
000050 8f 32 f1 3b 9e f8 f4 3c b9 8e ae 3d 7d cd 57 3d
       0.0073607634 0.029903706 0.08523316 0.052686203
000060 8b 65 37 3d 49 74 b5 3d 66 5a 41 bd 16 24 c6 bd
       0.044774573 0.0886007 -0.04720535 -0.096748516
000070 99 69 1e 3e d8 3d e1 bc 70 df 62 bc 66 9c 82 bd
       0.1546997 -0.02749531 -0.013847217 -0.06377487
000080 7c f9 50 3c f5 25 1b 3d 83 6f c3 bd 62 55 ab 3c
       0.012754794 0.037877996 -0.095427535 0.020914737
000090 39 3d b4 bc ea f6 dd bc bd 7f 80 3c d6 b7 7a 3d
       -0.02200185 -0.027095277 0.01568591 0.061210476
0000a0 86 18 9c 3a 15 d4 01 bd 39 20 00 bc e6 fb 71 bc
       0.0011909164 -0.031696398 -0.0078201825 -0.01476953
0000b0 78 c2 d8 3d 31 05 3b bd e1 67 67 bd 1b 27 73 3c
       0.10583967 -0.045659248 -0.05649555 0.014840866
0000c0 28 05 ae bd 05 d9 9f 3d 3f 8e 91 bd 82 05 80 bd
       -0.08497077 0.07805065 -0.071072094 -0.062510505
0000d0 04 30 85 bc ba ff 32 3d d8 7a 25 3d 6f 32 b8 3d
       -0.016258247 0.04370091 0.040400356 0.089939944
0000e0 00 65 fb bd 51 ce 90 bd 11 80 60 3d ae c0 09 3d
       -0.122751236 -0.07070602 0.054809634 0.03363102
0000f0 5a 7c 6b 3d 14 f1 5e 3b a8 f6 a6 3d a2 3c a8 bc
       0.057491638 0.0034018205 0.08152515 -0.020536724
000100 e6 f5 53 3d 98 82 6e bc 04 d7 5f 3d 40 35 b1 bc
       0.05174818 -0.014557503 0.054648414 -0.021631837
000110 21 fa 8f 3d 89 c1 02 3c 69 28 98 bd 9b 25 50 3c
       0.0703013 0.007980713 -0.074295826 0.012704278
000120 69 1f a5 bd 25 53 11 3c 1d 86 2b bd 1d 3c 59 3d
       -0.08062632 0.008869921 -0.041875947 0.053035844
000130 09 59 7b 3d 46 c8 89 3b 61 2b 6a 3d bf b5 9d bc
       0.061364207 0.0042047827 0.057170276 -0.019251702
000140 7e a2 1f 3d 2d 0a a7 3b ab 78 72 bd 01 a9 ae 3d
       0.038973324 0.0050976486 -0.05919711 0.08528329
000150 6c 51 ae 3d d4 35 18 39 17 d2 fc bb f5 a9 95 bd
       0.08511624 0.00014515902 -0.0077154743 -0.07307807
000160 84 a2 a3 bd 0a e1 4f bd 50 12 c0 3d b8 68 07 bb
       -0.07989982 -0.050751723 0.09378493 -0.0020661782
000170 36 3f 5f 3c 78 0b 56 3c 4c b8 eb bc c7 08 02 3d
       0.0136259105 0.013064258 -0.028774403 0.031746652
000180 cc e7 4a bc 0e 40 f3 3c 12 3f 6d 3d c6 18 ef bb
       -0.012384366 0.02969363 0.057921477 -0.0072966544
000190 2c 85 11 bd 59 ee 81 bb c5 e8 6a 3c 67 15 53 3b
       -0.035527393 -0.003965181 0.014337723 0.0032208802
0001a0 d1 6a a3 3d af 69 57 3b 31 f6 8b bd 60 f7 ca bd
       0.07979358 0.0032869389 -0.06834067 -0.09910464
0001b0 b6 a3 e3 39 95 58 b3 3d 19 3b a3 bd 25 89 22 3d
       0.00043418788 0.0875713 -0.07970256 0.039681572
0001c0 09 4f f7 38 1e fd a0 bc 6b 7e 83 3d 7d e9 89 3d
       0.00011792599 -0.019651946 0.06420597 0.067339875
0001d0 3a 73 eb 3d 39 15 92 3d e5 43 60 3d 9c 60 8a 3b
       0.11496587 0.07132954 0.05475225 0.0042229425
0001e0 e7 a4 bc 3d 6c 06 9c bd c3 bd a8 3d f2 e2 96 bd
       0.0921114 -0.076184124 0.08239319 -0.07367505
0001f0 a1 96 20 3e fc 49 a1 bd 7d c7 27 3e e4 db 9e 3d
       0.1568246 -0.078754395 0.16384692 0.077567846
000200 2c d6 aa bd 9e cb 4d bc 6f 05 ea bc 7a bc 55 3b
       -0.08341631 -0.012560753 -0.028567044 0.0032613561
000210 53 19 18 3b d7 ed a3 3d 66 0d 99 3b f5 58 85 bc
       0.0023208454 0.08004349 0.0046707867 -0.01627777
000220 07 22 1d bd cb 8c 3d bc 23 25 02 bd 0b 3b 7c bd
       -0.03836253 -0.011569212 -0.031773698 -0.061579745
000230 f5 12 45 bc d1 64 01 3c 1a 70 55 3d 2f 20 2a 3c
       -0.0120284455 0.007897572 0.05210886 0.01038365
000240 74 ff 94 bd fb 3d 5a 3d 71 3f 36 bd 57 0f 2d bd
       -0.07275286 0.053281765 -0.044494096 -0.042250957
000250 97 cb 41 3d b6 3f 67 3b bf 28 be bc c6 d2 64 bd
       0.0473133 0.0035285777 -0.023212789 -0.05586507
000260 93 90 36 bd 08 e5 07 3c 9f ab 37 3d b9 6a 7a bd
       -0.04457147 0.008294351 0.044841405 -0.061136935
000270 a4 8a cf bd 47 e9 b7 3c fd 5b 73 3d 04 3c 85 3c
       -0.101338655 0.022450102 0.0594139 0.01626397
000280 83 e1 c5 3d a9 da a3 bd c6 eb 4d bd 26 ac 6b 3c
       0.096621536 -0.080006905 -0.05027368 0.014384305
000290 65 b5 54 3c 3d 76 42 bd 1d 83 97 bd ef 25 73 bd
       0.012982701 -0.047476042 -0.07398055 -0.05936235
0002a0 50 73 85 bd 02 ca 6d 3d 9e 63 4e bd 06 fb 84 3c
       -0.06516135 0.058053978 -0.05038797 0.016232979
0002b0 80 b2 a6 3c 3e 58 8a bd 32 d5 46 3d d3 05 40 bd
       0.020348787 -0.06755112 0.048543163 -0.046880554
0002c0 13 d8 de 3c b2 95 22 bc bc af 3a 3b 1c bf 98 bc
       0.027202642 -0.009923385 0.0028486094 -0.018645816
0002d0 46 dd d6 3c a4 50 cb 3c 3a f2 55 3c 73 a1 07 be
       0.026228558 0.024818726 0.01305824 -0.13245182
0002e0 74 d3 b9 bc 0f 75 4e 3d bc 3e 99 3d 3d cd 9f 3d
       -0.022683837 0.050404605 0.07482669 0.07802818
0002f0 b9 68 34 bc 86 28 46 bd 85 f5 d6 3b 84 b3 b1 3d
       -0.011011296 -0.04837849 0.00656003 0.08676818
000300 d0 80 a1 bd 13 21 80 bd 07 dc c7 3c b0 07 be bc
       -0.07885897 -0.062563084 0.02439691 -0.023197025
000310 2e ad ec bd 42 eb d8 3c ed 17 bc bd 6b 99 5b bc
       -0.11556469 0.026479367 -0.09184251 -0.013403277
000320 cc f3 33 bc 67 0d 3d 3b 5e 35 68 bd 42 90 8d bd
       -0.010983419 0.00288471 -0.05669152 -0.069122806
000330 51 d7 a2 bd 59 fc a6 3d a1 a1 c9 3c cc 9b c3 bc
       -0.079512246 0.081536 0.024613203 -0.023878
000340 1b c5 b1 bd e4 59 50 bc 25 9c a5 bc dd b1 b7 3c
       -0.08680173 -0.012716744 -0.020216057 0.022423679
000350 c7 d5 c0 bd f3 6b 13 3d f9 6c 04 3d 34 7b 2f bd
       -0.09415775 0.03599162 0.032330487 -0.042842105
000360 63 4d e0 3c 41 cf fa bc 2c 12 31 3d dd f0 98 bd
       0.02738065 -0.030616404 0.04323022 -0.07467816
000370 48 90 3f bd 22 35 23 3d 10 51 ba bd 38 d8 95 3d
       -0.046768457 0.039845593 -0.09097493 0.07316631
000380 60 6b 0c bc c5 b6 ac bc 14 3b 97 3b 68 aa 82 3d
       -0.008570522 -0.021083245 0.004615197 0.06380159
000390 7b a4 6f 3d 38 dd 6c 3d ed 10 41 bc 15 0f 19 3c
       0.05850647 0.05782816 -0.011783821 0.009341975
0003a0 9e 1a f2 bc 12 84 92 3d 49 0c 8b bd 89 80 26 3e
       -0.029553708 0.07154097 -0.067894526 0.1625997
0003b0 0f 10 e6 bc 18 43 de 3c 4e 79 2d 3d ab 58 c6 3d
       -0.02808383 0.027131602 0.042352013 0.09684881
0003c0 6c 13 a1 3d c7 90 23 bd 5e 17 6d bd 05 47 d7 bb
       0.078650326 -0.039932992 -0.057883613 -0.0065697455
0003d0 3a 97 af bd 8f c0 84 bd 00 19 17 3d 44 c5 9f 3c
       -0.08573766 -0.0648204 0.036889076 0.019503243
0003e0 64 47 11 3c c0 b5 77 bd a4 aa b4 bd 95 d9 3a 3d
       0.0088671185 -0.060476065 -0.088216096 0.04561766
0003f0 5f 39 80 be 46 a9 82 3d de 22 07 be 4a dd e6 3c
       -0.2504377 0.063799426 -0.13196895 0.02818169

2.bias f4 [128]
000000 60 fd 8e 3c ec e8 2a bd 8a 96 bc bd 26 51 64 bd
       0.017454803 -0.041726038 -0.092084005 -0.05574145
000010 dd 89 1a bc ac 00 86 3a 88 a6 ed 3c 27 58 21 bc
       -0.009432283 0.0010223589 0.029010072 -0.009847677
000020 43 a8 f2 bc 1d b9 19 bb 0a 43 68 bd 08 b6 24 3c
       -0.029621249 -0.0023456283 -0.05670456 0.010053165
000030 a5 db 99 bd c1 7c 43 3d 7e 89 01 3d 8a e2 33 3c
       -0.07512597 0.047726396 0.031625263 0.010979304
000040 ff c8 e2 3a 0b 8d 86 3d 0b 05 0d bd 08 5b 07 bd
       0.0017302333 0.065698706 -0.034428637 -0.0330458
000050 a5 c5 c4 bc 92 7e 1c 3d 98 11 a1 3d 5f 5b 4e bd
       -0.024020026 0.038206644 0.07864684 -0.050380107
000060 0d 8b 85 bd a7 c2 79 3c e4 25 bd 3d d4 04 0a bd
       -0.065206625 0.015244163 0.09235743 -0.03369601
000070 f3 4c 70 3d c3 0c 21 bd 77 91 b0 bd ff 8a 8a bc
       0.058667134 -0.03931881 -0.08621495 -0.016911982
000080 ff 5b 31 3d 78 41 d2 3c 01 81 29 bd 05 c7 b3 3d
       0.043300625 0.025665984 -0.041382793 0.08778194
000090 8f d1 1d 3d 28 9a 82 3d d6 11 7c bd 89 7c 67 bd
       0.03852993 0.06377059 -0.061540447 -0.05651525
0000a0 62 ac aa bd 4a f5 9f 3d 80 8e 63 bd 47 bf 9f 3d
       -0.08333661 0.07810457 -0.05555582 0.07800155
0000b0 9f 99 0a 3d fa a1 36 bd 8b 4b c7 bc b2 2a af bd
       0.03383791 -0.044588067 -0.024328014 -0.08553065
0000c0 36 1d 9e 3d 4d c4 b1 3d 6c 6d b4 bc cc 72 ee 3c
       0.07720415 0.086800195 -0.022024833 0.029107474
0000d0 09 a8 a6 ba 1d 32 16 bd 79 02 68 bc 90 94 94 bd
       -0.0012714873 -0.036668885 -0.014160746 -0.072548985
0000e0 4b 3d ec ba 37 38 0c 3c 54 9e 06 bd 5c 11 13 3d
       -0.0018023638 0.008558325 -0.032865837 0.035905227
0000f0 e4 7f 42 bd f9 fa 1f bd cb 3f 3e 3a 00 a1 27 bd
       -0.047485247 -0.039057706 0.00072574307 -0.040925026
000100 c6 d3 c3 bc 64 84 b6 3d 33 fb 3a bd da 9c c1 bd
       -0.023904692 0.0891197 -0.04564972 -0.09453745
000110 06 9d 11 bd d3 ff d8 3b 86 e9 24 3d e5 9b c3 3d
       -0.03555014 0.0066222935 0.040261768 0.09551219
000120 13 b6 90 3d df 27 70 3d 62 dc a6 bb 69 89 db 3c
       0.07065978 0.058631774 -0.0050921896 0.02679892
000130 cd 57 5b 3b 5b a9 59 3d 48 44 25 bd a1 69 95 3d
       0.0033469081 0.053140026 -0.04034832 0.07295538
000140 6b 7a 8b bd 9e d5 d4 3c 93 57 be 3d 7b 81 ba bd
       -0.06810459 0.025980767 0.09294047 -0.09106728
000150 4b 9d 52 bd 3a 98 45 bd 6d 10 e6 3d da b7 79 bd
       -0.051419538 -0.048240878 0.11233602 -0.06096635
000160 f9 32 91 3d b8 45 72 bc 2c 57 a6 3c 52 df 50 3d
       0.070898004 -0.01478713 0.020305239 0.050994225
000170 9b 6f 33 3c 6d 4d ec 3d 91 55 bb bd d5 2e 44 bd
       0.010951902 0.11538205 -0.0914718 -0.047896225
000180 bd de 8e 3d 34 5f ab 3d 32 6d 8e bc 22 1c 1e 3d
       0.06976078 0.08367768 -0.017386053 0.03860105
000190 f4 26 a1 3d 52 a7 36 bd ff e8 ba 3d 4c 9b c7 3d
       0.07868758 -0.044593163 0.09126472 0.097464174
0001a0 a9 42 8c 3d 3a 90 9c 3c 80 cd b1 3d 5a 33 bf bd
       0.06848652 0.019111741 0.08681774 -0.093359664
0001b0 46 94 92 bd 59 37 81 3d a8 64 8b bd fd 92 2e 3d
       -0.07157187 0.06309385 -0.06806308 0.042620648
0001c0 ea cf 8a 3d 83 e1 0e bd 4b b4 a9 bd b1 2c 71 3d
       0.06777938 -0.034883033 -0.08286341 0.05888051
0001d0 0d af 52 3d f0 47 31 bc d3 08 35 3d 91 61 5e bd
       0.051436473 -0.010820374 0.04419787 -0.054292265
0001e0 44 dd 2d 3d f5 e0 94 3d 84 de 5f 3d 20 dd 75 3d
       0.042447343 0.0726947 0.054655567 0.060025334
0001f0 99 86 3c bd cb 21 9a bd 10 b0 0e bc 5a 4f c0 3d
       -0.0460268 -0.07525977 -0.008708969 0.09390135

4.weight f4 [128, 128]
000000 40 4c 18 3e 15 2c c4 bd 9a 1e 0b 3e f8 49 14 be
       0.14872837 -0.095787205 0.13585892 -0.14481342
000010 68 5d cf bd 9c 42 a1 3a 9d ad 1e 3e a5 cb ce 3d
       -0.10125238 0.0012303176 0.15495916 0.10097436
000020 fa 1b 4a 3d b9 4b 92 bd 18 41 ef bd f2 30 38 3e
       0.049343087 -0.07143349 -0.116823375 0.17987421
000030 3d 8d 3f bd 66 99 0e 3e 43 77 73 3d 80 f2 12 3e
       -0.046765555 0.13925704 0.05943991 0.14350319
000040 f7 86 a3 bd 77 9b 45 3c 9a 0c 5c 3e fe ee 0f be
       -0.07984727 0.0120609915 0.21489182 -0.14056012
000050 d6 48 8a bc 63 ff 0f 3e fb 26 02 be b9 d3 4f 3e
       -0.016880434 0.14062266 -0.12710182 0.2029561
000060 23 6b f5 3d db fa d8 bc 5d a2 4c be 4d 5f 08 3e
       0.11983325 -0.026486805 -0.19983812 0.13317604
000070 62 15 8e 3d b9 22 49 3d a6 8b c6 3d 81 7a 46 be
       0.06937672 0.04910538 0.096946046 -0.19382669
000080 58 d8 29 3e 5b ad f6 bb 8e 7e a8 bd 3d e6 01 be
       0.16586435 -0.00752799 -0.082272634 -0.12685485
000090 b5 cd f4 3d fa 9c ff bd fa c5 1e be d1 0d 24 bd
       0.11953298 -0.12481113 -0.1550521 -0.04005224
0000a0 58 62 ac 3d 2e 01 93 bd ca ea 4b bc a0 41 ee bd
       0.08417195 -0.071779594 -0.012446115 -0.11633611
0000b0 92 56 7e 3c e7 83 08 be 7b d2 05 3e 2e e7 3b 3d
       0.01552357 -0.13331567 0.13068573 0.045874767
0000c0 19 66 5d 3c 58 4e 66 bd 7a 33 e5 3d 7d 65 bc 3b
       0.0135131115 -0.05622706 0.11191459 0.005749403
0000d0 6a f2 b0 bd 02 a2 11 bc 1f 70 67 3d 1e ba bb 3c
       -0.08639987 -0.008888723 0.05650341 0.022915896
0000e0 04 98 d7 3d 20 a7 ab 3d e0 ba 97 3d 2c be e6 3d
       0.105270416 0.08381486 0.074086905 0.11266741
0000f0 11 c9 83 3b 0b 47 87 bd 81 f3 05 3e 13 97 cd bc
       0.0040217717 -0.06605347 0.1308117 -0.025096452
000100 aa 71 d9 bd 76 b9 f0 bd ff eb 11 be c3 44 d6 3b
       -0.10617383 -0.11754124 -0.14250182 0.0065389588
000110 5d c1 6b bd 07 ab 21 3e 98 14 e2 bd 42 44 e7 bd
       -0.057557452 0.15787898 -0.11039084 -0.11292316
000120 67 a0 ab bd 7f eb 78 3e e1 75 5a 3e ae e0 dc bd
       -0.08380204 0.24308585 0.2133403 -0.10785042
000130 0b 01 38 3e 85 a7 54 be 4b 83 02 3e 09 68 82 bd
       0.17969148 -0.20767029 0.12745397 -0.063674994
000140 3a 49 1d 3e 87 86 7a bd 07 5d 5c 3c 43 46 3c 3e
       0.15359965 -0.06116345 0.013449914 0.18386178
000150 98 0f 8d 3d 68 eb 90 bd 1a f2 a8 3d 23 14 65 bd
       0.0688774 -0.0707615 0.08249302 -0.055927407
000160 df 32 78 3d 4d b1 ba bd 9b f9 15 bd ef aa 33 bc
       0.06059539 -0.09115849 -0.036614995 -0.010966047
000170 e3 4f c3 bd 66 4b 87 bd 67 7b 05 3e cd 2c 86 be
       -0.095367216 -0.06606178 0.13035356 -0.26206055
000180 e7 38 20 3e f6 84 6c bd 98 ee c4 3d c9 01 1e be
       0.15646707 -0.05774399 0.09615821 -0.15430368
000190 96 b2 8a be db 22 d5 ba 76 92 7e bc cc be e4 bd
       -0.27089375 -0.0016260998 -0.015537849 -0.11169204
0001a0 05 ff be 3d 17 b8 f9 bd 3e 0c 76 be 64 62 ca 3d
       0.09325985 -0.121933155 -0.24028108 0.09882048
0001b0 57 dc 92 3d 3c 25 79 bc 9f 82 99 bc 56 4f a5 bd
       0.07170933 -0.015206631 -0.018739043 -0.08071773
0001c0 83 32 0c 3c 32 40 92 3d 07 9a c4 bd 2d 43 d5 bd
       0.008556965 0.071411505 -0.09599691 -0.104132034
0001d0 74 00 41 3e e1 2c f7 3d 1d c8 16 3a 3a cf 4f 3d
       0.18847829 0.12069107 0.0005751865 0.050734736
0001e0 9a 1c 23 be ce ea 73 be f4 45 8f be 13 4c fb 3d
       -0.1592888 -0.2382004 -0.27983057 0.122703694
0001f0 bf 0c f6 bd d2 2e f2 3d 8f dc 72 3d 10 02 f4 bd
       -0.1201415 0.118253365 0.059292372 -0.11914456
000200 03 31 c0 3c aa 93 11 bc 2c 7c 14 bb 9c 83 9b 3d
       0.02346087 -0.0088853035 -0.002265702 0.07593462
000210 4c 3a fe bc 81 25 a9 3d d4 7b 73 bd 94 5d 2a 3d
       -0.031033657 0.082591064 -0.059444264 0.04159315
000220 92 c7 89 3c be f8 82 3d b6 a5 24 ba ff df ae 3d
       0.016818795 0.063951 -0.00062807964 0.085388176
000230 ea 2c 67 bd 5f f8 06 bd 6a 9c 66 bd 77 88 88 bd
       -0.056439318 -0.03295171 -0.05630151 -0.066666536
000240 fd 53 10 3d dc ee f9 bc b7 49 5a bd 42 8d 87 bd
       0.035236347 -0.030509405 -0.053292956 -0.0661874
000250 7c 5e 2f 3d 84 ce 8b 3d 47 ab 45 3b 07 bf 01 bd
       0.042814717 0.06826499 0.0030161904 -0.03167632
000260 c9 a9 6d 3c fd 5e 2f 3d 6d 88 12 bd 28 08 f9 3b
       0.014505812 0.042815197 -0.035774637 0.0075998493
000270 45 87 31 3d d8 4d 71 bd 9c 1d 13 3d 17 ef 6d bd
       0.043341894 -0.05891213 0.03591691 -0.058089342
000280 26 f2 dd 3c 54 1a 40 3d fa ea 90 3d d6 5a b5 3c
       0.027093004 0.04690011 0.07076068 0.02213804
000290 6f a5 19 bd e0 10 d5 3b fb 38 62 bd 0c 98 3e bc
       -0.037511285 0.006502256 -0.055230122 -0.0116329305
0002a0 85 f4 91 bd 11 29 2a bd 9f 3f 97 3d d6 7a bd 3d
       -0.071267165 -0.04154307 0.07385182 0.09251945
0002b0 39 e9 38 bc e9 ce 89 bc 33 12 bc 3d 0c 72 8f 3d
       -0.011286073 -0.016822295 0.09183159 0.070041746
0002c0 4c c8 36 3d e2 e5 b4 bc 44 2f 95 bc 96 98 a6 bc
       0.04462461 -0.022082273 -0.018211015 -0.02033643
0002d0 9a 2a 96 bd 77 02 b7 ba 6f 09 bf bd c2 27 3f 3d
       -0.07332344 -0.0013962527 -0.09327971 0.046668775
0002e0 de 67 06 3d fa 7b 2d bd a9 23 9e 3c 9c 7b 88 bd
       0.0328139 -0.04235456 0.019304113 -0.066642016
0002f0 aa ed 8c bd 51 af 2c bc 07 d4 06 3d 37 54 34 bd
       -0.06881268 -0.010539846 0.03291705 -0.044025626
000300 50 5b 66 bd 68 d5 7b bc 9e 33 81 bd 52 33 b6 3c
       -0.056239426 -0.015370704 -0.06308673 0.022241268
000310 6b ad 85 bd d6 64 96 3d 2f 24 34 3d ec 24 81 bc
       -0.065272175 0.07343452 0.04397982 -0.015764676
000320 b0 4d 0c 3c 09 9f eb bc a1 37 e7 3d 4f 32 86 bd
       0.008563444 -0.028762357 0.11289907 -0.06552564
000330 e7 f2 b6 bd 2b b2 f7 bb 64 4b 8d 3d ea 36 a3 3d
       -0.08933049 -0.007559081 0.06899145 0.079694584
000340 5f 1d b9 3d fd 69 b2 bd 7d 02 0c bd 9b 46 a5 bc
       0.09038805 -0.08711622 -0.03418206 -0.020175269
000350 2d 10 5a 3d b3 ac 68 bd 70 f2 19 bd 60 7c 7a bd
       0.053238083 -0.056805324 -0.037584722 -0.06115377
000360 76 ef 84 bd e3 cb 12 3a 14 af eb bd de 07 8b 3c
       -0.06490986 0.00055998395 -0.11508003 0.016971525
000370 47 58 0f bd a3 3e f9 3c e2 d1 b3 bc fd 4b c2 bd
       -0.034996297 0.030425375 -0.021950666 -0.0948715
000380 e4 79 4d 3d 85 f7 2d bb 6a 59 5d bd c2 74 bd bd
       0.050165072 -0.0026545238 -0.05404035 -0.092507854
000390 a4 41 7c bd b5 f0 b4 3b 22 df 31 3d 70 f5 dc 3c
       -0.061586037 0.0055218586 0.043425687 0.026972502
0003a0 a0 66 61 3b 11 30 38 3d 22 54 1a bc 65 ad 86 3d
       0.0034393445 0.044967715 -0.009419473 0.06576041
0003b0 59 59 ca bb 97 18 18 bd 69 21 af bd 07 63 85 3d
       -0.006175202 -0.037132826 -0.08551294 0.065130286
0003c0 57 91 df 3b 1b 74 aa bd 6b 83 90 bc da ef a9 bd
       0.006822746 -0.083229266 -0.01764079 -0.08297701
0003d0 f6 e4 37 3c 60 e9 87 3d fa 11 af bb cc 2c 3d 3d
       0.011224022 0.066363096 -0.005342719 0.0461853
0003e0 b6 66 cb bd 6b 22 b5 bd fd f1 53 3d af a1 1d bd
       -0.099317 -0.08844455 0.05174445 -0.03848427
0003f0 0a 17 c2 bd 41 63 2c bd 43 2d 95 bd 89 e6 6f bd
       -0.094770506 -0.042086843 -0.072840236 -0.058569465

4.bias f4 [128]
000000 86 c2 65 bd b4 20 53 bd 89 d3 05 bd 90 3f a6 bc
       -0.056093715 -0.05154486 -0.03267244 -0.02029398
000010 b9 6c b9 bd 40 34 49 bd 67 ac 9e bd a6 07 af bc
       -0.0905394 -0.049122095 -0.07747727 -0.021365952
000020 58 f4 3d bd fc 31 66 bd 74 31 83 bd 18 be 76 bd
       -0.046375602 -0.056200013 -0.06405917 -0.06023988
000030 1f c7 90 ba b3 25 87 bd 1d 09 13 bd ee 16 79 bd
       -0.0011045671 -0.065989874 -0.035897363 -0.060812883
000040 44 01 c2 3c 07 0f c3 bd 23 41 b0 bd 8e ea 54 bc
       0.023682244 -0.095243506 -0.08606174 -0.012995375
000050 fd aa a2 bc a3 52 01 3c 65 75 aa bd 51 33 80 3d
       -0.019856924 0.007893237 -0.083231725 0.06259788
000060 ba b5 71 bd 28 02 49 bd c7 fc 1e bd 90 1d 3c bd
       -0.0590112 -0.049074322 -0.038815286 -0.04592663
000070 d0 2b c4 bc a4 f2 63 3d 08 f8 0c bd dc d7 50 bd
       -0.023946673 0.055651322 -0.03441623 -0.05098711
000080 68 50 07 3d e4 fd 87 3d 48 2d 3d bc 7b f9 ae bc
       0.033035666 0.06640223 -0.01154644 -0.021359196
000090 19 64 88 bd 8d 03 87 3c 93 d4 a9 3c 40 d7 3c 3d
       -0.06659717 0.016481185 0.020731246 0.046103716
0000a0 df be 50 bd c5 f0 28 bd 28 90 a0 3c c0 21 76 bb
       -0.05096328 -0.04124524 0.019599989 -0.0037556738
0000b0 14 4a 80 bd 6e d7 75 3c 32 28 ad 3d 23 70 96 bc
       -0.06264129 0.015004976 0.08454932 -0.018364018
0000c0 5c b0 27 bc 04 e6 f3 bb 80 17 66 3d 3b cd 4e bd
       -0.010234918 -0.0074431915 0.056174755 -0.05048869
0000d0 be 08 9d bd 27 36 83 bd ec f9 2d 3d ca ae 93 3d
       -0.07667683 -0.06406813 0.042474672 0.07211073
0000e0 60 d0 ad 3d d4 23 51 bd bf 8d 95 3d 5e 8c 26 bd
       0.0848701 -0.05105956 0.073024265 -0.04066121
0000f0 43 47 58 bd b8 b8 cb 3c 00 7c 98 bc bc 94 bb 3d
       -0.052802335 0.024868354 -0.018613815 0.09159228
000100 f1 6c 52 bd 28 f9 aa 3d b7 b4 5e bc a3 71 a8 bd
       -0.051373426 0.08348304 -0.01359289 -0.082247995
000110 c0 e2 1d bc 5e bd dc 3c 1b 4d 01 3d 64 9c 11 bb
       -0.009636581 0.026945766 0.031567674 -0.002221846
000120 79 a6 6a bd 41 51 7f bd 7e dc 7a 3d 53 e1 42 bc
       -0.057287667 -0.06233335 0.061245434 -0.011894542
000130 ee c6 ba 3c 0a a9 81 3d 9f 47 08 bb f1 94 55 3d
       0.022799935 0.0633107 -0.0020794643 0.052143995
000140 2d 78 21 bd 78 1a bf bd 40 e6 34 bd 8c 04 2c 3d
       -0.03942125 -0.093312204 -0.044164896 0.041996524
000150 7e 6b a9 3c b7 b4 d1 bc 8b 8a 7d 3c 05 16 86 3d
       0.02068114 -0.025598867 0.015474926 0.06547169
000160 77 87 8e 3d 3e c3 dd bb bc 80 d7 3c 0b 7b 1a 3d
       0.069594316 -0.0067676594 0.026306503 0.037715
000170 1e 0e 84 3d 8f 47 51 bd 60 f6 87 3d 45 cf 97 3d
       0.06448005 -0.051093634 0.06638789 0.074125804
000180 9a a4 4d 3d 27 45 de 3c 48 24 a7 bd 82 86 87 bc
       0.050205804 0.027132584 -0.08161217 -0.01654363
000190 7a 36 f9 bc 84 43 6d bd 1b c9 aa 3c db 24 74 bd
       -0.030421484 -0.057925716 0.020847848 -0.05960546
0001a0 2f 7c 90 3d c6 55 b9 3d 73 c7 45 3d d9 ff f7 bc
       0.07054936 0.09049563 0.048285913 -0.030273365
0001b0 30 e8 6d bb c1 1a 80 bc 4c 56 bb 3c 11 d7 e7 bc
       -0.0036301725 -0.015637757 0.022868298 -0.028300794
0001c0 a8 c3 24 3d 91 9d 2f bb 09 bf 44 bc ba 11 a4 bb
       0.040225655 -0.0026796798 -0.012008437 -0.005006996
0001d0 2d 99 8a 3c 5e 03 84 3d 55 07 cb bc 20 6a 3c bd
       0.016918743 0.06445955 -0.02478377 -0.045999646
0001e0 c6 32 8a bc 71 6f 9c 3d e3 12 b3 3c 34 81 aa 3d
       -0.016869914 0.07638443 0.021859592 0.08325425
0001f0 3e 72 89 bd a1 6c f2 bc 6f 8b c8 3c 41 bc ef bc
       -0.06711243 -0.029592814 0.02448055 -0.029264571

6.weight f4 [4, 128]
000000 fe a5 5e 3d 7c 2a 5c 3d fb ac 7c 3d 66 73 5c 3b
       0.05435752 0.053751454 0.061688405 0.0033638119
000010 cf 9d 9f bb c8 87 07 bd 9d 8c 2a 3d 5e 45 4a 3d
       -0.004871107 -0.033088475 0.041638006 0.04938256
000020 d0 9a 7e bc cc fd 6a bb 14 47 19 bd e6 96 09 3d
       -0.01553984 -0.003585684 -0.0374213 0.033591174
000030 67 4d b3 3d af 79 8e bc 05 7b f1 bb 77 ae 09 3d
       0.08754998 -0.017392008 -0.0073694014 0.03361365
000040 d9 85 61 bd 34 8e 5c bd ad 88 fc bb 2a b5 2b 3b
       -0.055059288 -0.053846553 -0.0077067227 0.0026200511
000050 94 1e 47 3a 52 7c 43 3d e9 ac 38 bd 4b 14 29 bd
       0.0007595804 0.047725983 -0.045086775 -0.04127912
000060 fd 2a 72 bd 86 cb 47 3d 3c 91 96 3d 11 49 4a 3d
       -0.059123028 0.04877808 0.0735192 0.049386088
000070 3b 14 9c 3d 76 b0 65 3d b3 47 1a bd 69 f6 4d bc
       0.07621046 0.05607649 -0.037666034 -0.012570956
000080 ec af 9a 3d 75 ce ab bd 9f 25 b0 bd 4b c4 bb bc
       0.07553086 -0.08388988 -0.08600926 -0.022920748
000090 52 cd 9a bd 3e 49 8f bc cd f0 90 3c b4 ad 44 3d
       -0.07558693 -0.01749098 0.017692948 0.04801722
0000a0 36 f9 97 3d 53 66 99 bd 5d f4 ec bc 4b 6d 50 3c
       0.0742058 -0.0749022 -0.028925115 0.01272137
0000b0 8a 33 e6 3c 59 23 16 bd 21 50 c3 bd f8 e4 61 bd
       0.028100748 -0.036654804 -0.09536768 -0.055150002
0000c0 58 00 3a bd b3 29 08 bc c2 c5 d8 3c 9b fb 18 bd
       -0.045410484 -0.008310723 0.026461486 -0.037349325
0000d0 3f ca 21 3d d2 dc a2 3d b6 d2 72 bd 90 33 ea bc
       0.039499518 0.079522744 -0.05928298 -0.02858904
0000e0 73 13 a7 3d 83 ea f7 3c 0e a3 35 3d 0c e1 c1 3d
       0.081580065 0.030263191 0.044344954 0.094667524
0000f0 15 9f 67 bc d3 ee 6b bd f5 3c cf 3b 09 a5 13 bd
       -0.014137049 -0.057600807 0.0063244053 -0.03604606
000100 28 f1 9d bd 02 3b 75 bd 0d 5e 0a bc 60 bc 6e 3d
       -0.077120125 -0.059870727 -0.008445275 0.058285117
000110 e1 66 a0 bd 5a 38 1f bd 0a 28 54 ba d0 8e f0 3c
       -0.078321226 -0.0388721 -0.00080931245 0.029364973
000120 e0 61 92 3d 3b e7 36 bd 54 a7 ff 3c c1 94 26 3d
       0.071475744 -0.044654112 0.031207718 0.040669207
000130 09 c0 68 3d c5 3a 8b bc 0e 27 b1 3d eb 29 87 bd
       0.056823764 -0.016995797 0.08650027 -0.06599792
000140 71 b7 8c bc 15 8b 94 3c 4b 9d e3 3c f4 d1 a2 3c
       -0.017177315 0.018132726 0.027784964 0.019875504
000150 3f ae a3 3c f3 ef 04 3b 6f 5a f6 3c 77 e3 92 bd
       0.019980548 0.0020284622 0.030072419 -0.07172292
000160 fb c4 a6 bd fb f8 62 3d 78 0d 32 bd fb 2b 6c bd
       -0.0814304 0.055413228 -0.043469876 -0.05765913
000170 4e 24 b2 3b 72 1c d1 bd ac b7 0e bd 6e f2 48 3d
       0.0054364568 -0.10210504 -0.034843132 0.049059324
000180 8c 42 d2 bd 6e 61 83 3d 81 f0 17 bd f8 9e ad 3d
       -0.10266599 0.064150676 -0.037094597 0.084775865
000190 53 3c fb bb 6c 5a b4 3b 06 4f 65 bd 38 8b da bc
       -0.0076671033 0.005503943 -0.055983566 -0.026677713
0001a0 c4 52 0f bd 73 3f 59 3d 82 a0 aa 3d f0 07 62 bd
       -0.03499104 0.053039026 0.08331396 -0.05518335
0001b0 ee a1 1c 3d 29 8e 8b bd f5 45 dd 3b c0 22 6b bc
       0.038240366 -0.06814224 0.0067527243 -0.014351547
0001c0 c5 14 25 3c 27 1b 33 3d 48 55 a2 bd 09 8e 7a bd
       0.010075753 0.043727066 -0.07926422 -0.06117061
0001d0 5e 16 ca bd 90 c0 87 3d 05 29 b7 3d 0c e9 8d bd
       -0.098675475 0.06628525 0.08943371 -0.06929216
0001e0 68 57 5f bd 26 a8 d7 bc dd f5 53 3d 37 e9 af 3c
       -0.054526716 -0.026325297 0.051748145 0.02147351
0001f0 ad 3e 85 ba 47 ff 09 bd c3 54 ca 3c 66 a2 70 bd
       -0.0010165774 -0.033690717 0.02469862 -0.058748625
000200 d5 ee 6b bd a0 bf 9b 3d 16 0b 55 bc e9 53 22 bd
       -0.057600815 0.07604909 -0.013003131 -0.039630804
000210 ea 9e 77 3c a7 3b af 3d e8 d1 4e 3d 80 96 c5 3c
       0.015113572 0.085563 0.05049315 0.024119616
000220 05 b4 35 bd 65 ae 17 3c 96 2a dc bc 62 a2 11 bd
       -0.044361133 0.0092578875 -0.026875775 -0.03555525
000230 ab d7 4b 3c fe 16 8b bc 0a b9 ad 3d 53 54 97 bd
       0.012441556 -0.016978737 0.08482559 -0.073891304
000240 75 d8 32 bd 6f 07 ab 3d ec bd 8c 3d 73 6c a4 3c
       -0.04366346 0.08351027 0.06872162 0.020071244
000250 12 ff ed 3c 8c f7 ae 3c ab 8c 4b 3c 89 95 67 3d
       0.029052291 0.021358274 0.012423675 0.056539092
000260 da 1c 97 bc 49 e2 31 3d 2b c9 87 3c ce f5 8e 3d
       -0.018446375 0.043428693 0.016575417 0.06980477
000270 8e de 41 3c ee 74 6f 3c ee 63 14 bd 40 17 0f bd
       0.011832846 0.014615281 -0.036228113 -0.034934282
000280 5c cb 3c 3d 94 67 47 bd 25 31 22 3d 56 0d 9d bd
       0.046092376 -0.048682764 0.03959765 -0.07668559
000290 73 c6 5f 3d a4 d1 a4 bd 0b eb b9 3c 5c 54 a4 3d
       0.054632615 -0.08047798 0.022695085 0.08023903
0002a0 ab c7 d2 3c 64 b3 36 bb 2c f3 94 3d f8 5f 93 bd
       0.025729975 -0.0027877921 0.07272944 -0.07196039
0002b0 00 88 86 bc cd 72 93 bd 5e c2 9a 3d 31 15 58 3d
       -0.016422272 -0.07199631 0.07556604 0.052754585
0002c0 77 13 ab bd 63 88 5e 3d 61 87 e7 3c 8d 5f 97 bd
       -0.08353322 0.054329287 0.028262796 -0.07391272
0002d0 8a 8f c9 3c 8f ff 38 bd fa 15 5f bd 51 1c 42 bd
       0.024604578 -0.045165595 -0.054464318 -0.047390286
0002e0 e8 c6 83 3d 42 7f 97 3d e3 c3 10 bd 94 4d 43 bd
       0.06434423 0.073973194 -0.035343062 -0.047681406
0002f0 7c 69 8f bd a5 ca c1 bc 2e bf 61 bd cb 1b a8 3c
       -0.070025414 -0.023656199 -0.055113964 0.020521065
000300 31 d0 54 bd 4e bf fe bc 5f ea 56 3d 9a 33 5f 3d
       -0.05195636 -0.03109708 0.052469607 0.05449257
000310 59 d3 5a bc ae 4d 7b 3c a3 8e 38 bd 9b 55 cb 3b
       -0.013356053 0.0153383445 -0.045057904 0.0062052733
000320 39 a4 9f bd b2 78 63 bd 4c 49 09 3d 82 31 d6 bc
       -0.07794995 -0.055535026 0.033517167 -0.026146654
000330 19 7b 5b 3d 2d 9f c6 bc 90 a4 40 3c 4a 70 ed bc
       0.053584192 -0.024245823 0.011757985 -0.028984208
000340 13 7f 52 bd 7e 12 0d 3d 8a 15 9d bd 63 83 00 3d
       -0.05139072 0.034441464 -0.07670124 0.0313753
000350 b6 6a 36 3d 04 93 38 3c 9d 8d a2 3c ba fe 1a bd
       0.04453536 0.01126552 0.019842917 -0.037840582
000360 5c 0d ca bc b4 7e df 3c 34 e2 8c bd 20 39 ee 3c
       -0.024664573 0.027282096 -0.06879082 0.029079974
000370 c7 53 03 3d ae 56 75 3d e9 49 cd bc ac 4a 60 bb
       0.03206232 0.059897117 -0.025059657 -0.0034224195
000380 a4 99 34 3d 5d a4 76 3b 30 f0 bc 3d 93 ff 4d 3c
       0.044091836 0.003763459 0.092255 0.012573141
000390 d1 e2 4a bd 71 27 3f b9 e1 6e 21 bd dc 56 8e bc
       -0.049532715 -0.00018229873 -0.039412383 -0.017375402
0003a0 bc 90 3c 3d 70 f4 a2 bd a3 b8 a8 3d d8 9c 8d 3b
       0.046036467 -0.07956779 0.08238342 0.0043216757
0003b0 83 2c 5e bd fe 32 54 bd d8 91 bd 3c c6 34 99 3d
       -0.05424167 -0.051806442 0.023140833 0.07480769
0003c0 98 d2 27 bd c9 5a d3 3c 82 e4 d2 3c 3e 67 46 bd
       -0.040972322 0.025800126 0.025743727 -0.048438303
0003d0 28 de 7e bb 2d 4e 9b bd 96 25 cb 3c 29 cd ac 3b
       -0.003888974 -0.0758327 0.024798196 0.0052734804
0003e0 7d fa a6 3d e0 c9 d6 3c 59 0f a4 bd ea 25 2b bd
       0.081532456 0.026219308 -0.0801074 -0.041784205
0003f0 da 6e af 3c cc b3 cf bc ef fe 14 bd a7 86 a6 bc
       0.021415163 -0.025354289 -0.036375936 -0.02032788

6.bias f4 [4]
000000 d2 e0 5d bc 9a 58 15 bd 9c 46 32 bc 8c 19 9b 3d
       -0.013542371 -0.03646145 -0.010881092 0.07573232
