demo/2Dball/modelF_2D.pt (torch, 138840 bytes, 8 tensors)

0.weight f4 [128, 2]
0.61944145 0.3216913 -0.5151469 -0.36074597 -0.28951716 -0.4541795 -0.4319504 0.04480671
-0.33460492 -0.5896533 0.59148353 0.678587 0.74532133 -0.16576324 -0.11900155 0.59250003
-0.0012437835 0.8397217 0.5121538 0.70367116 0.3275133 -0.07128813 0.68815315 -0.22001274
-0.101271205 -0.53420985 -0.13187471 0.048893426 -0.04070205 0.18482645 -0.12045295 -0.17046851
-0.60928524 -0.5969768 0.38255173 -0.20605241 0.15002368 -0.40228224 0.22153498 0.0076958337
-0.4715266 0.28265682 0.0753611 0.06831937 -0.30023485 0.44144008 0.34600002 0.51897013
-0.11497026 0.6513183 0.4214687 -0.55760306 0.1030511 0.6210172 0.44936433 0.6191362
-0.66923165 -0.075441495 -0.089938164 -0.16295585 -0.42956206 -0.1684041 0.12864056 0.34933293
-0.32723266 -0.38015035 0.13896282 -0.007770073 0.13868174 0.68095475 -0.672421 0.29953414
-0.6109733 0.5277237 -0.71913457 0.25859138 0.77038723 -0.27799612 -0.07184157 0.046767063
-0.054344647 0.021374775 -0.6118061 0.5904653 -0.08317842 -0.30133298 0.60120475 0.6971195
-0.048727576 0.35145813 -0.12648045 -0.2214866 -0.11019925 0.23267269 -0.5678394 -0.32584167
0.39828882 0.3316228 0.7298103 0.017616373 0.40311944 0.56050426 0.5874779 -0.09919055
-0.5906133 0.028127573 0.2536093 0.24434428 -0.63189304 -0.17980352 0.601663 -0.12741022
0.44956532 0.17059611 0.17647164 0.72527957 -0.42990485 -0.5401755 0.18947637 0.0674118
0.73011255 0.26930702 0.09690129 0.66563493 -0.13798618 -0.22379342 -0.48704234 0.67867327
0.5978198 0.3631341 0.08192441 0.5133327 -0.59024507 0.16925173 0.8447084 -0.5171231
-0.43611592 -0.35933563 0.16534631 0.5552834 0.4042484 -0.013497778 0.35078183 0.078161165
-0.56507635 0.2440478 -0.49464655 -0.20289744 -0.137515 -0.03687079 -0.53876007 0.09225873
-0.29488847 0.6866803 -0.670654 0.21530496 0.08711586 0.0036060181 -0.14015234 0.016165894
-0.5076962 0.64670354 0.70801026 -0.34274146 0.35027787 0.21851102 -0.3164443 -0.12952116
0.537161 0.17406501 -0.69744974 0.33319572 -0.2969167 -0.0607985 0.074829325 0.5582606
-0.109204456 0.30642238 0.6775121 0.34526756 0.5290329 0.16640343 0.40182894 -0.7471986
0.44036183 0.17912735 0.46248895 0.6980867 -0.6291632 0.518646 0.18643564 -0.23708263
0.44531327 -0.07299362 0.13926567 0.6956878 -0.07746713 -0.63170856 -0.20544988 -0.089828685
0.110950895 0.543711 0.60704505 -0.4843773 -0.43177497 0.03572949 0.024345065 -0.013145206
-0.12087564 -0.5159185 0.32900128 0.3782177 -0.28076842 0.34397087 -0.62262046 0.20087053
0.5192633 0.698704 0.5994935 -0.3706145 -0.060806796 -0.32416672 0.4094308 0.85664594
0.71955687 -0.08868468 -0.36403477 -0.21556664 0.5240547 -0.10715497 0.12095755 -0.63330936
0.6701089 -0.05810154 -0.018792126 0.6843682 -0.63082695 -0.63893163 -0.5836916 -0.045538563
0.781708 -0.119251095 0.65360546 0.059809998 -0.5312671 -0.3346502 0.6669577 0.32952073
-0.043793727 -0.48864123 0.09861237 -0.6503979 0.13614905 -0.031796746 -0.66817397 0.43521434
00000000: b793 1e3f b9b4 a43e abe0 03bf b2b3 b8be
00000010: 983b 94be 378a e8be 9a28 ddbe 3e87 373d
00000020: 5651 abbe 85f3 16bf 776b 173f e1b7 2d3f
00000030: 61cd 3e3f d7bd 29be 16b7 f3bd 15ae 173f
00000040: 7306 a3ba 00f8 563f 831c 033f cb23 343f
00000050: d3af a73e 83ff 91bd ce2a 303f 054b 61be
00000060: 4767 cfbd fac1 08bf 2a0a 07be 7944 483d
00000070: 31b7 26bd 2543 3d3e 09b0 f6bd 4c8f 2ebe
00000080: 1efa 1bbf 79d3 18bf d2dd c33e 67ff 52be
00000090: cf9f 193e f0f7 cdbe 11da 623e 552d fc3b
000000a0: ef6b f1be 65b8 903e ec56 9a3d 07eb 8b3d
000000b0: 62b8 99be 6f04 e23e ea26 b13e 3adb 043f
000000c0: 8775 ebbd ccbc 263f bfca d73e 13bf 0ebf
000000d0: 750c d33d fcfa 1e3f 1513 e63e b67f 1e3f
000000e0: c452 2bbf 1281 9abd 8031 b8bd e6dd 26be
000000f0: 8fef dbbe 2072 2cbe 5aba 033e c4db b23e
00000100: 0a8b a7be 11a3 c2be 454c 0e3e 199c febb
00000110: 9602 0e3e 0d53 2e3f c823 2cbf 8a5c 993e
00000120: bf68 1cbf e718 073f 3419 38bf 1766 843e
00000130: 1938 453f 8255 8ebe ac21 93bd d28e 3f3d
00000140: 7e98 5ebd 271a af3c 539f 1cbf bc28 173f
00000150: 7359 aabd 5148 9abe 8ee8 193f 6c76 323f
00000160: 9196 47bd 52f2 b33e 1784 01be 62cd 62be
00000170: 25b0 e1bd c041 6e3e ec5d 11bf b8d4 a6be
00000180: 83ec cb3e 77ca a93e d9d4 3a3f 3650 903c
00000190: ac65 ce3e 357d 0f3f f464 163f 6a24 cbbd
000001a0: 6f32 17bf cc6b e63c 14d9 813e 6335 7a3e
000001b0: bec3 21bf 6a1e 38be 9606 1a3f d377 02be
000001c0: 6d2d e63e bfb0 2e3e fbb4 343e ecab 393f
000001d0: 7d1c dcbe f148 0abf 1806 423e 330f 8a3d
000001e0: a8e8 3a3f 9ce2 893e 2f74 c63d 0d67 2a3f
000001f0: 404c 0dbe 1a2a 65be 9d5d f9be 88bd 2d3f
00000200: b80a 193f b6ec b93e fcc7 a73d c669 033f
00000210: 4d1a 17bf 5350 2d3e cf3e 583f 2e62 04bf
00000220: 964a dfbe d7fa b7be 8b50 293e 0e27 0e3f
00000230: a5f9 ce3e c925 5dbc ad99 b33e f612 a03d
00000240: d8a8 10bf abe7 793e 5042 fdbe 59c4 4fbe
00000250: bbd0 0cbe d305 17bd 2eec 09bf 25f2 bc3d
00000260: 9ffb 96be 48ca 2f3f fbaf 2bbf e778 5c3e
00000270: cd69 b23d f252 6c3b 1884 0fbe 566e 843c
00000280: 61f8 01bf 5d8e 253f 2940 353f cf7b afbe
00000290: 9f57 b33e 5ac1 5f3e fd04 a2be 32a1 04be
000002a0: 6283 093f 193e 323e 118c 32bf a198 aa3e
000002b0: 7705 98be d907 79bd 1e40 993d 2bea 0e3f
000002c0: 96a6 dfbd 65e3 9c3e 6f71 2d3f e9c6 b03e
000002d0: b36e 073f a965 2a3e 86bc cd3e 6848 3fbf
000002e0: 1b77 e13e 296d 373e 5acb ec3e cfb5 323f
000002f0: d710 21bf fcc5 043f fce8 3e3e cac5 72be
00000300: 1a00 e43e ae7d 95bd a99b 0e3e 9818 323f
00000310: 16a7 9ebd a7b7 21bf 7461 52be 1af8 b7bd
00000320: 393a e33d a530 0b3f 4e67 1b3f 4d00 f8be
00000330: 9c11 ddbe 1659 123d 4d6f c73c fd5e 57bc
00000340: a68d f7bd 3c13 04bf db72 a83e c0a5 c13e
00000350: e1c0 8fbe f31c b03e 0e64 1fbf 01b1 4d3e
00000360: 71ee 043f 44de 323f 6878 193f 2fc1 bdbe
00000370: 8c10 79bd 2ef9 a5be eaa0 d13e 264d 5b3f
00000380: e134 383f 50a0 b5bd c462 babe 80bd 5cbe
00000390: 7328 063f 1174 dbbd 98b8 f73d 9020 22bf
000003a0: 428c 2b3f e1fb 6dbd f2f1 99bc c132 2f3f
000003b0: e07d 21bf 0691 23bf d06c 15bf a586 3abd
000003c0: 041e 483f eb39 f4bd b052 273f 54fb 743d
000003d0: 1f01 08bf 4557 abbe bdbd 2a3f f1b6 a83e
000003e0: 0d61 33bd 2f2f fabe 48f5 c93d 7a80 26bf
000003f0: a86a 0b3e 4e3d 02bd 730d 2bbf 6ad4 de3e

0.bias f4 [128]
0.025281362 0.68966967 -0.56439716 0.590642 0.24408709 -0.7129491 -0.3472363 -0.5401943
0.279557 0.6794849 -0.21991187 -0.6965738 -0.48184064 0.13796514 0.17865163 -0.5607169
0.091018945 -0.48754558 0.59754485 0.31132397 0.5863041 -0.20860322 0.42762184 -0.09143011
-0.48589873 0.52490526 0.3457136 -0.58552855 0.78745264 -0.32294205 0.39732033 0.15853357
-0.100125484 0.55788624 -0.5841061 0.22295865 -0.25645882 0.5396917 -0.3141713 -0.6043258
0.5209201 -0.67547125 0.34159353 0.13817675 0.032322314 -0.17049949 -0.5663882 0.1676699
-0.0073755593 -0.52933866 0.51162946 -0.17440438 -0.6920124 -0.15727523 -0.5422408 -0.36082917
-0.21860059 0.7218149 0.08495493 0.6113154 0.028507603 0.113104485 -0.6457851 -0.26451668
0.2511952 -0.48910967 -0.3228252 -0.7278849 0.59357315 0.8539039 -0.27856728 -0.13025187
0.40470734 -0.4102504 -0.37432143 -0.018674659 -0.372609 -0.43460873 0.15612121 -0.4796723
-0.482052 -0.30741566 0.17629331 0.21657516 -0.3640261 0.3718447 0.49065983 -0.5735934
-0.6788951 -0.1944569 -0.45854342 -0.15877818 -0.3105724 0.32197365 0.26450688 -0.39117482
-0.5134257 0.48557043 -0.043865293 -0.82845336 0.48647133 -0.5442217 -0.17712227 0.2613488
-0.2815415 -0.25603712 0.5756162 0.01908225 0.0676862 0.23312926 -0.39849108 -0.25764334
-0.7742031 0.4621624 -0.50364715 0.6506493 -0.70292705 -0.4731051 -0.66773146 -0.37121686
0.3172546 -0.16632533 -0.46625417 -0.38534683 0.15629216 0.40146795 -0.68122584 -0.07429139
00000000: dc1a cf3c 318e 303f 557c 10bf 5034 173f
00000010: f7f1 793e d583 36bf f5c8 b1be 2c4a 0abf
00000020: 1822 8f3e b9f2 2d3f 9430 61be a952 32bf
00000030: d1b3 f6be bc46 0d3e 74f0 363e 258b 0fbf
00000040: 2468 ba3d 939f f9be b3f8 183f db65 9f3e
00000050: 0718 163f 159c 55be 40f1 da3e b63f bbbd
00000060: b8c7 f8be 3160 063f 5f01 b13e 33e5 15bf
00000070: 7f96 493f a958 a5be 926d cb3e a056 223e
00000080: 970e cdbd a2d1 0e3f fa87 15bf 464f 643e
00000090: 924e 83be 3c29 0a3f 10db a0be 18b5 1abf
000000a0: 055b 053f afeb 2cbf 59e5 ae3e 357e 0d3e
000000b0: 6764 043d 6b97 2ebe d1fe 10bf a9b1 2b3e
000000c0: adae f1bb bd82 07bf 26fa 023f 1097 32be
000000d0: ba27 31bf c20c 21be 4bd0 0abf 9abe b8be
000000e0: d5d8 5fbe dcc8 383f dafc ad3d 2b7f 1c3f
000000f0: c788 e93c 53a3 e73d 2c52 25bf bb6e 87be
00000100: a89c 803e 956c fabe 5849 a5be aa56 3abf
00000110: 69f4 173f 7299 5a3f 5fa0 8ebe bf60 05be
00000120: cd35 cf3e 570c d2be 0fa7 bfbe 99fb 98bc
00000130: 9bc6 bebe 0985 debe 3dde 1f3e 9c97 f5be
00000140: 85cf f6be 9665 9dbe 3c86 343e e1c5 5d3e
00000150: a161 babe 6e62 be3e c437 fb3e 04d7 12bf
00000160: 12cc 2dbf b61f 47be 34c6 eabe bf96 22be
00000170: 5803 9fbe bbd9 a43e 726d 873e 1148 c8be
00000180: de6f 03bf b09c f83e 18ac 33bd 8515 54bf
00000190: c512 f93e 1d52 0bbf 8a5f 35be 83cf 853e
000001a0: 3526 90be 4c17 83be 955b 133f 6152 9c3c
000001b0: 109f 8a3d 70b9 6e3e 0607 ccbe d4e9 83be
000001c0: 2d32 46bf 8da0 ec3e 05ef 00bf f490 263f
000001d0: 07f3 33bf d53a f2be 73f0 2abf 2310 bebe
000001e0: 326f a23e 3051 2abe deb8 eebe 2e4c c5be
000001f0: 0d0b 203e 358d cd3e d164 2ebf 1626 98bd

2.weight f4 [128, 128]
0.09516408 0.041447572 0.056855068 -0.0104800975 -0.035820644 0.05786943 0.07480403 0.10373041
0.008803567 0.014302653 -0.002993631 0.08184788 0.025117418 -0.061334647 0.0023633908 0.13113958
-0.025436305 0.031477876 -0.028535401 -0.07232522 -0.08525505 -0.009771183 -0.043204 -0.017861947
0.07724842 -0.028627105 -0.029807443 0.09244904 0.020382123 0.11983892 -0.09494827 -0.0019259197
-0.0881216 -0.073466524 -0.0716886 0.064038895 -0.06780834 -0.09954169 0.07410624 0.04464967
-0.07921837 0.05078608 0.015337281 0.072600186 0.10699364 -0.045330778 0.04861014 -0.022461765
-0.03231197 0.058382038 0.042216264 0.026636608 0.00446067 0.0074536633 0.029177489 0.059220754
-0.0047585433 -0.06515955 0.009381268 0.07136809 0.04602352 -0.010123276 0.059571616 0.068929315
-0.019388787 -0.06658157 -0.015588496 0.013509297 -0.09541576 -0.055664796 0.009143377 0.09361697
-0.0015416619 -0.04289688 -0.019359583 0.06396462 0.07684898 0.0055778576 -0.067774646 -0.032101635
0.013210025 0.039115522 -0.042296346 0.0772315 0.09058782 -0.020276189 0.0009893253 -0.024580063
0.18531048 -0.057251956 -0.010978325 -0.019030966 -0.0036691423 -0.004383074 -0.0642747 -0.041865405
0.016338153 -0.11015681 0.057017326 0.092711434 -0.15140091 -0.014883542 0.07396445 -0.08964395
-0.028185511 -0.059583995 0.048163947 0.02917853 -0.03559743 0.050342806 0.053683687 0.001472615
-0.024759892 -0.029548626 -0.009081878 -0.013502197 0.08003197 -0.06527146 -0.06787189 -0.08148591
0.058414508 0.019057201 -0.0034068169 -0.03466694 0.08957873 -0.03485458 0.03049993 0.04383042
0.07782477 -0.036797684 0.012275002 -0.0032460825 0.08443836 0.013036515 0.007234755 -0.07634322
0.06459175 -0.06428196 -0.07588533 0.060794447 -0.18337049 0.057414617 -0.0873641 -0.062067334
0.06922098 0.08732087 0.036402874 0.095058754 0.030019704 0.079111524 -0.066776045 -0.05398793
-0.10366703 -0.05678907 0.092859 -0.07448182 0.03842045 -0.05196187 0.0294572 0.02635232
0.06683956 0.100966394 -0.01565338 0.04067153 0.07976032 0.00081921235 -0.07978479 -0.17646551
0.05033394 0.026087722 0.016125228 0.0073695597 0.036504686 -0.072806895 -0.11527846 -0.0739318
-0.017113077 -0.047558375 0.061832093 0.017458044 0.045512725 -0.046265613 -0.011288739 -0.07052223
0.07942281 0.06547654 -0.005184782 -0.019707887 -0.085340105 0.1127901 -0.034194257 0.05780059
0.056095857 0.024816576 0.05272573 -0.012059201 0.08234496 0.08841643 0.03667225 0.06701369
0.027591888 -0.071862124 -0.017412702 -0.006304642 -0.086950034 0.067426585 0.008081501 -0.06253798
0.021603778 0.055441093 -0.07362458 -0.07478678 -0.0234882 -0.015255789 0.05902104 -0.00087805826
-0.15759833 -0.0779474 -0.003445358 -0.0799873 -0.059886817 0.025953498 0.08080066 0.002336255
-0.043067914 0.12704957 -0.091240734 0.027696522 0.09752534 -0.011183908 0.0068858587 0.08504319
0.008029832 -0.033333525 -0.066903636 0.077599406 -0.062019374 0.0079394085 -0.094357915 0.05661748
-0.005873907 0.087805144 0.06840083 0.118536904 0.04598784 -0.02553989 0.028619286 -0.006912292
-0.016907565 0.08636427 0.06317495 -0.025632154 0.027683785 0.061532862 -0.06038358 -0.026466351
00000000: 63e5 c23d eec4 293d dce0 683d b7b4 2bbc
00000010: abb8 12bd 7f08 6d3d db32 993d 9c70 d43d
00000020: d63c 103c ad55 6a3c cb30 44bb dc9f a73d
00000030: 0bc3 cd3c 0a3a 7bbd 1ee3 1a3b 7449 063e
00000040: cc5f d0bc f2ee 003d 13c3 e9bc 3f1f 94bd
00000050: 339a aebd 5017 20bc adf6 30bd 3853 92bc
00000060: 6b34 9e3d 6483 eabc bd2e f4bc ec55 bd3d
00000070: 69f8 a63c 1c6e f53d 3d74 c2bd 246f fcba
00000080: 1979 b4bd 9e75 96bd 79d1 92bd d326 833d
00000090: 19df 8abd 83dc cbbd 03c5 973d 93e2 363d
000000a0: 3e3d a2bd 1105 503d 3849 7b3c 68af 943d
000000b0: 7b1f db3d c4ac 39bd 6d1b 473d bc01 b8bc
000000c0: 8e59 04bd 0122 6f3d f6ea 2c3d 0435 da3c
000000d0: d02a 923b dc3d f43b a105 ef3c 7691 723d
000000e0: 8eed 9bbb 5f72 85bd e4b3 193c 6f29 923d
000000f0: 2983 3c3d 19dc 25bc 5e01 743d d02a 8d3d
00000100: 3cd5 9ebc eb5b 88bd e466 7fbc 1956 5d3c
00000110: 5769 c3bd c500 64bd 1ace 153c 41ba bf3d
00000120: 9711 caba a4b4 2fbd fd97 9ebc e2ff 823d
00000130: ff62 9d3d 76c6 b63b 6fcd 8abd 017d 03bd
00000140: dc6e 583c 9937 203d ef3e 2dbd 8c2b 9e3d
00000150: 1b86 b93d 401a a6bc 40ac 813a 215c c9bc
00000160: 08c2 3d3e 0781 6abd 6fde 33bc d4e6 9bbc
00000170: fe75 70bb e49f 8fbb 74a2 83bd 0f7b 2bbd
00000180: 97d7 853c e599 e1bd 008b 693d 7edf bd3d
00000190: d708 1bbe 1ada 73bc ac7a 973d 3f97 b7bd
000001a0: 4de5 e6bc 590e 74bd 8f47 453d d007 ef3c
000001b0: 9cce 11bd 4234 4e3d 6de3 5b3d c304 c13a
000001c0: 42d5 cabc f60f f2bc 28cc 14bc 5238 5dbc
000001d0: cde7 a33d 0bad 85bd 6b00 8bbd 16e2 a6bd
000001e0: 0d44 6f3d d91d 9c3c e744 5fbb ecfe 0dbd
000001f0: 0e75 b73d adc3 0ebd fdda f93c 8787 333d
00000200: 9862 9f3d 2bb9 16bd 171d 493c 3abc 54bb
00000210: 05ee ac3d 1b97 553c 8611 ed3b d659 9cbd
00000220: ae48 843d 43a6 83bd c569 9bbd 9903 793d
00000230: 79c5 3bbe 972b 6b3d f3eb b2bd 513a 7ebd
00000240: bbc3 8d3d 49d5 b23d 2e1b 153d 2aae c23d
00000250: e2eb f53c 3905 a23d e1c1 88bd 7322 5dbd
00000260: 614f d4bd a89b 68bd dc2c be3d ed89 98bd
00000270: c35e 1d3d f8d5 54bd 3a50 f13c d2e0 d73c
00000280: 2ee3 883d 78c7 ce3d 843b 80bc 3197 263d
00000290: 6159 a33d 69c0 563a 3566 a3bd 60b3 34be
000002a0: f62a 4e3d ebb5 d53c 0e19 843c 597c f13b
000002b0: f085 153d c81b 95bd 1d17 ecbd 8e69 97bd
000002c0: b930 8cbc 92cc 42bd a643 7d3d 2c04 8f3c
000002d0: 8d6b 3a3d 0381 3dbd 67f4 38bc f56d 90bd
000002e0: 6da8 a23d 9018 863d 1be5 a9bb 6f72 a1bc
000002f0: cbc6 aebd 7ffe e63d 470f 0cbd 50c0 6c3d
00000300: c5c4 653d 224c cb3c eff6 573d f493 45bc
00000310: 79a4 a83d ac13 b53d a435 163d 793e 893d
00000320: 6208 e23c 732c 93bd 15a5 8ebc 2c97 cebb
00000330: dc12 b2bd f316 8a3d 4668 043c ea13 80bd
00000340: 68fa b03c 3316 633d 7cc8 96bd d029 99bd
00000350: 536a c0bc 6bf3 79bc 0cc0 713d 7e2d 66ba
00000360: 7561 21be e3a2 9fbd 84cb 61bb 62d0 a3bd
00000370: e14b 75bd 6e9c d43c d17a a53d db1b 193b
00000380: fb67 30bd 4819 023e 6cdc babd d1e3 e23c
00000390: 5ebb c73d b63c 37bc c5a2 e13b 202b ae3d
000003a0: 8e8f 033c bc88 08bd c604 89bd 70ec 9e3d
000003b0: 0708 7ebd 4b14 023c b93e c1bd bbe7 673d
000003c0: e779 c0bb 2fd3 b33d bc15 8c3d 7ac3 f23d
000003d0: bf5d 3c3d 0839 d1bc fe72 ea3c 8280 e2bb
000003e0: bc81 8abc c0df b03d de61 813d 86fa d1bc
000003f0: 1bc9 e23c e209 7c3d c654 77bd f6cf d8bc

2.bias f4 [128]
0.04141064 -0.007079642 0.0068059796 0.033317417 -0.06331238 -0.06932268 0.01535982 -0.06554006
0.03418254 -0.0015849028 0.028635142 -0.024204781 0.054119278 -0.018145556 -0.05406775 0.011155729
0.051330503 0.021252912 -0.045623846 -0.012776099 -0.04323746 0.059071735 -0.038435962 0.08851677
0.08060016 0.009344628 0.073419854 0.008206234 0.0044871555 0.07169253 -0.050701275 -0.011705742
0.01884541 0.041904006 0.008526816 0.088881105 0.03395362 0.027433699 -0.017616013 -0.025239712
0.0712157 0.06667452 0.048507974 -0.036567185 -0.008641367 0.095586844 0.00684447 0.049085
-0.033887863 0.08701411 -0.010064724 0.058680076 -0.0019317534 0.025801418 0.00908062 -0.019483712
-0.002835666 0.06514603 -0.04527527 -0.024268158 -0.018107947 0.030735733 -0.034551345 0.08301275
0.0068728714 -0.057030257 -0.025991505 -0.06890017 -0.079256855 -0.0928428 -0.049593545 0.055680938
-0.031315785 -0.054885436 -0.020817146 -0.07072105 -0.027367517 0.033723637 0.05506217 0.02832929
0.04843293 -0.0037088804 0.014244175 -0.068581514 0.053841494 -0.036959603 0.07612401 0.044312894
0.026505765 0.07564899 0.038802482 -0.048168786 0.030136367 -0.0556544 0.01139399 -0.00943335
-0.0783855 0.006072111 0.09646423 0.033985607 0.022111539 0.008643866 0.07138042 -0.024710385
-0.09357852 -0.041681346 -0.08477973 -0.069340885 0.07283869 -0.014041459 -0.07189064 0.060427036
0.04705971 -0.05624438 -0.06708706 0.095427096 0.070243984 0.023839561 -0.07920837 -0.015519787
-0.077983566 0.08275809 -0.07119357 0.08863417 0.02320602 -0.012708964 -0.0125158215 0.044559646
00000000: 349e 293d 57fc e7bb b204 df3b d877 083d
00000010: eca9 81bd 0df9 8dbd c1a7 7b3c de39 86bd
00000020: fe02 0c3d 83bc cfba 3f94 ea3c 1b49 c6bc
00000030: 2dac 5d3d fda5 94bc 2576 5dbd 85c6 363c
00000040: ef3f 523d 961a ae3c 12e0 3abd d852 51bc
00000050: c319 31bd 34f5 713d 076f 1dbd 4848 b53d
00000060: b211 a53d 361a 193c 265d 963d 7173 063c
00000070: fd08 933b 88d3 923d 24ac 4fbd 71c9 3fbc
00000080: b061 9a3c 89a3 2b3d 0fb4 0b3c 4c07 b63d
00000090: f312 0b3d a3bc e03c 754f 90bc 83c3 cebc
000000a0: 89d9 913d a78c 883d 4cb0 463d 79c7 15bd
000000b0: 8594 0dbc 09c3 c33d 9347 e03b 5a0d 493d
000000c0: 00ce 0abd 7434 b23d 83e6 24bc 855a 703d
000000d0: e332 fdba 7f5d d33c e1c6 143c 4e9c 9fbc
000000e0: 95d6 39bb 486b 853d 9072 39bd 04ce c6bc
000000f0: 1e57 94bc 81c9 fb3c b685 0dbd 9702 aa3d
00000100: d335 e13b 8f98 69bd 23ec d4bc 881b 8dbd
00000110: 6b51 a2bd 5e24 bebd 9a22 4bbd b211 643d
00000120: fb44 00bd 8dcf 60bd b888 aabc 33d6 90bd
00000130: d831 e0bc cc21 0a3d df88 613d d412 e83c
00000140: 9c61 463d b010 73bb 6660 693c 7774 8cbd
00000150: e688 5c3d f462 17bd e8e6 9b3d 7081 353d
00000160: 9e22 d93c dced 9a3d 5aef 1e3d a24c 45bd
00000170: 8be0 f63c def5 63bd dcad 3a3c 568e 1abc
00000180: 9488 a0bd 8ff8 c63b 0a8f c53d 7e34 0b3d
00000190: 4223 b53c 009f 0d3c e62f 923d 6f6d cabc
000001a0: 18a6 bfbd 0fba 2abd ffa0 adbd 9802 8ebd
000001b0: 732c 953d 260e 66bc 663b 93bd 5782 773d
000001c0: afc1 403d 8260 66bd f164 89bd 486f c33d
000001d0: 14dc 8f3d 2f4b c33c ff37 a2bd b446 7ebc
000001e0: d9b5 9fbd 137d a93d efcd 91bd d585 b53d
000001f0: 8d1a be3c 4239 50bc 290f 4dbc 2d84 363d

4.weight f4 [128, 128]
-0.21319534 0.14107142 0.22892523 -0.03794621 -0.3132278 -0.043057468 0.0068466924 0.0088863075
-0.005098901 -0.035699207 0.31533352 0.21725565 0.15177244 0.282921 -0.11304353 -0.06926901
0.2130226 0.13401765 -0.14760287 -0.10597706 -0.071358584 0.25015795 -0.15312026 -0.09960077
0.059931714 -0.20383994 0.12155189 0.07232139 0.12025034 -0.03794957 -0.010912453 -0.12912261
-0.20206337 0.107368425 0.18537965 0.11654171 -0.10273037 -0.020446585 0.062418334 0.14129405
-0.17651671 0.14788193 -0.013162986 -0.23587392 -0.01338815 0.2023536 -0.0686502 -0.044461604
0.1184295 0.03947311 -0.087072425 0.04356275 0.011948691 0.055763822 -0.011075474 0.17558971
0.20613968 -0.0050254436 -0.15997931 0.17778903 -0.13870656 -0.06006419 -0.2322021 -0.12631114
0.07501803 -0.12698528 -0.32968938 0.18108977 -0.16022095 -0.15427575 -0.0063957493 0.08075018
-0.049041163 -0.06673345 0.02020411 -0.072116315 -0.1500579 -0.14298083 -0.19668208 0.17038386
0.12225682 -0.0021209407 0.096004635 0.135227 0.108495 0.27092123 0.18338554 -0.052921288
0.31045166 -0.00445118 0.0067839306 0.0050223637 -0.09092208 0.07736652 -0.14906377 0.002869065
0.12431583 0.21944782 0.08158603 0.09551891 0.14800826 0.13449802 -0.2211973 -0.01880914
-0.17505129 -0.016428554 -0.12410937 -0.03196138 -0.009871174 -0.22179574 0.0011354573 0.21694462
-0.22563453 0.27184555 0.05113831 0.11088877 -0.07091495 -0.03126961 -0.16692734 0.016899941
0.0025316377 0.2964618 0.0547093 0.07350822 -0.17120673 -0.017497392 0.16769472 0.10117078
-0.25704706 0.08913395 0.13747297 -0.025154212 -0.14578708 -0.085552365 0.015945688 -0.07866952
-0.023532867 0.0946979 0.33285797 0.13706955 0.08163974 0.22267465 -0.03455705 -0.024079142
0.18427505 0.15862532 -0.19867308 -0.053986687 -0.08448704 0.17837621 -0.24518114 -0.09498579
0.015673077 -0.28943175 0.22957931 0.056033507 -0.04215088 -0.041164104 -0.044746358 -0.25126812
-0.1348537 0.06435672 0.15830338 0.20184854 -0.044433627 0.10140333 0.018901417 0.03612071
-0.20000954 0.22617696 0.053078182 -0.1260196 -0.14536726 0.13106184 0.04179026 0.016159533
0.061571024 0.098183595 0.030520141 -0.024218056 -0.050346162 -0.06650613 -0.046062183 0.21789089
0.13211037 -0.025178261 -0.197276 0.12281557 0.013692923 0.013506419 -0.13255492 -0.057700012
0.12743418 -0.112161316 -0.2810758 0.16589071 -0.09694765 -0.13600385 -0.059548832 0.085428104
-0.06717525 -0.0016947958 0.06263917 0.04910585 -0.15950823 -0.08980753 -0.2143935 0.10289866
0.03166684 0.09219593 0.06683206 0.16137454 0.10664496 0.25082108 0.06327603 0.068265066
0.16798097 -0.0844597 0.034578267 0.020451399 -0.047679704 0.083336264 -0.1987253 -0.028727993
0.02803087 0.21815594 0.08977661 0.012279813 0.2562301 0.09146237 -0.13598573 0.011045176
-0.28159648 0.01728363 -0.016284818 -0.077320024 0.072176725 -0.22343361 -0.034819245 0.08264805
-0.21125302 0.22192675 -0.047057964 0.07451237 -0.0077127935 -0.08323939 -0.02485511 0.07842725
0.0022542041 0.26082298 -0.015300803 0.11799158 -0.2040566 -0.09986607 0.2724675 0.18654695
00000000: e14f 5abe 0775 103e 606b 6a3e 7c6d 1bbd
00000010: 655f a0be 075d 30bd 385a e03b e097 113c
00000020: af14 a7bb 5539 12bd 6573 a13e 4478 5e3e
00000030: 3c6a 1b3e 05db 903e 5e83 e7bd e9dc 8dbd
00000040: 9922 5a3e ec3b 093e 3525 17be 800a d9bd
00000050: 7324 92bd b414 803e 8fcb 1cbe 7dfb cbbd
00000060: f57a 753d 6bbb 50be 33f0 f83d 3d1d 943d
00000070: cf45 f63d 0271 1bbd 25ca 32bc b838 04be
00000080: b3e9 4ebe fae3 db3d 2ad4 3d3e 6cad ee3d
00000090: 4d64 d2bd 997f a7bc 5eaa 7f3d 63af 103e
000000a0: ccc0 34be 5c6e 173e 91a9 57bc ef88 71be
000000b0: f959 5bbc c835 4f3e 7a98 8cbd 5f1d 36bd
000000c0: 2a8b f23d 8eae 213d 0753 b2bd db6e 323d
000000d0: 71c4 433c 9b68 643d e875 35bc cacd 333e
000000e0: 4816 533e 7aac a4bb 9ed1 23be 540e 363e
000000f0: 1809 0ebe de05 76bd 63c6 6dbe b557 01be
00000100: 0ea3 993d 6e08 02be 0ccd a8be 996f 393e
00000110: f610 24be 76fa 1dbe 6f93 d1bb 5a60 a53d
00000120: 63df 48bd 8cab 88bd 1783 a53c b8b1 93bd
00000130: c7a8 19be 9169 12be 0767 49be 1b79 2e3e
00000140: c961 fa3d 7bff 0abb 149e c43d f278 0a3e
00000150: a032 de3d 30b6 8a3e 6bc9 3b3e fec3 58bd
00000160: 85f3 9e3e 34db 91bb bc4b de3b a492 a43b
00000170: 5b35 babd 5772 9e3d 2ca4 18be ec06 3c3b
00000180: 4c99 fe3d eeb6 603e 9416 a73d 6b9f c33d
00000190: 7a8f 173e d9b9 093e 8c81 62be a015 9abc
000001a0: a540 33be 2d95 86bc 0e2d febd f0e9 02bd
000001b0: b4ba 21bc 6c1e 63be a0d3 943a bb26 5e3e
000001c0: bd0c 67be 572f 8b3e 6876 513d a719 e33d
000001d0: db3b 91bd 9014 00bd 00ef 2abe bf71 8a3c
000001e0: d5e9 253b d7c9 973e dc16 603d 7a8b 963d
000001f0: d150 2fbe b156 8fbc 2ab8 2b3e a032 cf3d
00000200: ac9b 83be dc8b b63d b7c5 0c3e 3510 cebc
00000210: 3549 15be 1436 afbd 88a0 823c 7c1d a1bd
00000220: 00c8 c0bc f9f0 c13d 5c6c aa3e f65b 0c3e
00000230: bc32 a73d d304 643e b18b 0dbd 9f41 c5bc
00000240: 99b2 3c3e ad6e 223e f570 4bbe 2521 5dbd
00000250: 8b07 adbd 41a8 363e c410 7bbe e987 c2bd
00000260: d364 803c 6630 94be d716 6b3e 6483 653d
00000270: 67a6 2cbd b19b 28bd f547 37bd 37a6 80be
00000280: 1717 0abe 75cd 833d 481a 223e 62b1 4e3e
00000290: 0900 36bd 8dac cf3d 25d7 9a3c 4ff3 133d
000002a0: 4dcf 4cbe ef9a 673e 8268 593d 480b 01be
000002b0: 28db 14be 1335 063e 432c 2b3d ff60 843c
000002c0: e631 7c3d 7b14 c93d 6005 fa3c f264 c6bc
000002d0: c737 4ebd 5e34 88bd b3ab 3cbd ca1e 5f3e
000002e0: f147 073e a442 cebc b802 4abe bb86 fb3d
000002f0: 4858 603c 074a 5d3c 7abc 07be d956 6cbd
00000300: 1b7e 023e d5b4 e5bd 2be9 8fbe 41df 293e
00000310: 7d8c c6bd 9844 0bbe 7ae9 73bd eef4 ae3d
00000320: 2d93 89bd e923 deba f748 803d 3723 493d
00000330: 2056 23be 03ed b7bd f889 5bbe 88bc d23d
00000340: 17b5 013d 38d1 bc3d 3fdf 883d 5e3f 253e
00000350: ac68 da3d 9f6b 803e dd96 813d 8ece 8b3d
00000360: 3403 2c3e 35f9 acbd f1a1 0d3d b189 a73c
00000370: cb4b 43bd 34ac aa3d a57e 4bbe f856 ebbc
00000380: ffa0 e53c 4564 5f3e cddc b73d 4531 493c
00000390: 9730 833e 9f50 bb3d d83f 0bbe d3f6 343c
000003a0: 6a2d 90be 6696 8d3c bd67 85bc f659 9ebd
000003b0: 64d1 933d c8cb 64be a09e 0ebd 6143 a93d
000003c0: b652 58be c440 633e dabf 40bd f199 983d
000003d0: 9abb fcbb 6a79 aabd f29c cbbc 779e a03d
000003e0: 45bb 133b 978a 853e 38b0 7abc 92a5 f13d
000003f0: 37f4 50be 9586 ccbd dc80 8b3e 2a06 3f3e

4.bias f4 [128]
-0.045201942 0.034787573 0.07028663 -0.021273209 -0.057679113 0.044037767 0.053087585 -0.043896485
0.007264156 0.003120265 0.0020876797 0.06488834 -0.025990997 -0.022879964 0.03714742 0.03920817
0.06068307 -0.07760312 0.018228466 0.08810864 -0.029355798 0.06395277 -0.06989755 0.04061177
-0.028899077 -0.05809891 -0.04165716 -0.047109734 0.026200209 -0.094091155 0.06347474 -0.031358
0.004434125 0.036996096 -0.03400129 -0.041541845 -0.05100905 0.045814782 0.071533985 0.022616263
0.050049447 0.06408228 -0.020500911 0.05114115 -0.06257684 0.032352485 -0.046977468 -0.086379156
-0.032161362 -0.0027698628 -0.01668782 0.084693715 0.01815334 -0.03774389 0.013775242 0.038303293
-0.0783213 -0.044915203 -0.09037139 -0.055726063 0.018050898 0.008951079 0.032065053 0.054150477
-0.04038799 -0.009216396 -0.017329039 -0.0241518 0.043289356 0.01460261 -0.08420881 -0.06925576
0.011293161 -0.012664429 -0.006631175 0.026019273 0.085610345 0.077003956 -0.07275078 -0.08139904
-0.00432226 0.055073522 -0.07384308 0.08431627 0.0323388 -0.06863805 -0.020347174 0.06485726
0.08863971 -0.008121472 -0.04923088 -0.07261425 0.00042780564 -0.08581209 0.041188817 -0.002922859
-0.01389507 -0.012087852 0.016742252 0.022478104 0.002548888 0.07051319 -0.010766559 -0.03488757
0.034445304 -0.05444405 0.046020932 -0.07575102 -0.037913606 -0.055828158 -0.0025122184 0.011776069
0.053613655 0.054781962 0.05143626 0.012633134 0.01335823 0.051621493 -0.017465219 -0.07742005
-0.030738149 0.0019373791 -0.027182356 0.07400773 0.042036783 -0.0225068 0.07788929 -0.030947817
00000000: ac25 39bd 6a7d 0e3d 70f2 8f3d 2745 aebc
00000010: ef40 6cbd f260 343d 5e72 593d cdcc 33bd
00000020: 2808 ee3b 5c7d 4c3b 74d1 083b 2ee4 843d
00000030: 12eb d4bc c36e bbbc e527 183d bf98 203d
00000040: d08e 783d 62ee 9ebd dd53 953c 4d72 b43d
00000050: 927b f0bc abf9 823d 7226 8fbd 8758 263d
00000060: c2bd ecbc 1ff9 6dbd b3a0 2abd 23f6 40bd
00000070: d2a1 d63c ddb2 c0bd 0bff 813d 3f71 00bd
00000080: 234c 913b 3889 173d f044 0bbd c827 2abd
00000090: deee 50bd 48a8 3b3d 6980 923d be45 b93c
000000a0: a600 4d3d 923d 833d 87f1 a7bc 6279 513d
000000b0: 4928 80bd 0a84 043d 726b 40bd 8ee7 b0bd
000000c0: a2bb 03bd 9686 35bb e5b4 88bc e673 ad3d
000000d0: 50b6 943c 5699 1abd 8db1 613c eae3 1c3d
000000e0: eb66 a0bd 01f9 37bd a314 b9bd 0341 64bd
000000f0: 7adf 933c 8ca7 123c a556 033d e4cc 5d3d
00000100: e16d 25bd 5e00 17bc a1f5 8dbc ffd9 c5bc
00000110: 2e50 313d c93f 6f3c ab75 acbd f7d5 8dbd
00000120: f306 393c 777e 4fbc 544a d9bb 5f26 d53c
00000130: 7a54 af3d 40b4 9d3d 5cfe 94bd 8ab4 a6bd
00000140: bfa1 8dbb c694 613d 0a3b 97bd 02ae ac3d
00000150: b175 043d 1b92 8cbd 1eaf a6bc e2d3 843d
00000160: bc88 b53d ec0f 05bc 52a6 49bd c8b6 94bd
00000170: 1a4b e039 40be afbd 9bb5 283d 708d 3fbb
00000180: 26a8 63bc 200c 46bc 0c27 893c 0024 b83c
00000190: 3f0b 273b 3869 903d 3966 30bc 45e6 0ebd
000001a0: 8516 0d3d b900 5fbd 7280 3c3d 5a23 9bbd
000001b0: 4c4b 1bbd 11ac 64bd 08a4 24bb 6af0 403c
000001c0: fe99 5b3d 0d63 603d d4ae 523d 34fb 4e3c
000001d0: 7adc 5a3c 0f71 533d 3813 8fbc 678e 9ebd
000001e0: 92ce fbbc a8ef fd3a 88ad debc 5d91 973d
000001f0: c32e 2c3d 2e60 b8bc 6c84 9f3d 4786 fdbc

6.weight f4 [4, 128]
0.078826495 -0.011849327 0.025787782 0.023187753 0.052751 0.09055604 0.03494209 0.07183695
0.08103202 -0.04798764 0.00017940276 -0.07291413 0.06551099 -0.050649367 0.026821442 -0.05957237
0.03780092 0.044702955 0.016608767 -0.01065104 -0.04041852 -0.0029325122 0.011382652 -0.08670921
0.077850945 -0.051734693 -0.079217285 -0.05485035 -0.032626424 -0.07866827 -0.014329773 -0.067905165
0.07458206 0.02403442 0.021858336 0.077013925 0.053477813 0.02480367 -0.086150415 -0.039004624
-0.031199772 0.08553474 -0.057960324 0.010239528 -0.028432975 0.047413245 0.0556849 -0.06490584
0.099027805 0.026535781 0.017808806 0.099303134 -0.06994565 -0.01809215 0.003775109 -0.08245143
-0.052584227 -0.06447726 -0.023949897 0.103457555 -0.03976275 -0.070612304 0.050312452 0.03702871
-0.0821684 0.03673108 0.0654953 -0.05944014 0.008489328 0.029896801 0.062357474 0.03886244
-0.010313745 0.0923498 -0.0880245 -0.018951409 -0.013701306 0.09529623 0.033147033 0.01216679
0.09322768 -0.07585993 0.03441745 -0.08641983 0.010908071 -0.02184495 -0.046133816 -0.04011419
-0.027076324 -0.08275397 0.047410388 -0.052490056 0.031638548 -0.08069172 0.018287972 0.064042784
0.075672686 -0.045084875 -0.071586534 -0.012390812 0.05512695 -0.03242172 0.038769133 0.08869308
0.0142409345 0.048884526 0.02137949 0.06656854 -0.017049883 -0.054845743 -0.01862635 -0.0325083
-0.07744308 0.08440132 -0.06303135 0.008813388 0.0327238 0.027087916 0.024342453 0.031382784
0.027764015 0.07402023 0.07012591 0.06782404 -0.018835347 0.040987946 -0.068127476 0.0073055974
-0.0048721423 -0.0069794296 -0.07860095 -0.06645229 -0.068727225 0.004612127 0.03338759 -0.062492706
-0.07452389 -0.07130163 -0.083604366 0.05092025 -0.013798174 0.05772755 -0.08179663 0.022114197
-0.002135861 0.059746873 0.05781438 0.0042344597 -0.037837867 -0.0066072694 0.018353594 0.08611179
0.011774607 0.070287175 0.07338945 0.06783581 0.0054416256 -0.0034977964 0.03308386 0.028428953
0.012665114 -0.06540843 0.009746759 0.0649672 -0.022554945 -0.018393738 -0.019028792 0.012425135
-0.065876536 0.057505995 0.049183987 -0.07195972 -0.08042903 0.06859519 -0.086042784 0.07839231
-0.061187036 -0.012399905 -0.07790425 -0.031049984 0.038501475 -0.017578078 -0.023520874 0.016744632
0.007612267 0.044503734 0.043588456 0.0058806688 -0.080563754 -0.045793924 0.056836825 -0.0805362
-0.054009646 -0.0742833 -0.069101475 -0.026774205 -0.028738081 -0.056536604 -0.074884444 -0.049307752
0.052783187 0.046530563 -0.03377867 0.08067966 0.06933916 -0.07312083 0.041898012 -0.027025767
0.05581369 -0.054353572 0.049106423 -0.07095966 -0.052228093 -0.04944163 0.070562944 -0.081980355
0.07648056 0.022839459 0.015041328 -0.012702535 0.005935144 0.07759106 -0.011440902 0.06135557
0.029985389 0.023521867 -0.035755422 -0.060680203 0.010133513 -0.08855826 0.073193654 0.01796111
0.008096659 0.0016570627 -0.043420766 -0.0025543051 -0.05674569 -0.071612746 0.04791256 -0.061270237
-0.0049281283 -0.025833452 -0.031407855 -0.032488048 0.05684699 -0.019815395 0.030296814 -0.053070467
-0.009023528 -0.062126707 0.05690899 0.08103722 -0.06778498 -0.05577287 -0.06785769 0.007972986
00000000: c96f a13d ae23 42bc e640 d33c 3ef4 bd3c
00000010: 6f11 583d 7275 b93d 701f 0f3d 401f 933d
00000020: 1ef4 a53d b08e 44bd 101e 3c39 0154 95bd
00000030: a02a 863d b675 4fbd a4b8 db3c 2802 74bd
00000040: 23d5 1a3d 721a 373d 1c0f 883c b381 2ebc
00000050: e48d 25bd 642f 40bb 4e7e 3a3c 9994 b1bd
00000060: 5170 9f3d c2e7 53bd ac3c a2bd c3aa 60bd
00000070: 49a3 05bd d41c a1bd 6dc7 6abc dd11 8bbd
00000080: 7bbe 983d d5e3 c43c 4110 b33c 7ab9 9d3d
00000090: 8d0b 5b3d 1131 cb3c a16f b0bd 50c3 1fbd
000000a0: aa96 ffbc d62c af3d ce67 6dbd b1c3 273c
000000b0: 45ec e8bc 6434 423d da15 643d 5aed 84bd
000000c0: 17cf ca3d 9161 d93c c6e3 913c 715f cb3d
000000d0: aa3f 8fbd fd35 94bc d267 773b 4cdc a8bd
000000e0: 8f62 57bd a70c 84bd 9332 c4bc 8ee1 d33d
000000f0: 44de 22bd 2f9d 90bd 6e14 4e3d 6bab 173d
00000100: e847 a8bd 5473 163d 6622 863d 8177 73bd
00000110: d316 0b3c 23ea f43c 8d6a 7f3d 392e 1f3d
00000120: fbfa 28bc e421 bd3d 3046 b4bd fc3f 9bbc
00000130: 717b 60bc ab2a c33d 2fc5 073d 3757 473c
00000140: 27ee be3d 735c 9bbd 50f9 0c3d e1fc b0bd
00000150: c4b7 323c 2ef4 b2bc d0f6 3cbd c74e 24bd
00000160: 2bcf ddbc ea7a a9bd 6531 423d d0ff 56bd
00000170: 6c97 013d b341 a5bd a8d0 953c dd28 833d
00000180: 48fa 9a3d ebaa 38bd f69b 92bd d502 4bbc
00000190: cccc 613d a3cc 04bd 62cc 1e3d b8a4 b53d
000001a0: cf52 693c 243b 483d 0a24 af3c 1655 883d
000001b0: 32ac 8bbc eea5 60bd 4a96 98bc 6c27 05bd
000001c0: 7a9a 9ebd 99da ac3d 9516 81bd 0766 103c
000001d0: 6409 063d 7ae7 dd3c d369 c73c 3c8b 003d
000001e0: 5c71 e33c eb97 973d 2c9e 8f3d 55e7 8a3d
000001f0: 964c 9abc fae2 273d 6b86 8bbd cb63 ef3b
00000200: 7ea6 9fbb b3b3 e4bb 89f9 a0bd 2318 88bd
00000210: dcc0 8cbd 5321 973b 6dc1 083d 5af8 7fbd
00000220: fb9f 98bd 9706 92bd c438 abbd c191 503d
00000230: bd11 62bc b973 6c3d fe84 a7bd d528 b53c
00000240: cdf9 0bbb 23b9 743d c5ce 6c3d 39c1 8a3b
00000250: e1fb 1abd cb81 d8bb 475a 963c 615b b03d
00000260: 48ea 403c b9f2 8f3d 354d 963d 80ed 8a3d
00000270: aa4f b23b 493b 65bb f182 073d d6e3 e83c
00000280: 5781 4f3c dbf4 85bd dfb0 1f3c 860d 853d
00000290: 26c5 b8bc 77ae 96bc 45e2 9bbc cb92 4b3c
000002a0: 47ea 86bd 688b 6b3d 2675 493d 9e5f 93bd
000002b0: fab7 a4bd a37b 8c3d 3337 b0bd 268c a03d
000002c0: 429f 7abd f928 4bbc 438c 9fbd 895c febc
000002d0: b9b3 1d3d e7ff 8fbc d9ae c0bc 0a2c 893c
000002e0: 5370 f93b 8c49 363d cf89 323d a0b2 c03b
000002f0: 9cfe a4bd 6992 3bbd bbcd 683d 2af0 a4bd
00000300: 3839 5dbd d821 98bd 1385 8dbd 9455 dbbc
00000310: 206c ebbc ed92 67bd 045d 99bd edf6 49bd
00000320: 2f33 583d d596 3e3d 815b 0abd 613b a53d
00000330: b101 8e3d 60c0 95bd 409d 2b3d 2465 ddbc
00000340: e59c 643d daa1 5ebd d123 493d 4c53 91bd
00000350: 20ed 55bd 4e83 4abd 4e83 903d 51e5 a7bd
00000360: d7a1 9c3d d119 bb3c e76f 763c 4b1e 50bc
00000370: 997b c23b 10e8 9e3d 9f72 3bbc fa4f 7b3d
00000380: eba3 f53c eeb0 c03c 4774 12bd ce8b 78bd
00000390: 0907 263c 085e b5bd 8ee6 953d 2e23 933c
000003a0: d9a7 043c cc31 d93a f9d9 31bd 2166 27bb
000003b0: 2b6e 68bd b4a9 92bd f63f 443d 80f6 7abd
000003c0: 237c a1bb ada0 d3bc 86a5 00bd 3012 05bd
000003d0: 64d8 683d e553 a2bc 0631 f83c 6b60 59bd
000003e0: 6bd7 13bc 9378 7ebd 6719 693d d8f6 a53d
000003f0: dad2 8abd 1872 64bd f9f8 8abd 21a1 023c

6.bias f4 [4]
0.04153583 0.040087827 0.12202469 -0.08357169
00000000: 7921 2a3d 2233 243d 15e8 f93d a227 abbd
