demo/2Dball/modelF.pt (torch, 137925 bytes, 8 tensors)

0.weight f4 [128, 2]
0	0x3edb4f1e	0.428338
1	0xbf113b3b	-0.56731004
2	0x3de72b98	0.11287612
3	0x3ef549be	0.47907823
4	0xbf2ce015	-0.6752942
5	0x3e9e8702	0.30962378
6	0x3e3211ae	0.17389557
7	0xbd315b84	-0.043300167
8	0xbf1f828e	-0.62308586
9	0x3e805a05	0.2506868
10	0x3f18b370	0.596488
11	0xbee02ad3	-0.43782672
12	0x3d96437c	0.073370904
13	0x3f11183b	0.566776
14	0x3ec7686f	0.38946864
15	0xbf1ef145	-0.620869
16	0x3f3df73c	0.74205375
17	0xbd9813e2	-0.07425667
18	0xbefc1352	-0.4923349
19	0x3e970fd7	0.29504272
20	0xbdfd2d5f	-0.123621695
21	0xbed5de29	-0.41771057
22	0xbd577349	-0.05260018
23	0xbeccf493	-0.40030345
24	0xbdad65ca	-0.0846668
25	0xbdf70822	-0.12062098
26	0x3da0d973	0.07853975
27	0xbc592f0f	-0.013255849
28	0x3e7a37bd	0.24435325
29	0x3ef68447	0.48147795
30	0x3f040db8	0.51583433
31	0x3ebcbe34	0.36863863
32	0x3eb4a6aa	0.35283405
33	0x3e9bca97	0.30428
34	0x3f21e2b2	0.63236535
35	0xbf0e2ce8	-0.5553727
36	0xbde9f711	-0.11424077
37	0x3edfe6b5	0.43730703
38	0x3f5dbe0a	0.866181
39	0x3e529a21	0.20566608
40	0x3f459b3b	0.7718999
41	0x3e4f14a5	0.20222719
42	0xbeffbce3	-0.49948797
43	0xb93024c6	-0.00016798367
44	0xbf391263	-0.7229368
45	0xbe6b8dbf	-0.2300329
46	0x3f4780f8	0.77931166
47	0x3f692a4b	0.9108016
48	0x3d70288b	0.058632415
49	0xbf3e2843	-0.74280185
50	0xbd233a8f	-0.039850768
51	0x3ecbcd21	0.39804938
52	0xbf107fde	-0.5644511
53	0x3e111ede	0.14171931
54	0x3daba391	0.08380807
55	0x3e700a26	0.23441371
56	0x3ef5b69c	0.47990882
57	0xbe696441	-0.2279215
58	0x3f0e33df	0.555479
59	0x3e99b8be	0.3002376
60	0xbd4691e0	-0.04847896
61	0x3effb3ee	0.49941963
62	0xbed1e0e7	-0.409919
63	0x3f11717f	0.56813806
64	0x3dc82e01	0.097743995
65	0xbdf440ff	-0.119264595
66	0x3ddf5b91	0.10906137
67	0x3d115dee	0.03548997
68	0x3f4e7f2a	0.80662787
69	0xbd6e068d	-0.058111716
70	0x3d334fee	0.0437774
71	0xbefb1575	-0.49039808
72	0xbdbc71bd	-0.09201381
73	0x3cea0aff	0.028569696
74	0xbf067c24	-0.52533174
75	0x3f1c0bc9	0.6095548
76	0xbf60cfca	-0.8781706
77	0xbf6b9d09	-0.9203649
78	0xbd99f14c	-0.07516727
79	0xbeacd6ea	-0.33757716
80	0x3dd7adf4	0.10531226
81	0xbe8f96cd	-0.2804474
82	0x3ee0c24d	0.4389824
83	0xbde2b491	-0.110695966
84	0x3d0f159c	0.034932718
85	0x3ef872f7	0.4852521
86	0x3da310f3	0.07962217
87	0xbf1c3ac7	-0.6102719
88	0xbf162af3	-0.58659285
89	0x3f2e4d87	0.6808705
90	0x3dde1a39	0.10844845
91	0xbe5335bc	-0.20625967
92	0xbf339083	-0.7014238
93	0xbed3fb21	-0.41402534
94	0xbdc0a009	-0.09405524
95	0xbedf60c5	-0.43628517
96	0x3e09a7d1	0.13442923
97	0xbf1f1388	-0.6213918
98	0x3ec42f32	0.38317257
99	0xbdbbe6aa	-0.09174855
100	0xbe5e7805	-0.21725471
101	0x3e082d32	0.1329849
102	0x3d831400	0.06400299
103	0xbebf8eb4	-0.3741356
104	0xbf490ea2	-0.7853795
105	0x3e250bcb	0.1611778
106	0x3f1d6c3b	0.6149327
107	0x3f4d6309	0.8022924
108	0xbef03bf6	-0.46920747
109	0x3df1c465	0.118050374
110	0x3d76c29d	0.06024419
111	0x3e6ac22e	0.22925636
112	0x3e32200d	0.17395039
113	0xbed0f5ec	-0.40812624
114	0x3f1dbaf9	0.6161342
115	0xbed82d02	-0.42221838
116	0x3efc9e52	0.4933954
117	0x3dece1fb	0.1156654
118	0xbf23fee9	-0.6406084
119	0x3ed51892	0.41620308
120	0x3e080c2b	0.13285892
121	0xbf24bd50	-0.6435137
122	0xbdad5cf5	-0.08464996
123	0xbdf5aca8	-0.11995822
124	0xbf012d22	-0.5045949
125	0xbf2379f6	-0.6385797
126	0x3f39d1ae	0.7258557
127	0x3ed6b88a	0.41937667
128	0x3f5210f2	0.82057106
129	0xbf0441d5	-0.5166295
130	0x3f0bfb70	0.5468054
131	0x3ebf4b78	0.37362266
132	0x3bf22ef5	0.0073908516
133	0x3ee5bfc4	0.44872868
134	0xbdc6e28d	-0.0971118
135	0x3e85707d	0.26062384
136	0xbf70ccf8	-0.9406276
137	0xbf531bd5	-0.82464343
138	0xbf426772	-0.75939095
139	0xbf0ad7c7	-0.542355
140	0x3da4189b	0.080125056
141	0x3ef89f65	0.48559108
142	0xbd3913f6	-0.04518505
143	0xbda82062	-0.082093015
144	0x3d767840	0.060173273
145	0x3f0b56c6	0.5442928
146	0xbf36ef03	-0.7145845
147	0x3ed401ea	0.4140771
148	0xbf6bb036	-0.9206575
149	0x3ea47047	0.3211691
150	0x3f2a1817	0.6644301
151	0xbe8caf71	-0.274776
152	0xbf272a49	-0.652989
153	0x3da51d2b	0.08062204
154	0xbf372021	-0.715334
155	0x3ebeda42	0.37275892
156	0x3ef98bf8	0.487396
157	0x3f0896ac	0.5335491
158	0xbe04f121	-0.12982608
159	0xbf225d25	-0.6342338
160	0x3ee132c2	0.43984038
161	0x3e4f91be	0.2027044
162	0x3d90c9ba	0.07069726
163	0xbf19b86d	-0.60047036
164	0xbf2a0d30	-0.6642637
165	0xbf52eab1	-0.8238936
166	0x3dbb5c77	0.09148496
167	0xbe9fe80e	-0.3123173
168	0x3f384d29	0.7199274
169	0x3ef8eb62	0.48617083
170	0x3f1a9471	0.60382754
171	0x3f04a2d0	0.5181093
172	0xbdc9b4e5	-0.09848956
173	0x3e812fa6	0.25231665
174	0x3dc3c9fe	0.09560011
175	0xbf2998c3	-0.6624872
176	0xbf6b516a	-0.91921103
177	0xbeb68263	-0.35646352
178	0xbf5608bf	-0.83607095
179	0xbecb35dd	-0.39689532
180	0xbdaf6204	-0.08563617
181	0xbe8da686	-0.2766611
182	0xbce00153	-0.027344381
183	0xbf300aa3	-0.6876623
184	0x3f27f89b	0.65613717
185	0xbe8af1c3	-0.27137575
186	0x3f112c2a	0.56708014
187	0xbcbac8b6	-0.022800785
188	0x3ee14ff9	0.44006327
189	0x3ed90922	0.4238978
190	0xbf5c68ae	-0.8609723
191	0xbf403bf8	-0.75091505
192	0x3d91d0e7	0.07119923
193	0x3f234ced	0.63789254
194	0xbf4c1e1d	-0.7973345
195	0xbe1788af	-0.14798234
196	0xbeae0f59	-0.33996084
197	0xbe8150ce	-0.25256962
198	0x3df51d4c	0.119684786
199	0x3ecd30e8	0.40076375
200	0x3e0e43f2	0.13893107
201	0xbe6f5a25	-0.23374231
202	0x3ef10808	0.4707644
203	0xbeda0995	-0.42585436
204	0x3f33712c	0.7009456
205	0xbef87559	-0.4852703
206	0xbb98cec2	-0.0046633193
207	0x3f483dcc	0.78219295
208	0x3f0406e9	0.51573044
209	0xbe63a549	-0.2223102
210	0xbed0bf1a	-0.407708
211	0xbdc11898	-0.09428519
212	0x3f30fe07	0.69137615
213	0xbedc1635	-0.42985693
214	0x3d7862dc	0.060641155
215	0x3eb74cb7	0.35800716
216	0x3d63506e	0.055496626
217	0xbf04fe0a	-0.5195013
218	0x3d527c9a	0.05138836
219	0x3f191998	0.5980468
220	0xbf21850b	-0.6309363
221	0xbf3411ef	-0.70339864
222	0xbf577f51	-0.84178644
223	0xbeaacaf5	-0.3335797
224	0x3f6891a0	0.90847206
225	0x3eba15fe	0.36344904
226	0x3f0fcf1d	0.56175405
227	0x3f0e1e9c	0.55515456
228	0xbf50e741	-0.81602865
229	0xbf04f6ea	-0.5193926
230	0x3f50b12c	0.8152034
231	0xbe38e2cb	-0.18055265
232	0xbda9d1d3	-0.08291974
233	0x3ea3bc18	0.31979442
234	0x3f0aa309	0.5415502
235	0xbe682a94	-0.22672492
236	0x3d82d663	0.06388547
237	0xbc50f5f4	-0.012753952
238	0x3f2e48ad	0.68079644
239	0xbdbcb2e6	-0.0921381
240	0xbed65092	-0.41858345
241	0xbe897a6f	-0.26851222
242	0x3ed381ff	0.41310117
243	0xbf38841a	-0.7207657
244	0x3deaa306	0.114568755
245	0xbe40f8db	-0.18844931
246	0xbf21780b	-0.63073796
247	0xbec36dd6	-0.38169736
248	0xbf347eb0	-0.7050581
249	0x3e5a4b1c	0.21317714
250	0xbdbd68bb	-0.092484914
251	0x3e02be79	0.12767972
252	0xbe32783d	-0.1742868
253	0xbf05712f	-0.5212583
254	0xbf5b2882	-0.85608685
255	0x3ec490e4	0.38391793

0.bias f4 [128]
0	0x3eda0ecb	0.4258941
1	0x3e34b1fd	0.17646022
2	0x3efd6637	0.49492046
3	0xbf0afa9a	-0.5428864
4	0x3ec061c2	0.37574583
5	0xbf2042b4	-0.6260178
6	0x3ebfbdea	0.3744958
7	0xbe9b8200	-0.3037262
8	0x3da81a93	0.08208194
9	0xbe39d59c	-0.18147892
10	0xbebd6e86	-0.36998385
11	0x3ea4d732	0.3219543
12	0xbe7434da	-0.23848286
13	0x3e9a663e	0.3015613
14	0x3e83a338	0.25710464
15	0xbf4b0184	-0.7929919
16	0xbed4ac75	-0.41537824
17	0x3e1e93c3	0.15486054
18	0x3eee8feb	0.46594176
19	0xbf50f0ab	-0.8161723
20	0xbf68eac9	-0.90983254
21	0x3e34b080	0.17645454
22	0x3e7e81e2	0.24854234
23	0xbeffbb4d	-0.49947587
24	0xbe92997e	-0.2863273
25	0x3c9bce6b	0.019019326
26	0xbe3dfce9	-0.18553509
27	0xbe7b7987	-0.24558078
28	0xbcf1ee84	-0.029532678
29	0xbf1c0b16	-0.60954416
30	0x3dc7f36f	0.09763228
31	0xbe6babbf	-0.23014735
32	0x3e3418c4	0.17587572
33	0x3e5083c2	0.20362762
34	0xbf046b25	-0.5172599
35	0xbf226162	-0.63429844
36	0xbdd4d924	-0.10392979
37	0x3f3b9863	0.732794
38	0xbeb7d0c2	-0.35901457
39	0x3c790ab6	0.015200308
40	0x3e2e623e	0.17029664
41	0xbef331cc	-0.4749893
42	0xbeee94bc	-0.4659785
43	0x3dda1f1c	0.10650465
44	0x3e5d7a25	0.21628626
45	0xbdcd67e6	-0.10029583
46	0x3f03301f	0.512453
47	0x3d108c78	0.03529021
48	0x3ed2184c	0.41034162
49	0xbea79eff	-0.32738492
50	0x3f294b31	0.6613036
51	0x3d668b02	0.056284912
52	0xbe1fa550	-0.15590405
53	0x3ef594c1	0.47965053
54	0x3f03417e	0.5127181
55	0x3ec1b777	0.37835285
56	0x3f6d1658	0.9261222
57	0xbf4117a6	-0.7542671
58	0x3ecc23fc	0.39871204
59	0xbe84ae3f	-0.2591419
60	0x3ee16bd0	0.44027567
61	0x3deefdd0	0.11669505
62	0x3f559685	0.834328
63	0x3ecebae4	0.4037696
64	0xbf18f7d6	-0.5975317
65	0xbf02efa9	-0.5114694
66	0xbece46f0	-0.40288496
67	0xbe966ee0	-0.29381466
68	0xbe91dc13	-0.28488216
69	0x3f53a24a	0.8266951
70	0xbd30b9b3	-0.043145847
71	0x3ef07f3c	0.46972072
72	0xbd8898a6	-0.066697404
73	0x3edd6fa7	0.43249246
74	0xbef1fa19	-0.47261122
75	0xbf173759	-0.5906883
76	0xbe61f4bf	-0.2206602
77	0x3e7786fc	0.24172586
78	0xbf5e963a	-0.8694798
79	0xbf003dd2	-0.5009433
80	0xbf343fc6	-0.7040981
81	0xbeafc33c	-0.3432864
82	0x3ebc5f16	0.36791295
83	0x3f0f4d0c	0.5597694
84	0xbec491dd	-0.38392535
85	0xbe919188	-0.28431344
86	0xbf22eab8	-0.636394
87	0x3da4083e	0.080093846
88	0x3f09bd8c	0.5380485
89	0x3e09d78f	0.13461135
90	0x3c786ad0	0.015162185
91	0x3f023828	0.5086694
92	0x3eb43ed4	0.35204184
93	0x3ee6036b	0.44924483
94	0xbdf366b5	-0.11884824
95	0x3f052d2a	0.5202204
96	0x3ea035b9	0.31290987
97	0x3f164ce4	0.58711076
98	0x3eedbbbe	0.46432298
99	0x3f3ee037	0.74560875
100	0x3f5b0d2d	0.8556698
101	0x3ea9414d	0.33057633
102	0x3e90c1a2	0.2827273
103	0xbf0b9241	-0.5452004
104	0x3dec531e	0.11539291
105	0x3e5d83cd	0.2163231
106	0x3e4e6189	0.20154394
107	0xbf264662	-0.64951146
108	0xbea36d3d	-0.3191928
109	0xbdfa4995	-0.12221066
110	0xbea68627	-0.32524225
111	0x3ecbede1	0.39829925
112	0xbf413ef1	-0.75486666
113	0xbf3714d0	-0.7151613
114	0x3f5f3c9c	0.8720186
115	0xbf48723d	-0.78299314
116	0x3f035b5d	0.51311284
117	0xbf1f8e53	-0.62326545
118	0xbeaf18e9	-0.34198692
119	0x3ecb6dd4	0.3973223
120	0x3f582841	0.8443642
121	0xbd31bb96	-0.043391787
122	0x3f3f7234	0.74783635
123	0x3ebcddec	0.36888063
124	0xbee8b86f	-0.45453212
125	0xbea82fbb	-0.32848915
126	0xbf334cc4	-0.7003901
127	0xbe30e39f	-0.1727433

2.weight f4 [128, 128]
0	0x3c2d8d67	0.010592795
1	0xbd8ee43f	-0.06977128
2	0xbcfce0be	-0.030868884
3	0x3d2cd38e	0.04219394
4	0xbcfeef7d	-0.031120056
5	0x3d6f6a03	0.05845071
6	0x3e1487fc	0.14504999
7	0xbd69639c	-0.05697976
8	0xbdac24ae	-0.084054336
9	0x3dae97cb	0.08525046
10	0x3d741806	0.059593223
11	0xbbf2a4e1	-0.007404909
12	0x3cc01fec	0.023452722
13	0x3e013496	0.12617716
14	0xbdb1b2eb	-0.08676704
15	0x3d9c735a	0.07639189
16	0xbd90ba16	-0.07066743
17	0x3ca07fba	0.019592155
18	0x3d45b401	0.04826737
19	0x3d27bb60	0.04095018
20	0xbd6e6ff4	-0.058212236
21	0x3d8b594a	0.0680414
22	0xbd46c67c	-0.048529133
23	0xbdc30321	-0.09522081
24	0x3d780402	0.060550697
25	0xbdb95365	-0.09049109
26	0x3d14aea1	0.03629935
27	0x3ca5348a	0.020166654
28	0xbab7e605	-0.0014030343
29	0x3d099713	0.03359134
30	0xbcf585af	-0.029970972
31	0xbd5b49e1	-0.053537253
32	0x3dd0964c	0.10184917
33	0x3dbe0af7	0.09279435
34	0x3c237b16	0.009978076
35	0xbd7be078	-0.061493367
36	0xbc053d3b	-0.008132274
37	0xbd5d8c9e	-0.05408918
38	0xbc2af960	-0.010435432
39	0xbd6cce58	-0.057813972
40	0xbc424dc9	-0.011859366
41	0xbcbd1ee1	-0.023086013
42	0xbc8106da	-0.015750337
43	0x3d7377d1	0.059440438
44	0xbd75a4b0	-0.05997151
45	0x3d6ec146	0.05828979
46	0xbce30a20	-0.027714789
47	0xbdad9d8c	-0.08477315
48	0x3da0f5eb	0.07859405
49	0x3c59cf9c	0.013294127
50	0xbcebe270	-0.028794497
51	0xbccc760e	-0.024958637
52	0xbd3993c3	-0.045306932
53	0x3d264d9e	0.040601365
54	0xbc853402	-0.01626015
55	0x3d7bcac6	0.061472677
56	0xbc89e140	-0.01683104
57	0xbd24df6f	-0.040252145
58	0xbd650ae5	-0.055918593
59	0x3db06c86	0.08614449
60	0x3cce4d78	0.025183424
61	0x3c6af1fb	0.014339919
62	0xbd8e1353	-0.069372796
63	0xbd9e9d1e	-0.077448115
64	0x3d85cbd4	0.06533018
65	0xbdc4a014	-0.09600845
66	0xbd20720c	-0.039171264
67	0xbd80dc42	-0.06292011
68	0x3d2bb2ef	0.04191869
69	0x3dc9b768	0.09849435
70	0xbcb36bbe	-0.021901961
71	0x3cc55398	0.024087712
72	0x3dd25ef4	0.10272017
73	0xbc58862d	-0.013215584
74	0x3d8c8684	0.06861594
75	0xbcb89cb0	-0.022535652
76	0x3cb0ca92	0.021580968
77	0x3afdca22	0.0019362608
78	0xbcd38362	-0.025819484
79	0xbcc1f597	-0.023676677
80	0xbd90d4da	-0.07071848
81	0x3ce94e0d	0.0284796
82	0xbc9cd2da	-0.01914351
83	0x3e786577	0.24257456
84	0xbcfb6c36	-0.030691247
85	0xbdab7d9f	-0.0837357
86	0xbe820217	-0.2539222
87	0xbcb058b4	-0.021526672
88	0xbd1bb60e	-0.038015418
89	0x3da656a7	0.081219964
90	0x3c58270a	0.013192901
91	0xbd492dc4	-0.04911591
92	0xbd85874e	-0.06519948
93	0xbdb0e3b2	-0.086371794
94	0xbd485bc5	-0.048915643
95	0x3d479c48	0.048733026
96	0x3d7459f4	0.0596561
97	0xbc6965f9	-0.014245504
98	0x3da04123	0.07824924
99	0x3d1bb4d3	0.038014244
100	0xbc9ec33f	-0.01938021
101	0x3bf12860	0.0073595494
102	0x3d97287d	0.073807694
103	0xbc56c5b8	-0.013108663
104	0x3d8a0a4f	0.067402475
105	0x3cb6056a	0.022219379
106	0xbd4bc006	-0.049743675
107	0xbd81c42f	-0.06336247
108	0xbd908470	-0.070565104
109	0x3dd25b9f	0.102713816
110	0x3b5893e7	0.003304714
111	0xbd282559	-0.041051243
112	0x3c471590	0.012151137
113	0xbd97ca0b	-0.074115835
114	0xbd4dc356	-0.050235115
115	0x3d36a416	0.04459008
116	0x3b4a3e27	0.00308598
117	0xbcc97432	-0.024591539
118	0xbc999b75	-0.018750886
119	0xbd01c3a0	-0.031680703
120	0xbd18b6a7	-0.037283566
121	0x3d3d474b	0.04621057
122	0x3e57efd7	0.21087585
123	0x3d1c6f3c	0.03819202
124	0xbcc789c7	-0.02435769
125	0xbd50f73a	-0.051017024
126	0xbd916652	-0.07099594
127	0x3d8c256b	0.068430744
128	0xbd6dcf1d	-0.058058847
129	0xbcb09cbe	-0.021559115
130	0x3d6cf592	0.05785138
131	0xbd9ac74a	-0.075575426
132	0xbcca7a43	-0.024716502
133	0x3c88940b	0.016672155
134	0x3e00945d	0.12556596
135	0x3cffc5ca	0.031222243
136	0xbdab2774	-0.083571345
137	0x3b990d9a	0.004670811
138	0x3c467924	0.012113843
139	0xbdbfb2cb	-0.09360274
140	0xbd98a54c	-0.07453403
141	0x3e29d043	0.16583352
142	0x3d654871	0.05597729
143	0x3c22a62c	0.009927314
144	0xbdb8f19e	-0.0903046
145	0xba921a99	-0.0011146843
146	0xbcf210cd	-0.029549027
147	0xbd594b72	-0.053050466
148	0x3cb9e1a0	0.022690594
149	0x3d4f2755	0.05057462
150	0x3a8290e9	0.00099614
151	0xbd357fe3	-0.044311415
152	0x3d955e9e	0.072934374
153	0x3d4145aa	0.047185577
154	0xbca41418	-0.020029113
155	0xbd4e73d0	-0.050403416
156	0x3d6f7c0a	0.058467902
157	0xbb880e74	-0.0041521136
158	0xbdd8aa5e	-0.1057937
159	0x3d326f60	0.043563247
160	0xbd31c340	-0.043399096
161	0xbcdc5115	-0.026894132
162	0x3c042510	0.008065477
163	0x3cea2252	0.028580818
164	0xbdc094a2	-0.094033495
165	0xbd132bc1	-0.0359304
166	0x3d07241a	0.032993414
167	0x3d885f7d	0.06658838
168	0x3d86815a	0.065676406
169	0xbd817b89	-0.063223906
170	0xbce3cf3c	-0.027808778
171	0x3de85c5d	0.11345742
172	0xbd0c1757	-0.034201946
173	0xbd3514ea	-0.0442094
174	0xbd9076bf	-0.07053899
175	0x3d3b7052	0.045761414
176	0x3d478d14	0.048718527
177	0xbd5d6468	-0.054050833
178	0xbc90db6c	-0.017682754
179	0x3dce4e0d	0.10073481
180	0x3d81c942	0.06337215
181	0xbcb7e1d8	-0.022446558
182	0xbd5e05fc	-0.054204926
183	0x3d820739	0.06349034
184	0x3a55f042	0.00081611064
185	0x3c86f834	0.016475774
186	0xbd516d0a	-0.05112938
187	0xbd088280	-0.03332758
188	0x3dcb1ac9	0.09917218
189	0x3b91451e	0.0044332882
190	0x3d74c49d	0.059757818
191	0x3d57182b	0.052513283
192	0xbd443d6e	-0.047910146
193	0xbdbd4245	-0.092411555
194	0xbd987521	-0.074442156
195	0xbd77399f	-0.060357686
196	0xbd974d5f	-0.07387804
197	0x3db335ee	0.08750521
198	0xbd946277	-0.07245343
199	0x3d97b5c3	0.07407715
200	0x3b87c9d7	0.004143934
201	0xbb0729d1	-0.002062429
202	0xbd4557cf	-0.048179444
203	0xbb06f2ac	-0.002059142
204	0xbc2e1d9c	-0.010627177
205	0xbd856ccf	-0.06514894
206	0x3cd7d745	0.026347766
207	0x3d719a60	0.058985114
208	0xbd544294	-0.051821306
209	0x3d994b3f	0.07485055
210	0xbd5f5655	-0.054525692
211	0x3e208710	0.15676522
212	0x3d1d629d	0.038424123
213	0x3d0b73c9	0.03404597
214	0xbe8c6ef3	-0.27428398
215	0xbcd9e88b	-0.026600143
216	0x3d6fcdf0	0.058546007
217	0xbd66a581	-0.05631018
218	0x3d63f9d0	0.05565816
219	0x3cd96b8a	0.026540536
220	0xbc938d0a	-0.018011589
221	0x3c10c0a8	0.008834995
222	0x3da083ad	0.07837615
223	0x3da411ac	0.08011183
224	0xbcc2d631	-0.023783775
225	0xbd20ded8	-0.03927502
226	0x3d2b42ab	0.041811626
227	0x3ce8ba7c	0.028409235
228	0x3debeaed	0.11519418
229	0x3bb0b00e	0.005392081
230	0xbd1f5068	-0.03889504
231	0xbdb6c809	-0.089248724
232	0x3d53d1ce	0.051713757
233	0x3ceb606b	0.0287325
234	0xbd6796b1	-0.056540195
235	0xbd2f721e	-0.04283344
236	0x3d153e32	0.036436267
237	0xbd4024a5	-0.046909947
238	0x3d913a79	0.07091231
239	0x3da8fd35	0.082514204
240	0x3d4c028a	0.04980711
241	0xbc9c5af5	-0.01908634
242	0xbd8d06a7	-0.068860345
243	0xbd80b1eb	-0.06283935
244	0xbd018cd3	-0.03162844
245	0x3d2841b4	0.041078284
246	0x3d45e0c6	0.048310064
247	0xbdc67759	-0.096907325
248	0xbbd7524d	-0.0065710903
249	0xbb84262f	-0.004032872
250	0x3de334f1	0.11094082
251	0xbd95fa65	-0.073231496
252	0x3b1e16aa	0.0024122396
253	0xbd7e6871	-0.06211132
254	0x3d8de9ad	0.06929336
255	0x3d123783	0.03569747

2.bias f4 [128]
0	0xbd31b01f	-0.043380853
1	0xbd310b25	-0.04322352
2	0x3d9a4d50	0.075342774
3	0x3d3d484c	0.046211526
4	0x3bce7e77	0.006301697
5	0x3c55eb18	0.013056539
6	0xbb530d21	-0.003220387
7	0xbdae5eda	-0.08514185
8	0xbd4a5454	-0.049396828
9	0xbc291cd9	-0.010321819
10	0xbca5a6ce	-0.02022114
11	0xbcd46838	-0.025928602
12	0x3d9b7c7f	0.07592105
13	0x3d4c9a2a	0.04995171
14	0xbda43181	-0.080172546
15	0x3d2eff65	0.042724032
16	0xbdcb862a	-0.09937699
17	0x3cb3d5fc	0.021952622
18	0xbcdb97b2	-0.026805732
19	0xbd6c10d5	-0.05763324
20	0xbd41c9af	-0.04731148
21	0x3d70e406	0.05881121
22	0x3dc94a32	0.09828605
23	0xbc9a0b02	-0.018804077
24	0xbd03063e	-0.031988375
25	0x3c8b4f05	0.017005453
26	0x3d6dfc28	0.058101803
27	0x3d6ccc8d	0.057812262
28	0xbce97213	-0.028496778
29	0xbc780d61	-0.0151399085
30	0xbd413635	-0.047170836
31	0x3c8c76e8	0.017146543
32	0xbd0797e9	-0.033103857
33	0xbd34870d	-0.044074107
34	0xbd8e5552	-0.06949867
35	0x3d4c67b5	0.04990359
36	0xbbf4b2de	-0.0074676117
37	0xbd25bb39	-0.040461753
38	0xbd6386d8	-0.05554852
39	0x3dbb946b	0.09159168
40	0xbd24fa3a	-0.040277697
41	0x3d28a2fd	0.041171063
42	0x3ce9504d	0.028480673
43	0x3cd45e77	0.02592395
44	0xbd2cad70	-0.04215759
45	0xbb229e69	-0.0024813658
46	0xbcab0192	-0.020874772
47	0x3d544cc8	0.051831037
48	0xbd084d6a	-0.033276953
49	0x3bddee3a	0.0067727836
50	0xbcc1e710	-0.02366975
51	0xbd7b38ea	-0.061333574
52	0x3d48e0a3	0.049042355
53	0x3da01a54	0.07817522
54	0x3d96740e	0.073463544
55	0x3c56fec9	0.013122269
56	0xbc9f7a56	-0.019467514
57	0x3d563cf0	0.05230421
58	0x3cf9a2b9	0.0304731
59	0x3d7c16e3	0.061545264
60	0x3af19327	0.0018430696
61	0x3d9d92b7	0.07693999
62	0xbbd2d930	-0.006434582
63	0xbca5d642	-0.020243768
64	0xbd8d4d6c	-0.06899533
65	0xbd066276	-0.032808743
66	0xbd7c5527	-0.061604645
67	0xbd54df36	-0.051970683
68	0xbc438f8e	-0.011936082
69	0xbcff29c4	-0.031147845
70	0xbcc0b3e0	-0.023523271
71	0x3d06c91e	0.032906644
72	0x3d846c36	0.06465952
73	0xbb698238	-0.0035630595
74	0x3c695630	0.01424174
75	0x3da53147	0.080660395
76	0x3d672bb9	0.05643818
77	0xba694242	-0.0008898118
78	0xbd8afe89	-0.0678683
79	0xbda85ba9	-0.08220608
80	0x3cf835e1	0.030299129
81	0xbda8ba33	-0.0823864
82	0x3d0e19a6	0.03469243
83	0xbcc8d405	-0.024515161
84	0x3cb78439	0.022401916
85	0xbd358ae4	-0.04432191
86	0xbb26772b	-0.002540062
87	0xbdae2012	-0.08502211
88	0x3d7f28d1	0.062294785
89	0x3d81feec	0.063474506
90	0x3c99d9f0	0.018780679
91	0x3d8ec7b2	0.069716826
92	0x3d5d7b6f	0.054072794
93	0xbd56a7b8	-0.052406043
94	0x3db963e4	0.09052256
95	0xbcce6a10	-0.025197059
96	0xbdaeb1b7	-0.0852999
97	0x3d4c360e	0.049856238
98	0xbdbf3de3	-0.09337976
99	0x3cd427c1	0.025897862
100	0xbd7b2a53	-0.06131966
101	0xbd890808	-0.06690985
102	0xbc13a163	-0.009010646
103	0x3c1e9f75	0.009681572
104	0x3d9ee09e	0.07757686
105	0xbcf6b3ed	-0.030115092
106	0x3d9e8a71	0.07741249
107	0x3ba55566	0.0050455807
108	0xbd985d8a	-0.07439716
109	0xbcd14227	-0.02554424
110	0x3d7dcc62	0.061962493
111	0x3d4af377	0.049548592
112	0xbd9e3e46	-0.077267215
113	0x3d8d342f	0.06894719
114	0x3dac497c	0.084124535
115	0x3b88be7b	0.0041730977
116	0xbb02e62c	-0.001997362
117	0x3d291e81	0.041288856
118	0xbd708d22	-0.058728345
119	0x3dde2f7f	0.10848903
120	0xbadeeb66	-0.001700741
121	0x3ba197f1	0.004931443
122	0xbd7acd11	-0.061230723
123	0xbd84c097	-0.06482046
124	0xbd8f20b1	-0.06988657
125	0x3d904673	0.07044687
126	0x3ca13914	0.019680537
127	0xbb936331	-0.0044979085

4.weight f4 [128, 128]
0	0x3eabe51d	0.33573237
1	0x3d010aa4	0.03150429
2	0x3ede9305	0.43471542
3	0xbe853686	-0.2601816
4	0x3e9fecc1	0.31235316
5	0x3dfdbaec	0.12389168
6	0xbe5a148b	-0.21296899
7	0xbe0c6d73	-0.13713627
8	0xbd720869	-0.05909005
9	0x3e52197a	0.20517531
10	0xbebe399a	-0.37153322
11	0xbc768246	-0.015045708
12	0xbcdb5361	-0.026773157
13	0xbe964aba	-0.29353887
14	0xbde6d080	-0.11270237
15	0xbe4cae2c	-0.19988316
16	0xbe2316bc	-0.15926641
17	0x3c8c04e7	0.017092181
18	0xbef2c60b	-0.4741672
19	0x3e939624	0.28825486
20	0x3df5f920	0.120104074
21	0xbde5bffc	-0.11218259
22	0x3da16060	0.0787971
23	0x3ef304e8	0.4746468
24	0xbe29a78b	-0.16567819
25	0xbd333d3f	-0.04375958
26	0x3e989b12	0.2980581
27	0xbe3588b8	-0.17727935
28	0xbcb6c609	-0.022311227
29	0x3e1859c5	0.14877994
30	0xbeb28311	-0.3486562
31	0x3e3a8a10	0.18216729
32	0xbe51de68	-0.20494998
33	0x3e4b5ca1	0.19859554
34	0xbeaf07c8	-0.34185624
35	0x3c1e5fbb	0.009666379
36	0x3ec32778	0.3811605
37	0x3ec3f9c1	0.38276485
38	0xbe383e0c	-0.17992419
39	0x3da3baf9	0.079946466
40	0xbd416490	-0.047215044
41	0x3ec4a02f	0.3840346
42	0x3eacf4bd	0.3378047
43	0xbdc9aa1b	-0.09846898
44	0xbdef7a38	-0.11693233
45	0x3b4124b1	0.0029471333
46	0x3e4417ec	0.1914975
47	0x3dbe6970	0.09297454
48	0xbd42f383	-0.047595512
49	0xbe0d7614	-0.13814574
50	0x3e89a617	0.2688453
51	0xbe71f26f	-0.23627637
52	0x3dc40cd9	0.09572763
53	0xbd327a03	-0.04357339
54	0xbbac08b7	-0.0052500623
55	0x3e821d93	0.25413188
56	0x3f1578d4	0.58387494
57	0xbbe935f1	-0.007117026
58	0xbe67c9c9	-0.22635569
59	0xbdfb95e3	-0.12284448
60	0x3ec10c4f	0.37704703
61	0xbca19e24	-0.019728728
62	0xbd7b7fd7	-0.061401214
63	0xbd8fedce	-0.070277795
64	0xbb6d70a0	-0.003623046
65	0xbda5a119	-0.080873676
66	0x3d956345	0.07294325
67	0xbdda4c13	-0.10659041
68	0xbec97d74	-0.39353526
69	0x3e677bd2	0.22605827
70	0xbeba5032	-0.3638931
71	0x3e505f63	0.20348887
72	0x3e750945	0.23929317
73	0xbf080466	-0.5313171
74	0x3d64e6bf	0.05588412
75	0x3ecd7cd7	0.40134308
76	0xbed1bfcc	-0.40966642
77	0xbec4f7d8	-0.3847034
78	0xbe3f684c	-0.1869213
79	0xbe9df2de	-0.30849355
80	0x3dab68fe	0.08369635
81	0xbe1d7d4f	-0.15379833
82	0xbed5a4a0	-0.4172716
83	0xbc3ee1c9	-0.011650511
84	0x3d9a0fc3	0.075225376
85	0xbe7411a4	-0.23834854
86	0xbebe49ad	-0.37165585
87	0xbec8b3ca	-0.39199668
88	0x3eda1cab	0.42599997
89	0x3e950448	0.2910483
90	0xbe8d249c	-0.27566993
91	0xbd96d2b7	-0.073644094
92	0x3da9a9e2	0.08284356
93	0x3ed859e4	0.4225608
94	0x3e7a7045	0.2445689
95	0x3c38969d	0.011266378
96	0xbd4af4c8	-0.049549848
97	0x3f015304	0.50517297
98	0x3d7b8340	0.061404467
99	0xbea8574b	-0.328791
100	0xbe428e97	-0.18999706
101	0xbdfa743f	-0.122292034
102	0x3ccd6591	0.025072845
103	0xbea7b308	-0.32753778
104	0x3ece0dd6	0.4024493
105	0x3dfc01b4	0.12305012
106	0x3d57b8f7	0.05266663
107	0xbe482d0c	-0.19548434
108	0xbde8c914	-0.113664776
109	0xbd5030c0	-0.05082774
110	0xbeee5038	-0.46545577
111	0x3eb6f6d3	0.35735187
112	0x3e6b136f	0.22956632
113	0xbec89bd9	-0.39181402
114	0x3e25e3a3	0.16200118
115	0x3d9eb3da	0.07749148
116	0x3ee88f4a	0.4542182
117	0xbda84b6a	-0.08217509
118	0xbbb47aac	-0.0055077877
119	0x3d761f78	0.060088605
120	0x3e940c8f	0.2891583
121	0xbde9fe23	-0.11425426
122	0x3d288e09	0.04115108
123	0xbe96a289	-0.2942088
124	0xbd8eca0b	-0.069721304
125	0xbe194fdc	-0.1497187
126	0x3ebe6cb0	0.37192297
127	0x3eeb91d4	0.46009696
128	0x3ed5a406	0.41726702
129	0x3e31c911	0.17361857
130	0x3eb296b1	0.34880593
131	0xbe957629	-0.29191712
132	0x3ec6b31c	0.38808525
133	0x3e4d479a	0.20046845
134	0xbe305406	-0.17219552
135	0xbdc2c584	-0.09510329
136	0xbc213631	-0.00983958
137	0x3e36fbba	0.17869464
138	0xbeb0609c	-0.34448707
139	0xbd7bac99	-0.0614439
140	0x3de009d6	0.10939376
141	0xbe82fc05	-0.255829
142	0xbda452f7	-0.08023637
143	0xbe81a769	-0.25323036
144	0xbcb942fc	-0.022614948
145	0x3dcff825	0.10154752
146	0xbee8c6bd	-0.45464125
147	0x3ea0310a	0.31287414
148	0x3da74c33	0.08168831
149	0xbe21611d	-0.15759702
150	0x3ddedd6f	0.10882079
151	0x3e9ac684	0.3022958
152	0xbe222870	-0.15835738
153	0xbd86e369	-0.06586344
154	0x3e962afb	0.29329666
155	0xbd950fe4	-0.072784215
156	0x3cf765c2	0.03019989
157	0x3e199f68	0.15002215
158	0xbeb26c84	-0.34848416
159	0x3e46a537	0.19398962
160	0xbe5829c9	-0.2110969
161	0x3e9f9583	0.31168756
162	0xbeda0d4a	-0.42588264
163	0x3b116c01	0.002218962
164	0x3e6b5257	0.22980629
165	0x3ea6a36c	0.32546556
166	0xbd890cba	-0.066918805
167	0x3d4dd12f	0.05024832
168	0x3dc09362	0.09403111
169	0x3e92bde5	0.28660503
170	0x3eea4131	0.45752862
171	0xbceff66e	-0.029292312
172	0xbd97fc5c	-0.074211806
173	0x3c91aba3	0.017782038
174	0x3dd052f5	0.10172073
175	0x3e0bf0c4	0.13666064
176	0xbdd59b10	-0.104299664
177	0xbdd9daec	-0.10637459
178	0x3e3eacd4	0.18620616
179	0xbea23084	-0.3167764
180	0x3d8aedd6	0.06783645
181	0x3ca85a16	0.020550769
182	0xbc1369a2	-0.008997353
183	0x3e7b9676	0.24569115
184	0x3f0728d6	0.52796686
185	0x3dbfec84	0.09371284
186	0xbe69cc3a	-0.22831813
187	0xbdaf1e20	-0.08550668
188	0x3ed68031	0.41894677
189	0x3d713b3c	0.05889438
190	0xbd595a87	-0.05306485
191	0xbdb857f9	-0.090011545
192	0xbdb87bdd	-0.09008
193	0x3d51d99b	0.051232915
194	0xbb38b2c6	-0.002818273
195	0xbe2f3067	-0.17108308
196	0xbebc376d	-0.36761037
197	0x3dab1485	0.08353523
198	0xbe5d479d	-0.2160935
199	0x3e3b7efb	0.18310158
200	0x3e0c06a4	0.13674408
201	0xbf040243	-0.5156595
202	0x3e1b7de2	0.15184739
203	0x3eb13614	0.3461157
204	0xbedea2fc	-0.43483722
205	0xbeeb0c54	-0.45907843
206	0xbe462235	-0.19348986
207	0xbee1df08	-0.44115472
208	0x3d427cf6	0.047482453
209	0xbe0d74b2	-0.13814047
210	0xbedf9390	-0.4366727
211	0x3da32bfa	0.07967372
212	0x3e31d17c	0.17365068
213	0xbe5e983a	-0.21737757
214	0xbea393dd	-0.31948748
215	0xbece94c2	-0.40347868
216	0x3eb97200	0.36219788
217	0x3e72b2ea	0.23701063
218	0xbea96bfa	-0.33090192
219	0xbd8d9ce9	-0.06914694
220	0x3dc66d91	0.09688867
221	0x3ea5bb03	0.3236924
222	0x3e34cf70	0.17657256
223	0x3de9e4dd	0.11420605
224	0xbe14e7cc	-0.14541548
225	0x3eee68eb	0.4656442
226	0xbce820b9	-0.028335916
227	0xbea52449	-0.32254246
228	0xbe5fb9e2	-0.21848252
229	0xbe34ff70	-0.17675567
230	0xbcf9165b	-0.030406168
231	0xbeb5c336	-0.35500497
232	0x3edf3dad	0.43601742
233	0x3dbd9888	0.09257609
234	0x3e1b4021	0.15161182
235	0xbd8086f2	-0.06275739
236	0xbde46599	-0.11152191
237	0x3c2653c4	0.010151807
238	0xbe96b061	-0.2943144
239	0x3edb8934	0.42878115
240	0x3e168862	0.14700463
241	0xbe9d952d	-0.30777875
242	0x3e1dfd32	0.15428618
243	0xbd76f3d2	-0.06029112
244	0x3eb63d2b	0.35593542
245	0xbe35ae81	-0.17742349
246	0x3dd65d0d	0.10466967
247	0x3daa984f	0.08329832
248	0x3ecbec6c	0.39828813
249	0xbc8ac9b1	-0.016941877
250	0x3d0d6229	0.03451744
251	0xbeb43d99	-0.35203245
252	0xbc8aeff3	-0.01696012
253	0xbced5867	-0.028972818
254	0x3eb3ae30	0.35093832
255	0x3ec7e926	0.39045066

4.bias f4 [128]
0	0xbca37377	-0.019952519
1	0x3d9cba14	0.07652679
2	0x3d140f33	0.036147308
3	0xbc914377	-0.017732365
4	0xbda9179d	-0.08256457
5	0xbcd735ee	-0.026270833
6	0xbdd74b80	-0.10512447
7	0x3d3fba57	0.046808567
8	0xbdaf7619	-0.08567447
9	0xbc8929d4	-0.016743578
10	0x3d3ea20d	0.046541262
11	0x3c7bcbab	0.015368382
12	0xbdae3c52	-0.08507599
13	0x3d65e1a0	0.056123376
14	0x3d86c00b	0.06579598
15	0x3dd8a4c6	0.10578303
16	0xbc150ac0	-0.009096801
17	0xbc983c93	-0.018583572
18	0x3d60c046	0.054870866
19	0xbd9a3c04	-0.07530978
20	0xbcc3d4d0	-0.023905188
21	0x3d9bbb34	0.076040655
22	0x3c1f78f6	0.009733429
23	0xbcc6a730	-0.024249643
24	0x3dbf4218	0.09338778
25	0x3beb87cc	0.007187819
26	0x3ce38908	0.027775303
27	0x3d8431c4	0.064548045
28	0xbc4f82d9	-0.012665474
29	0xba3b5c0e	-0.0007147201
30	0xbd82f83e	-0.06395005
31	0x3cee1502	0.029062752
32	0xbbb287d6	-0.005448322
33	0x3d9e01f3	0.077152155
34	0x3b0b1b59	0.0021226017
35	0x3cfe96f4	0.03107784
36	0x3d920059	0.071289726
37	0xbd054f8f	-0.032546576
38	0x3d059716	0.03261479
39	0xbd9a23ba	-0.075263456
40	0x3c0b7e0b	0.008513938
41	0x3b17c16f	0.0023156067
42	0xbc549ccd	-0.012976837
43	0x3d1e2e09	0.03861812
44	0x3cafeb56	0.021474522
45	0x3e0885dd	0.13332315
46	0xbd6936f3	-0.05693717
47	0x3b8ee571	0.0043608476
48	0xbd5b48e5	-0.053536315
49	0xbd1fa458	-0.03897509
50	0x3c7f3e08	0.015578754
51	0x3c69f4e1	0.014279575
52	0x3d698bc8	0.05701807
53	0xbd038771	-0.03211159
54	0xbd92a63e	-0.071606144
55	0xbc5621e4	-0.013069604
56	0xbb393629	-0.0028261042
57	0xbdf5fa33	-0.12010612
58	0xb8b4d6f8	-8.62311e-05
59	0xbdb9fe41	-0.09081698
60	0xbc4baf7d	-0.012431976
61	0x3c2c0aec	0.010500651
62	0x3db25a30	0.08708608
63	0xbc966f53	-0.01836363
64	0xbd4e01e4	-0.05029477
65	0x3d76d468	0.06026116
66	0xbd5ef372	-0.054431386
67	0xbd913269	-0.07089693
68	0xbb5e5d6d	-0.0033930198
69	0xbddeced6	-0.108792946
70	0x3d42a5ee	0.047521524
71	0xbd93ed8b	-0.07223042
72	0x3d6f9c5d	0.05849873
73	0xbc29dbfc	-0.01036739
74	0xbc5a3d06	-0.013320213
75	0xbd8200e6	-0.063478276
76	0xbd581e86	-0.052763484
77	0x3d6b83d4	0.057498768
78	0x3ca5a7b9	0.020221578
79	0x3d428a6f	0.0474953
80	0x3c081643	0.008306089
81	0xba68012d	-0.0008850273
82	0x3d86c45e	0.06580423
83	0xbd0035f5	-0.031301457
84	0x3cbde091	0.02317837
85	0x3d2a7f73	0.04162545
86	0x3dac81ed	0.08423219
87	0x3d8cbf2e	0.06872402
88	0x3d6895a2	0.056783326
89	0xbd607363	-0.05479754
90	0xbc8c5b28	-0.01713331
91	0x3d0686d7	0.032843437
92	0xbdea2878	-0.114335
93	0xbd9aed0e	-0.07564746
94	0x3d148e37	0.03626844
95	0x3d91cd34	0.071192175
96	0x3c08f3bf	0.008358895
97	0x3d99be87	0.07507043
98	0xbd6c6fa5	-0.05772366
99	0xbc6d434c	-0.014481377
100	0x3b3b95e9	0.002862329
101	0xbd9ad425	-0.075599946
102	0xbd0a11af	-0.03370827
103	0x3d7f3f9a	0.062316515
104	0x3d1f88ae	0.038948707
105	0x3d80d3dc	0.06290409
106	0x3d2b8a4b	0.041879933
107	0x3d6420b4	0.05569525
108	0x3e089dea	0.1334149
109	0x3ce4fb38	0.027951822
110	0x3d5f9afb	0.05459116
111	0xbd770678	-0.060308903
112	0x3c05f098	0.008175038
113	0x3e16a765	0.14712293
114	0xbc97a4f8	-0.01851128
115	0xbd960c09	-0.07326514
116	0x3d60fb6a	0.054927267
117	0xbd91cc44	-0.07119039
118	0xbd977acc	-0.073964685
119	0x3d34e02a	0.044159092
120	0xbc832ee7	-0.016013576
121	0x3d3d3124	0.046189442
122	0x3cc218b9	0.02369343
123	0x3d4621c8	0.04837206
124	0xbe0a05e4	-0.1347881
125	0x3d1570c0	0.03648448
126	0xbd7eb4aa	-0.062184013
127	0xbc31caf8	-0.010851614

6.weight f4 [4, 128]
0	0xb85261d4	-5.015901e-05
1	0x3c3d5a84	0.011557225
2	0x3b913efb	0.0044325567
3	0x3d710388	0.05884126
4	0xbda2f890	-0.07957566
5	0xbd062417	-0.03274926
6	0xbd826d11	-0.06368459
7	0xbd311193	-0.04322965
8	0x3d563faa	0.05230681
9	0x3d019893	0.031639647
10	0x3da700c7	0.08154445
11	0xbd8dce76	-0.06924145
12	0x3b595915	0.003316467
13	0xbbb32982	-0.0054675946
14	0xbd59db7f	-0.053187843
15	0xbd440aeb	-0.047861975
16	0x3dafc40b	0.08582314
17	0x3d19cd46	0.03754928
18	0x3d34d8fc	0.044152245
19	0xbd0a8b73	-0.033824395
20	0x3d142c6d	0.03617518
21	0x3d70192e	0.058617763
22	0xbcc512b1	-0.024056764
23	0xbd3b48fa	-0.045723893
24	0xbbde7a96	-0.0067895157
25	0x3cc041e6	0.023468923
26	0xbc86b760	-0.016444862
27	0xbc80fcc5	-0.01574553
28	0x3cf149ea	0.02945419
29	0x3da35ef4	0.07977095
30	0xbdba63f8	-0.09101099
31	0xbbff4c5c	-0.007791085
32	0xbc58dc8e	-0.013236178
33	0xbd7a493b	-0.061104994
34	0x3dafbdc3	0.08581116
35	0x3c50389c	0.012708809
36	0xbd8744a2	-0.066048875
37	0xbcc71e4e	-0.024306443
38	0xbcd5a2ae	-0.026078548
39	0x3c5b05f6	0.01336812
40	0xbdb36e8d	-0.0876132
41	0x3ba9617d	0.005169092
42	0xbd32d98c	-0.0436645
43	0x3d5619e6	0.052270792
44	0x3d7f5ef1	0.062346403
45	0x3ce6d31c	0.028176837
46	0x3d8e610c	0.06952104
47	0x3ca64eab	0.020301184
48	0xbbcd2485	-0.006260457
49	0x3bb9dd74	0.005672151
50	0xbd0a4896	-0.03376063
51	0xbcc521e9	-0.024064021
52	0x3cf9039a	0.030397225
53	0xbd32fa6d	-0.043695856
54	0x3c8e3189	0.017357605
55	0xbd69ff6e	-0.057128362
56	0x3db2e851	0.08735717
57	0x3db2f9ef	0.08739077
58	0xbd738416	-0.05945214
59	0x3d8f1802	0.06987001
60	0xbdcbd1ac	-0.09952101
61	0x3ce40963	0.027836507
62	0x3cf2645d	0.029588873
63	0xbbe32cba	-0.006932822
64	0xbda4824f	-0.08032667
65	0x3d8163de	0.06317876
66	0xbd7de201	-0.061983112
67	0x3cc59294	0.024117745
68	0x3d8ab897	0.06773489
69	0xbcc18e92	-0.023627553
70	0x3db390e5	0.08767871
71	0xbd8d0ca7	-0.06887179
72	0xbcdd0724	-0.026980944
73	0x3cee50a1	0.029091181
74	0xbcccbb81	-0.024991753
75	0xbc7d71bd	-0.015469012
76	0xbc742221	-0.014900715
77	0xbd9790a4	-0.07400635
78	0x3d4dd6d9	0.050253723
79	0x3d6114de	0.05495154
80	0x3d80b6f4	0.062848955
81	0xbd810120	-0.06299043
82	0xbd673c22	-0.05645383
83	0x3d8caedf	0.068692915
84	0x3cbb4993	0.022862231
85	0xbc0638bf	-0.00819224
86	0x3d9a245f	0.075264685
87	0xbbb7a713	-0.0056046336
88	0x3d17b570	0.037038267
89	0xbd4a0454	-0.049320534
90	0xbd9e9097	-0.07742422
91	0xbccba4be	-0.024858829
92	0x3cb22bf3	0.021749472
93	0x3d94cb29	0.07265312
94	0xbd28e756	-0.041236244
95	0xbd662f71	-0.056197587
96	0xbd0f4a3b	-0.0349829
97	0xbd762c25	-0.060100693
98	0x3d5bc4af	0.05365437
99	0xbd873e5e	-0.066036925
100	0x3d0bea10	0.034158766
101	0xbb9d913e	-0.004808574
102	0x3c8d8da7	0.01727946
103	0x3d16bcb2	0.036801048
104	0x3d9bff26	0.07617025
105	0x3bf45b0f	0.007457144
106	0x3d8bb4bc	0.06821582
107	0xbc5f4758	-0.0136278495
108	0x3bed6861	0.007245109
109	0xbd04c08c	-0.03241019
110	0xbd93ea8d	-0.072224714
111	0x3d7d3f5e	0.06182801
112	0xbd8c408c	-0.06848249
113	0xbc26a691	-0.010171548
114	0x3cd4c06b	0.025970658
115	0x3d86f5b2	0.065898314
116	0x3d8fae07	0.07015615
117	0x3db5d3b8	0.08878273
118	0xbd735b08	-0.059412986
119	0x3d3e1a5c	0.046411857
120	0xbcc06ed9	-0.023490356
121	0xbd26f045	-0.040756483
122	0x3db9a85e	0.090653166
123	0xbafd9399	-0.0019346356
124	0xbd91fde4	-0.07128504
125	0xbd93e6b7	-0.0722174
126	0x3ae6e9ec	0.0017617322
127	0xbd709876	-0.058739148
128	0x3db2c2c6	0.08728556
129	0xbd245d14	-0.04012783
130	0x3db01b88	0.08599001
131	0x3cdc56ab	0.026896795
132	0xbd8dd250	-0.069248796
133	0xbd24022f	-0.040041145
134	0xbd0bf6f8	-0.034171075
135	0x3cb7c667	0.022433473
136	0x3da601df	0.08105826
137	0x3cf77978	0.030209288
138	0x3d1de387	0.038547065
139	0x3d806b06	0.06270413
140	0x3d1879e6	0.037225626
141	0x3d288c11	0.041149203
142	0xbc1948e4	-0.009355757
143	0xbc0dc7de	-0.008653609
144	0xbc9b0cb8	-0.018926963
145	0xbc874898	-0.016514108
146	0x3d3b6b3a	0.045756556
147	0xbd22c454	-0.039738014
148	0x3d9bac36	0.07601206
149	0xbd349ab6	-0.044092856
150	0xbca10bdc	-0.019658975
151	0x3d77f249	0.060533796
152	0x3d05030a	0.0324736
153	0xbd9b3703	-0.07578852
154	0xbdbd0a7e	-0.09230517
155	0x3d88e85a	0.066849425
156	0x3d552835	0.052040298
157	0xbdafc4a7	-0.0858243
158	0x3c471484	0.012150887
159	0x3d1d29cd	0.038369942
160	0x3d72fee6	0.05932512
161	0xbd059836	-0.032615863
162	0x3b8326fb	0.0040024496
163	0x3d3614e1	0.044453505
164	0x3d1070fe	0.035264008
165	0xbd60567f	-0.05476999
166	0x3da1f36a	0.07907756
167	0xbd75b41d	-0.059986223
168	0x3d9591c9	0.07303197
169	0xbd0176a0	-0.03160727
170	0xbc87409f	-0.016510306
171	0x3c9daf5a	0.019248653
172	0xbda2d11a	-0.07950039
173	0xbd83dfe7	-0.0643919
174	0x3d99598b	0.07487782
175	0xbc80aeae	-0.015708294
176	0xbcb52b86	-0.02211548
177	0xbd961dee	-0.073299274
178	0x3d9da3d8	0.07697266
179	0xbd9ff420	-0.07810235
180	0xbc9b8758	-0.018985435
181	0x3d30b251	0.043138806
182	0xbd7cc6a1	-0.061712865
183	0xbbba3a7e	-0.0056832423
184	0x3d06dfb3	0.03292818
185	0xbca89b7d	-0.020581955
186	0x3d303d6c	0.043027326
187	0x3daf8953	0.085711144
188	0x3bf1fd55	0.007384936
189	0xbd15debc	-0.03658937
190	0x3d1130a0	0.035446763
191	0x3d73b656	0.05950006
192	0xbd788331	-0.06067199
193	0x3c24a676	0.010049453
194	0x3b510660	0.003189467
195	0x3a8a0988	0.0010531405
196	0xbd0e24f4	-0.03470321
197	0x3d03d8e7	0.032189276
198	0xbc0b33d0	-0.00849624
199	0x3cf43bcd	0.029813671
200	0x3c723903	0.0147841
201	0x3d730229	0.059328232
202	0x3cea9dcb	0.028639695
203	0xbd2dcfe2	-0.04243458
204	0x3d94f158	0.07272595
205	0xbd816793	-0.06318583
206	0x3d358f34	0.044326022
207	0x3d941cc0	0.07232046
208	0xbb0d2019	-0.0021534024
209	0x3a3f6134	0.0007300556
210	0xbd841045	-0.06448416
211	0xbd560f45	-0.052260656
212	0x3d7c0d62	0.0615362
213	0x3b3a043f	0.0028383879
214	0x3d589871	0.052879754
215	0x3d94f59b	0.07273408
216	0xbd856e8f	-0.06515228
217	0x38aba468	8.1845385e-05
218	0xbd4af29d	-0.04954778
219	0xbd664f37	-0.05622789
220	0xbd64fb9d	-0.05590402
221	0xbd712004	-0.058868423
222	0xbd515922	-0.051110394
223	0x3d93e9b6	0.07222311
224	0xbdbc3843	-0.091904186
225	0xbd1c8af8	-0.03821847
226	0xbd8a1707	-0.06742673
227	0xbd4036aa	-0.04692713
228	0xbd0a3ea1	-0.033751134
229	0x3d274bdb	0.040843826
230	0xbcc9072b	-0.02453955
231	0xbcd97428	-0.026544645
232	0x3ce4aa12	0.027913127
233	0xbc217ad0	-0.009855941
234	0x3d31d118	0.043412298
235	0x3da01f8d	0.07818518
236	0xbdd34793	-0.10316386
237	0xbdb763a6	-0.08954553
238	0xbbe386fe	-0.0069435826
239	0x3d9749f9	0.07387156
240	0xbd45b43d	-0.04826759
241	0x3d8da340	0.06915903
242	0x3d0f3b27	0.03496852
243	0x3da9b66f	0.082867496
244	0xbd4e922f	-0.05043238
245	0x3d28e545	0.041234273
246	0x3c3c77b3	0.011503148
247	0xbadfe605	-0.0017082101
248	0x3d576d81	0.052594665
249	0x3cc13ac7	0.023587598
250	0x3d0dbb11	0.03460223
251	0xbd0fea85	-0.035135765
252	0xbd0e0449	-0.034672055
253	0xbd154e3a	-0.036451556
254	0xbda705f1	-0.0815543
255	0xbaf4d32d	-0.0018678658

6.bias f4 [4]
0	0x3d94f521	0.07273317
1	0xbd430150	-0.047608674
2	0x3e23bde1	0.15990402
3	0x3d2f8bfe	0.042858116
