demo/modelF.pt (torch, 136389 bytes, 8 tensors)

0.weight f4 [128, 1]
0	0xbf355800	-0.708374
1	0xbde143c8	-0.10999256
2	0x3e7dc7cb	0.24783246
3	0x3ecd126f	0.40053126
4	0x3eb70f9d	0.357541
5	0x3f51f69d	0.82016927
6	0xbed56172	-0.41675907
7	0x3eb8b896	0.36078328
8	0x3f625d1d	0.8842333
9	0x3f1a13eb	0.6018664
10	0x3f7efaac	0.99601245
11	0xbedf76d5	-0.4364535
12	0x3f0b816f	0.54494375
13	0x3eca56b1	0.39519265
14	0xbf3289a1	-0.69741255
15	0x3f2b8bf0	0.670104
16	0x3dff383f	0.124619
17	0x3e3e9ade	0.18613765
18	0x3f6037cf	0.8758516
19	0x3f4552c7	0.77079433
20	0xbe4d5518	-0.20051992
21	0x3ebc6930	0.36799002
22	0x3eecbe21	0.46238807
23	0xbe7fbbc9	-0.24973978
24	0xbd08b6e1	-0.033377532
25	0x3f5a3d55	0.85249835
26	0xbf3c3390	-0.7351618
27	0xbf0b786f	-0.5448064
28	0x3f221308	0.6331029
29	0x3d79b91c	0.06096755
30	0xbef96263	-0.48707876
31	0x3e8f44a6	0.27982062
32	0xbf12eebf	-0.5739555
33	0x3f5abc2e	0.8544339
34	0x3f5914cb	0.8479735
35	0xbf48d944	-0.7845652
36	0x3eac0dc2	0.33604246
37	0xbf4e731a	-0.8064438
38	0x3f439b6e	0.7640904
39	0x3eb8eaa8	0.3611653
40	0xbf6479a9	-0.8924814
41	0x3e6599d3	0.2242196
42	0xbf4e470e	-0.8057717
43	0x3e636f42	0.2221041
44	0xbf28ce29	-0.65939575
45	0x3f55ebf0	0.8356314
46	0x3f7f1330	0.9963865
47	0x3dee85b0	0.116465926
48	0x3ecf624f	0.4050469
49	0x3f04fa47	0.5194439
50	0x3e85e1dc	0.2614888
51	0xbeb7fae9	-0.35933617
52	0x3f3117b1	0.69176775
53	0xbf0c7e03	-0.5487978
54	0xbe84110d	-0.2579426
55	0x3d128551	0.03577167
56	0x3e8ad835	0.27118078
57	0xbd7f8a65	-0.062387843
58	0x3f7c74f2	0.98615944
59	0xbf21992f	-0.63124365
60	0x3e246dfb	0.16057579
61	0xbe5ee724	-0.2176786
62	0x3ea1793c	0.31537807
63	0xbf313727	-0.6922478
64	0x3f77adcd	0.96749574
65	0x3f4564ae	0.7710675
66	0xbe61c5d5	-0.22048123
67	0x3f889ac2	1.0672228
68	0xbf338a4e	-0.7013291
69	0xbf2f1a59	-0.6839958
70	0x3f556163	0.83351725
71	0xbef0939b	-0.46987614
72	0x3ec077f4	0.37591517
73	0x3f472e86	0.77805364
74	0x3eb35bb1	0.35030892
75	0x3e11a8f0	0.14224601
76	0x3d955e48	0.07293373
77	0xbf8505a0	-1.0392342
78	0xbeae303d	-0.34021178
79	0x3ea2c6d6	0.31792325
80	0xbf21c1f1	-0.63186556
81	0x3f810410	1.0079365
82	0x3ea51070	0.32239103
83	0x3f765a7c	0.9623182
84	0x3eed5695	0.4635512
85	0x3e983e07	0.29734823
86	0x3dc3ac4a	0.09554346
87	0xbf73e705	-0.9527438
88	0xbe0e66be	-0.1390638
89	0xbe82b886	-0.25531405
90	0x3f679cbd	0.9047354
91	0x3eb9f31f	0.363183
92	0xbf409afc	-0.7523649
93	0x3f006765	0.5015777
94	0xbe45e321	-0.19324924
95	0xbe693cd1	-0.22777106
96	0x3f835613	1.0260643
97	0xbe751433	-0.23933487
98	0x3e58785c	0.21139663
99	0x3f1e7d27	0.6190972
100	0x3e77266f	0.24135755
101	0xbe803837	-0.2504289
102	0x3ec9bf8d	0.39403954
103	0xbea66642	-0.32499892
104	0x3f81e216	1.0147121
105	0x3f5f33f9	0.8718868
106	0x3ecb2fb9	0.39684847
107	0x3e92820f	0.28614852
108	0x3d15f644	0.03661181
109	0x3e43689a	0.19082871
110	0x3f5ad21d	0.8547686
111	0x3ed92b29	0.4241574
112	0xbedc1130	-0.42981863
113	0xbcb90b08	-0.022588268
114	0x3f4d6047	0.8022503
115	0xbdbdcd61	-0.092676885
116	0x3ee67af2	0.45015675
117	0x3e9ab8b9	0.30219057
118	0x3f023bef	0.508727
119	0x3f4bf9ca	0.7967802
120	0xbf29d1d4	-0.663358
121	0x3eae7edb	0.34081158
122	0x3f6beea6	0.92161024
123	0xbf20e5e8	-0.6285081
124	0x3f444995	0.7667478
125	0xbf4a5dfb	-0.7904965
126	0x3f7fb8ab	0.99891156
127	0xbe04398a	-0.12912574

0.bias f4 [128]
0	0xbe65a318	-0.22425497
1	0x3f1a8990	0.60366154
2	0x3ee9b997	0.45649406
3	0x3f275a06	0.6537174
4	0xbf08baab	-0.5340983
5	0xbed546e4	-0.41655648
6	0xbe259f40	-0.1617403
7	0xbf0f8e92	-0.5607692
8	0x3f510fcc	0.8166473
9	0xbf464658	-0.77451086
10	0xbd4391c4	-0.047746435
11	0x3f1de377	0.6167521
12	0x3f70a7ec	0.9400623
13	0x3f20d59c	0.6282594
14	0x3ea31efa	0.3185957
15	0x3e85007c	0.25976932
16	0xbf6f5185	-0.93483764
17	0xbe4fa73e	-0.20278642
18	0xbf009c2c	-0.502383
19	0x3f4d2e73	0.80149
20	0xbf09c494	-0.5381558
21	0xbf3953a3	-0.72393245
22	0x3e9886b8	0.29790282
23	0xbeca0934	-0.39460146
24	0xbd9e5dbb	-0.077327214
25	0x3f264fae	0.6496533
26	0xbf85de75	-1.0458513
27	0xbf09d875	-0.5384591
28	0xbd770553	-0.060307812
29	0x3f6270d4	0.8845341
30	0x3f3d05b2	0.73836815
31	0xbf33aba1	-0.7018376
32	0xbf4438d3	-0.76649207
33	0x3f5c8275	0.8613656
34	0xbd82a797	-0.063796215
35	0xbee51f30	-0.44750357
36	0xbf4046ce	-0.7510804
37	0x3f40838a	0.7520071
38	0x3f0e9872	0.55701363
39	0x3edcb625	0.43107715
40	0xbf60f026	-0.8786644
41	0x3f5d6718	0.86485434
42	0x3e4d48a0	0.20047235
43	0xbf1ab650	-0.60434437
44	0xbf1aee62	-0.60519993
45	0xbec6e599	-0.38847044
46	0xbf79c1cb	-0.9756133
47	0x3f5c205b	0.8598687
48	0xbf6d03d3	-0.9258396
49	0x3f31dd8c	0.6947868
50	0xbef2ceaa	-0.47423297
51	0xbf26dd43	-0.6518137
52	0xbf31ccf2	-0.69453347
53	0xbf019c68	-0.5062928
54	0x3ed44b09	0.41463497
55	0x3e47dc4d	0.19517632
56	0xbf11f2f9	-0.5701137
57	0xbe2ce94e	-0.16885874
58	0x3ebcd669	0.36882332
59	0x3eefb667	0.4681885
60	0xbf4caed9	-0.79954296
61	0x3f494f35	0.78636485
62	0xbef039aa	-0.46918994
63	0xbec78bf5	-0.38973966
64	0x3ef87f6f	0.48534724
65	0x3f18b638	0.59653044
66	0xbf7743cc	-0.96587825
67	0x3f84f229	1.0386401
68	0xbe251a5f	-0.16123341
69	0x3f6e0747	0.92979854
70	0x3f83a778	1.0285482
71	0xbf54f646	-0.83188283
72	0x3d87cf47	0.06631332
73	0xbf02aa5b	-0.5104119
74	0x3ef70059	0.48242453
75	0xbe434065	-0.19067533
76	0xbda3b6e6	-0.079938695
77	0x3f685414	0.90753293
78	0x3e15ddda	0.14635411
79	0x3f3b611f	0.7319507
80	0xbf770ea6	-0.96506727
81	0x3f86f122	1.0542338
82	0xbf0ca840	-0.5494423
83	0x3f0c6077	0.54834694
84	0x3f086fc0	0.53295517
85	0x3f797d0b	0.97456425
86	0x3d1a4d71	0.03767151
87	0x3f5ffa0f	0.87490934
88	0x3ebc8ba0	0.36825275
89	0x3eed2ebf	0.46324727
90	0xbe9d44b0	-0.30716467
91	0xbf0af927	-0.54286426
92	0xbf839a21	-1.0281411
93	0x3f3b46a0	0.7315464
94	0x3ed16b4f	0.40902182
95	0xbf0ad7f6	-0.5423578
96	0x3d8afbc6	0.06786303
97	0x3f62f989	0.8866201
98	0xbce7d458	-0.028299496
99	0x3f469281	0.775673
100	0x3d8c222f	0.068424575
101	0xbecdfcfe	-0.4023208
102	0xbf420625	-0.75790626
103	0x3f2f17cd	0.6839569
104	0xbf778da7	-0.9670052
105	0xbf0d3abb	-0.5516774
106	0xbf3b09ee	-0.73062027
107	0xbf2e78f7	-0.6815333
108	0x3f67990f	0.90467924
109	0x3f60b3ed	0.87774545
110	0x3e1bca53	0.152139
111	0xbf80c5d5	-1.0060374
112	0xbf639d14	-0.8891156
113	0x3f74eb38	0.95671415
114	0xbeacf834	-0.33783114
115	0xbe85f343	-0.26162156
116	0xbf4e0924	-0.804827
117	0x3e01af00	0.12664413
118	0x3ee9a303	0.4563218
119	0x3e73ca3d	0.23807617
120	0xbf3041ad	-0.68850213
121	0x3f004050	0.50098133
122	0xbec7eda1	-0.39048484
123	0x3f3570ee	0.7087544
124	0x3e8dad51	0.27671292
125	0xbf520804	-0.8204348
126	0xbd9b5bde	-0.07585882
127	0x3c495a97	0.012289665

2.weight f4 [128, 128]
0	0x3d35ef10	0.04441744
1	0xbc0076f1	-0.007840858
2	0xbccfd412	-0.025369678
3	0xbd8846a2	-0.06654097
4	0xbcdc253f	-0.02687323
5	0x3d17add1	0.037031
6	0xbc1249f2	-0.008928763
7	0x3d31e8b5	0.043434817
8	0x3d9fd963	0.07805135
9	0xbd651ce9	-0.055935774
10	0xbcf4bd66	-0.029875468
11	0xbca695fe	-0.020335194
12	0x3d77d074	0.06050153
13	0xbceb992b	-0.02875956
14	0x39f9f42b	0.000476749
15	0x3d456adb	0.04819761
16	0x3c6cae56	0.014445862
17	0x3d879f73	0.066222094
18	0x3dabb903	0.083848976
19	0xbd840d86	-0.06447892
20	0xbd249595	-0.040181715
21	0xbc96ccd3	-0.018408215
22	0xbc3680c8	-0.011139102
23	0xbdab23ec	-0.08356461
24	0xbcfd1ba0	-0.030896962
25	0xbbb868d3	-0.0056277304
26	0xbd14ac75	-0.03629728
27	0xbd68d0ab	-0.056839626
28	0xbd92ae6e	-0.07162176
29	0xbd9bff6f	-0.076170795
30	0xbd1166cc	-0.035498425
31	0x3d14e97f	0.03635549
32	0x3d83bf1f	0.06432938
33	0x3d4b32d6	0.049609028
34	0x3d78887d	0.06067704
35	0x3d96b736	0.073591635
36	0x3dc822e7	0.09772282
37	0x3d35710b	0.04429726
38	0xbbf1296c	-0.007359674
39	0xbc8dbfbf	-0.017303346
40	0x3c715bcb	0.014731358
41	0x3d1a3ea7	0.037657406
42	0xbd5739a3	-0.0525452
43	0xbab5dc01	-0.001387477
44	0xbd29808a	-0.04138235
45	0xbd96c63d	-0.0736203
46	0xbdb51d8d	-0.08843527
47	0x3c2c8b08	0.0105311945
48	0x3c6724d7	0.014107904
49	0xbd0245ed	-0.031804968
50	0x3d18f6ac	0.03734462
51	0xbb47e76d	-0.003050293
52	0x3d468e67	0.04847565
53	0x3d1fc493	0.039005827
54	0xbcb6f4a9	-0.02233346
55	0x3dad4625	0.08460645
56	0x3d5d89a5	0.054086346
57	0xbb3936dd	-0.002826146
58	0x3bbc606d	0.0057487995
59	0xbc33beae	-0.010970755
60	0x3d7b20ce	0.061310582
61	0xbd985005	-0.074371375
62	0x3d0c1f96	0.03420981
63	0x3cc8f9ca	0.024533171
64	0xbca913a3	-0.020639246
65	0x3d98efe8	0.074676335
66	0xbdb4f15d	-0.08835099
67	0xbd8f3e59	-0.06994314
68	0xbd371252	-0.044695206
69	0xbd8f4fc1	-0.06997634
70	0x3d17ec80	0.03709078
71	0x3d8ab137	0.06772082
72	0x3bb7f250	0.0056136027
73	0x3d024ef2	0.03181357
74	0xbd15f014	-0.03660591
75	0x3d440b40	0.04786229
76	0x3d2a3fbd	0.04156469
77	0xbcdd7a51	-0.027035864
78	0xbdb13739	-0.08653111
79	0xbd415813	-0.047203135
80	0x3c72ce7f	0.01481974
81	0x3d0bebba	0.034160353
82	0xbd477a08	-0.048700362
83	0x3d20c06d	0.03924601
84	0x3d1bd27a	0.038042523
85	0xbd94e3c5	-0.07270006
86	0x3d2a6164	0.041596785
87	0xbcef4c6c	-0.029211245
88	0xbde70733	-0.1128067
89	0x3ca73bd4	0.02041427
90	0xbd3f47a2	-0.046699174
91	0x3d34fd97	0.044187155
92	0x3d8311b4	0.06399861
93	0x3c182e5e	0.009288399
94	0x3c111fba	0.008857662
95	0xbd9c694d	-0.07637272
96	0xbc447306	-0.011990314
97	0xbe2fdec9	-0.1717483
98	0x3cf45925	0.029827664
99	0xbc256edf	-0.0100972345
100	0x3d0148f6	0.03156372
101	0x3d1e226f	0.038607057
102	0xbd98c9e9	-0.07460386
103	0xbccf375f	-0.025294958
104	0xbc8d11ae	-0.017220344
105	0x3cdb6629	0.026782112
106	0xbc1fcb59	-0.009753072
107	0x3afbf8b8	0.0019223904
108	0xbd9fa42f	-0.077949874
109	0x3d260d2b	0.0405399
110	0x3c0dcc79	0.008654707
111	0x3c850a1f	0.016240178
112	0x3c87e06b	0.016586503
113	0xbc39ac73	-0.011332619
114	0x3dadecbb	0.084924184
115	0xbd1d33a7	-0.038379338
116	0x3d6ca54f	0.057774838
117	0xbc0b6f5b	-0.008510436
118	0x3d47c862	0.048775084
119	0x3ce9cd9a	0.028540421
120	0x3d881c98	0.06646079
121	0xbd611a7b	-0.054956894
122	0x3d6747ec	0.056465074
123	0x3d5dc899	0.054146383
124	0x3d2b37cc	0.04180126
125	0x3d767863	0.060173403
126	0xbd8de9d3	-0.06929364
127	0x3d5d376d	0.054007936
128	0x3c0a372f	0.008436008
129	0xbdfe7b1a	-0.124258235
130	0x3cc73507	0.024317278
131	0x3d481c46	0.04885509
132	0x3d2ef89d	0.042717565
133	0x3d4228be	0.047402136
134	0x3b07778d	0.0020670623
135	0x3d4bc72c	0.049750492
136	0xbdb77e89	-0.089596815
137	0xbd3c4913	-0.045968127
138	0x3d1c4d0a	0.038159408
139	0x3d190aaf	0.037363704
140	0x3d403174	0.046922162
141	0xbdaa806b	-0.08325275
142	0x3d2fcb3d	0.042918433
143	0xbdaf7456	-0.08567111
144	0x3dd7812e	0.10522686
145	0x3db9acbf	0.09066152
146	0xbc846c83	-0.016165024
147	0xbd60a210	-0.054842055
148	0xbd73e9da	-0.05954919
149	0x3d8ed463	0.06974103
150	0x3d0d6174	0.034516767
151	0xbda3818c	-0.079836935
152	0x3da46cb0	0.08028543
153	0xbcf1dc90	-0.029524118
154	0xbd9db889	-0.07701213
155	0x3d18ac90	0.037273943
156	0xbd8b9ea6	-0.06817369
157	0x3d726fc8	0.059188634
158	0x3d5cbdf0	0.053892076
159	0x3d729e3e	0.059232943
160	0x3cd78d67	0.026312543
161	0x3bd1c5c9	0.0064017517
162	0x3d4f4f87	0.050612953
163	0x3aabf459	0.0013119086
164	0x3c8060bb	0.015671125
165	0xbd9b8019	-0.07592792
166	0x3d8cdc73	0.06877985
167	0x3d350742	0.044196375
168	0x3c2e16a8	0.010625519
169	0x3aca9370	0.0015455317
170	0xbc519c89	-0.012793669
171	0x3d4778ca	0.048699178
172	0x3d853d25	0.06505803
173	0x3cc81771	0.02442524
174	0xbd84c687	-0.064831786
175	0x3d74e1bd	0.059785593
176	0x3d984690	0.07435334
177	0x3d1340fe	0.035950653
178	0x3cbec349	0.023286479
179	0xbca84136	-0.020538907
180	0x3d6b56fb	0.057455998
181	0x3d755b88	0.059901744
182	0xbdcb10b4	-0.09915295
183	0x3dae83e9	0.085212536
184	0x3d520d6a	0.051282324
185	0xbd4613c5	-0.048358697
186	0x3cf1c39d	0.029512221
187	0x3d832649	0.06403787
188	0x3b006f8f	0.0019597744
189	0xbdb8babb	-0.09019991
190	0xbd0190f2	-0.03163237
191	0x3cd979db	0.026547363
192	0x3cfa83f8	0.030580506
193	0xbd44c9c0	-0.048043966
194	0xbcb1c5dd	-0.021700794
195	0x3cf7e3e7	0.03026004
196	0x3da8dab9	0.08244843
197	0x3d9493fe	0.0725479
198	0x3c55d27d	0.013050673
199	0xbd175558	-0.036946625
200	0xbbb13bd0	-0.0054087415
201	0xbd403e23	-0.04693426
202	0x3d1c83f4	0.038211778
203	0x3d56e2bc	0.052462325
204	0xbd28fbac	-0.041255638
205	0x3d885622	0.066570535
206	0xbce69252	-0.028145943
207	0x3d829e5c	0.06377861
208	0x3ca74e63	0.02042312
209	0xbd583eae	-0.05279415
210	0x3cedba68	0.02901955
211	0x3c5c5ec5	0.013450329
212	0xbd43fa6c	-0.047846243
213	0xbd2e2ada	-0.042521335
214	0x3c0f27da	0.008737529
215	0xbb0ff4cf	-0.0021965986
216	0xbe0d33e2	-0.13789323
217	0x3d4ec92d	0.050484825
218	0x3d8574e5	0.065164365
219	0x3da134d0	0.07871401
220	0x3d72ce1e	0.0592786
221	0x3d98abde	0.07454656
222	0xbdd6e54b	-0.10492953
223	0x3cf7dc90	0.03025654
224	0x3cca56ef	0.024699656
225	0xbe0dcec1	-0.13848402
226	0x3dc7b131	0.097505935
227	0xbcaf6c0d	-0.021413827
228	0x3ca003e3	0.019533103
229	0xbcfd228e	-0.030900266
230	0xbbc70c4b	-0.0060744635
231	0x3c5934d0	0.01325722
232	0x3c95ace7	0.018270923
233	0xbd955359	-0.07291288
234	0x3d6c467d	0.05768441
235	0x3db57547	0.088602595
236	0xbc99d315	-0.01877741
237	0x3c9f5e86	0.019454252
238	0x3c6b215d	0.014351216
239	0x3d5c3f8a	0.053771533
240	0xbd5d0dcc	-0.053968236
241	0xbdb7a8f2	-0.08967771
242	0xbcbc700f	-0.023002652
243	0x3d8760b1	0.06610239
244	0xbd153ee6	-0.036436938
245	0x3d7c1c06	0.061550163
246	0xbd8666b1	-0.065625556
247	0x3cc1716f	0.02361366
248	0xbccad6c3	-0.02476061
249	0xbd449b50	-0.04799968
250	0xbcdb59a8	-0.02677615
251	0xbd32b22b	-0.043626945
252	0xbd16df08	-0.036833793
253	0x3d807130	0.06271589
254	0xbccf3f25	-0.025298664
255	0xbc4960dd	-0.01229116

2.bias f4 [128]
0	0x3d0c48bd	0.034249056
1	0xbd847219	-0.06467075
2	0x3aa71f90	0.0012750495
3	0xbd931c06	-0.071830794
4	0x3c7924b7	0.015206507
5	0xbc94bb86	-0.018155824
6	0xbdadd341	-0.08487559
7	0x3d45d0eb	0.048294943
8	0xbd84332e	-0.06455074
9	0xbde0d396	-0.10977857
10	0xbb8d0196	-0.0043031676
11	0x3dac6e49	0.08419473
12	0xbccf610d	-0.025314832
13	0xbd8609b1	-0.06544817
14	0x3a44e295	0.000751057
15	0x3d20e262	0.039278395
16	0xbd2c59b5	-0.04207774
17	0x3a1399b2	0.00056305074
18	0x3d059204	0.032609954
19	0x3cd2e9b3	0.025746202
20	0xbc95229d	-0.018204981
21	0xbd931d2b	-0.07183298
22	0xbd2faf5c	-0.042891845
23	0xbb9ae5b8	-0.0047270916
24	0x3d1ea9b7	0.03873607
25	0x3d55f27d	0.052233208
26	0x3d751ffd	0.05984496
27	0xbdb5a763	-0.08869817
28	0xbd8badb6	-0.06820242
29	0xbd6149b6	-0.055001937
30	0x3d60ff2a	0.054930843
31	0x3d7b9274	0.061418965
32	0xbd9336a5	-0.07188157
33	0xbcd060a7	-0.025436712
34	0xbdb16212	-0.086612836
35	0x3cd3efa0	0.025871098
36	0x3d5b843a	0.053592898
37	0x3c44833b	0.011994178
38	0x3add67aa	0.0016891856
39	0x3c77fc29	0.015135803
40	0xbda49180	-0.080355644
41	0x3d9951c6	0.074863
42	0x3dcedef6	0.1010112
43	0x3ca30e24	0.019904204
44	0xbc8084b1	-0.015688272
45	0xbca3a5b2	-0.01997647
46	0x3d8d806b	0.069092594
47	0xbd292039	-0.041290496
48	0x3d8c09d0	0.06837809
49	0xbda0ba65	-0.07848052
50	0xbd2effd2	-0.042724438
51	0x3d544d9b	0.051831823
52	0xbc815619	-0.015788125
53	0x3d887f58	0.06664914
54	0x3c5aa36e	0.013344629
55	0xbd71b34a	-0.059008874
56	0x398d6d6e	0.00026975147
57	0x3d72df85	0.059295196
58	0x3d33af4c	0.043868348
59	0x3c6688b8	0.014070682
60	0x3cabb927	0.020962311
61	0x3d52fd8e	0.05151134
62	0xbd0da48f	-0.034580763
63	0x3d427209	0.047472034
64	0x3d58fe5c	0.05297695
65	0x3c50d4f1	0.012746082
66	0xbc0209eb	-0.007936935
67	0xbd895d72	-0.067072764
68	0x3d9b7b22	0.07591845
69	0x3cdd4d57	0.027014418
70	0xbb228dd1	-0.0024803767
71	0xbcb6d601	-0.022318842
72	0xbd1363fc	-0.035984024
73	0xbd83d3c4	-0.064368755
74	0x3c2aba82	0.0104204435
75	0xbc8e27b8	-0.017352924
76	0xbc998d05	-0.018744001
77	0xbda7d8a3	-0.08195617
78	0x3d70dc2c	0.058803722
79	0xbd2ef21c	-0.042711362
80	0xbd7abc39	-0.06121466
81	0xbd3c81b9	-0.04602215
82	0xbc0757db	-0.0082606925
83	0xbd94fc4e	-0.07274686
84	0x3d7c07d0	0.061530888
85	0xbd4829ad	-0.04886787
86	0xbda259bd	-0.079272725
87	0x3ca23afa	0.019803513
88	0xbcdb78db	-0.026791027
89	0x3da22d8e	0.07918845
90	0xbcb472e4	-0.02202744
91	0xbb2e4cd3	-0.0026596084
92	0x3c9b7d24	0.01898057
93	0xbc967822	-0.01836783
94	0xbd29d233	-0.041460227
95	0x3d451cd4	0.048123196
96	0xbda1f70d	-0.07908449
97	0x3c7d35af	0.015454694
98	0x3c9768cf	0.018482594
99	0xbb833216	-0.0040037734
100	0xbd70bfd6	-0.0587767
101	0x3daf58b3	0.0856184
102	0xbd4a71e3	-0.049425017
103	0xba9bf6f7	-0.0011899163
104	0x3d9926f0	0.0747813
105	0x3b6fbab3	0.0036579787
106	0xbd503516	-0.050831877
107	0xbd87f110	-0.06637776
108	0xbd7fa460	-0.06241262
109	0xbdc52ed7	-0.096280746
110	0x3d87623c	0.066105336
111	0x3cc3662b	0.023852428
112	0xbd674cfe	-0.05646991
113	0xbccd62dc	-0.025071554
114	0xbc185932	-0.00929861
115	0xbd73a42b	-0.059482735
116	0xbb425231	-0.002965104
117	0xbcc8bc56	-0.024503868
118	0x3ce16af8	0.027516827
119	0x3d8c74d8	0.06858224
120	0xbb75416b	-0.0037423025
121	0xbd9569f1	-0.07295597
122	0xbd27d5a1	-0.040975217
123	0xbcd3f8d0	-0.025875479
124	0x3d882588	0.066477835
125	0x3dc7eae9	0.097616024
126	0x3d6ee711	0.05832583
127	0x3bd13255	0.006384174

4.weight f4 [128, 128]
0	0xbb9f934e	-0.004869855
1	0xbd6fddc0	-0.058561087
2	0xbbd773c8	-0.0065750815
3	0xbd8e23c6	-0.06940417
4	0x3ceb19e8	0.028698877
5	0xbd6d0711	-0.057868067
6	0x3c31481d	0.010820416
7	0xbd290dd9	-0.04127297
8	0xbc00fdc8	-0.007873006
9	0xbd18615e	-0.03720223
10	0xbc7b8a3f	-0.015352785
11	0xbcc60e8b	-0.024176857
12	0x3cceaf68	0.025230125
13	0x3da61a6d	0.08110509
14	0xbdb24bed	-0.08705888
15	0xbd905794	-0.07047954
16	0xbcbfa902	-0.023396019
17	0xbdbcfad3	-0.092275284
18	0xbd114fcc	-0.03547649
19	0xbc0e7bfe	-0.008696554
20	0x3d0c732b	0.03428952
21	0x3d625abf	0.055262323
22	0xbd83b357	-0.06430691
23	0x3d1fbca7	0.038998272
24	0xbd87e4a9	-0.0663541
25	0x3d95a3f5	0.07306663
26	0x3cf8b287	0.030358566
27	0x3cb6278a	0.02223565
28	0xbd17e5d6	-0.037084423
29	0xbb1de0f2	-0.0024090377
30	0xbd57f133	-0.05272026
31	0x3c9451ed	0.018105472
32	0x3db5698e	0.088580236
33	0xbab3cbff	-0.0013717412
34	0x3d65ca9c	0.056101426
35	0xbb0b3184	-0.002123923
36	0x3cb51df6	0.022109013
37	0x3d973e9c	0.07384989
38	0x3db70a10	0.08937466
39	0xbd5d51e6	-0.054033183
40	0x3d8445df	0.06458639
41	0x3d9fe69b	0.078076564
42	0xbd829d8f	-0.06377708
43	0x3d70bba1	0.058772687
44	0x3db40ade	0.08791135
45	0x3d226bde	0.03965365
46	0xbc45f484	-0.012082223
47	0x3d3bcd9b	0.045850378
48	0x3c2c15af	0.010503217
49	0xbd87cd44	-0.06630948
50	0x3d0ef81f	0.034904595
51	0x3cb704fa	0.02234124
52	0xbcacc7d1	-0.021091374
53	0xbd99fdc9	-0.07519109
54	0xbd4cbd9f	-0.049985524
55	0x3d68608f	0.05673271
56	0x3d53c6ad	0.051703144
57	0x3da2b7f6	0.07945244
58	0xbd83cfa0	-0.06436086
59	0xbd2450dc	-0.040116176
60	0x3bf502d2	0.007477143
61	0xbda542e6	-0.080694005
62	0xbdb53169	-0.08847315
63	0xbdc9444f	-0.09827482
64	0x3d597c15	0.05309685
65	0xbd43f2f2	-0.047839113
66	0xbcd0897b	-0.02545618
67	0x3d89267e	0.06696795
68	0xbd1f3f1f	-0.038878556
69	0xbd586c3e	-0.052837603
70	0x3d200187	0.039063957
71	0xbd9f0991	-0.077654965
72	0x3b8a9998	0.0042297356
73	0xbb604a3b	-0.0034223932
74	0x3d8a0c77	0.06740659
75	0x3da42d86	0.080164954
76	0xbbee95bb	-0.007281033
77	0xbd7acd60	-0.061231017
78	0xbd20c104	-0.039246574
79	0xbd089ae0	-0.033350825
80	0xbcb3f438	-0.021967039
81	0xbdcd49bf	-0.100238316
82	0x3db342e6	0.08752994
83	0x3db5d213	0.08877959
84	0xbd974bc7	-0.073875
85	0xbd51ec71	-0.05125088
86	0x3d015a99	0.03158054
87	0xbd1912ee	-0.03737157
88	0xbd3de080	-0.046356678
89	0x3c7188cb	0.014742087
90	0x3d38ecbe	0.04514765
91	0xbd4df12b	-0.050278824
92	0xbc30bab5	-0.010786702
93	0xbd8e2931	-0.069414504
94	0xbcc5d9ff	-0.0241518
95	0x3d1a35ab	0.037648838
96	0x3db6e5b2	0.0893053
97	0xbd5e3bb7	-0.054256167
98	0x3d224505	0.039616603
99	0xbbabdc3f	-0.0052447612
100	0xbd9b4e2d	-0.0758327
101	0x3ca258c2	0.019817714
102	0xbca5a86e	-0.020221915
103	0xbc60fabb	-0.013731654
104	0xba3b784a	-0.00071514084
105	0x3a09f70e	0.0005262949
106	0xbc22ed8b	-0.00994433
107	0x3b94db97	0.0045427787
108	0xbdb295a4	-0.08719948
109	0x3d49365d	0.04912411
110	0xbcb089a3	-0.021550005
111	0xbc81394b	-0.01577439
112	0xbd594895	-0.053047735
113	0xbdb9d4e6	-0.0907381
114	0xbce2124b	-0.027596613
115	0xbd79149d	-0.060810674
116	0xbd650b07	-0.05591872
117	0x3b32a5a5	0.0027259376
118	0xbdb7fb29	-0.08983452
119	0x3c2a132c	0.0103805475
120	0xbd3c62f8	-0.04599282
121	0x3d1a2b49	0.037638936
122	0xbd8cf8fa	-0.06883426
123	0x3d5a28ed	0.053261686
124	0xbc0e48ec	-0.008684378
125	0xbbf0d30d	-0.007349378
126	0x3d1ef7a2	0.03881038
127	0xbc06b147	-0.008220977
128	0x3d6b1551	0.057393376
129	0x3d042e58	0.03227076
130	0xbd396465	-0.04526176
131	0x3c99b93d	0.018765086
132	0xbd8b567c	-0.06803605
133	0x3cf2d188	0.029640928
134	0x3d9ac7ec	0.07557663
135	0xbd907684	-0.07053855
136	0xbda66f0a	-0.08126648
137	0xbb0d296e	-0.0021539587
138	0x3d717c21	0.05895627
139	0x3d7754e8	0.060383707
140	0x3d6ef47a	0.05833862
141	0xba3a3d8e	-0.0007104509
142	0x3d7ad095	0.061234076
143	0xbd992c55	-0.07479159
144	0x3d11d97d	0.035607804
145	0xbcacfab1	-0.021115633
146	0x3d740356	0.059573494
147	0x3c8cceb8	0.017188415
148	0x3bac4474	0.0052571837
149	0x3d9dcd9c	0.077052325
150	0xbd443fb1	-0.047912303
151	0xbcfca936	-0.030842405
152	0xbdaf2b92	-0.08553232
153	0xbcd4b0f6	-0.025963288
154	0x3c24847c	0.010041352
155	0x3dfe679d	0.124221064
156	0x3c53497b	0.012895937
157	0xbd54d350	-0.051959336
158	0x3dbc1a76	0.091847345
159	0xbd11c3f5	-0.03558727
160	0xbd805681	-0.06266499
161	0x3d2a01c6	0.041505598
162	0xbb11b272	-0.0022231606
163	0xbd55f085	-0.05223133
164	0x3c8dc1c1	0.017304303
165	0x3d44104e	0.04786711
166	0xbd7d6843	-0.06186701
167	0xbdc2a4aa	-0.095040634
168	0xbb1e48d5	-0.0024152298
169	0x3ccc65f0	0.024950951
170	0xbdbce1d7	-0.09222763
171	0x3d55cfd5	0.052200157
172	0x3c46f83d	0.012144146
173	0x3da4420c	0.0802041
174	0xbd8c07b8	-0.0683741
175	0x3da4c7b3	0.08045902
176	0x3d314687	0.04328015
177	0x3d421ac2	0.0473888
178	0xba990091	-0.0011673142
179	0xbdb8d4ef	-0.09024989
180	0x3c27dfc7	0.010246224
181	0xbcd82b0f	-0.02638772
182	0x3c5d5d48	0.0135110095
183	0x3d77ac18	0.060466856
184	0x3d276971	0.04087204
185	0xbd9f225f	-0.07770228
186	0x3dc16d07	0.094446234
187	0x3d72859f	0.059209462
188	0x3d3c9e3f	0.046049353
189	0xbc965e70	-0.018355578
190	0xbddc7acd	-0.1076561
191	0x3dba4e53	0.090969704
192	0x3def68d5	0.11689917
193	0xbd9a669f	-0.07539105
194	0x3da2dcf8	0.07952303
195	0xbcf06bde	-0.02934831
196	0xbdb1b9e7	-0.08678036
197	0x3bee7574	0.007277185
198	0xbcefa1db	-0.029251983
199	0xbd6cc145	-0.057801504
200	0x3d96fd06	0.07372479
201	0xbd504123	-0.05084337
202	0x3c776394	0.015099425
203	0xbe1587fb	-0.14602654
204	0x3d9ad0ce	0.075593576
205	0x3dba5c50	0.090996385
206	0xbc4d1b1a	-0.012518669
207	0x3c8c7f70	0.01715061
208	0xbbde29e4	-0.006779896
209	0xbdada82d	-0.084793426
210	0x3c99a123	0.018753594
211	0x3d700e79	0.058607552
212	0x3da6cc76	0.081444666
213	0xb75cd84a	-1.3163381e-05
214	0x3d0e1a7b	0.034693222
215	0x3a0e251e	0.0005422401
216	0x3d176cff	0.03696918
217	0xbcafd098	-0.02146177
218	0x3d869e8f	0.065732114
219	0xbd9cdb03	-0.07658961
220	0xbd06b7bf	-0.032890078
221	0x3d54eb13	0.051981997
222	0xbd21de30	-0.039518535
223	0xbd446365	-0.047946353
224	0xbd6978f6	-0.057000123
225	0xbc8a0b89	-0.016851204
226	0xbda83017	-0.082122974
227	0xbbfc9e75	-0.0077093192
228	0x3da832dc	0.08212826
229	0x3dad30bb	0.0845656
230	0xbcda2e59	-0.026633428
231	0xbe010c08	-0.12602246
232	0xbd3a8a41	-0.045542005
233	0xbdb6f4ad	-0.08933387
234	0x3d93ea8e	0.07222472
235	0x3d7d2299	0.061800573
236	0xbcc9e8bd	-0.024647111
237	0x3d966fde	0.07345556
238	0x3e17bc9a	0.1481804
239	0xbda2fd2e	-0.079584464
240	0xbda16c6a	-0.078820065
241	0xbd8e8a66	-0.06959991
242	0xbdb6383b	-0.08897444
243	0xbd86f181	-0.06589032
244	0x3d281474	0.04103513
245	0xbd4e3859	-0.050346706
246	0xbc92a336	-0.01790009
247	0xba411d3e	-0.0007366723
248	0xbd03c8ab	-0.032173794
249	0x3d818f1a	0.063261226
250	0x3d54c437	0.051944938
251	0x3cb8eb04	0.022573002
252	0xbc7069d3	-0.014673668
253	0xbdde3a05	-0.1085091
254	0x3c8bab97	0.017049594
255	0x3c8e4965	0.017368982

4.bias f4 [128]
0	0xbc3e8677	-0.011628739
1	0xbd06abce	-0.03287869
2	0xbd9c1a2e	-0.07622181
3	0xbd06e7ca	-0.032935895
4	0x3d235e72	0.039884992
5	0xbd7ff613	-0.062490534
6	0xbc2d4836	-0.010576298
7	0x3d0a80aa	0.03381411
8	0x3bac8c16	0.005265723
9	0x3d876b8d	0.066123106
10	0x3c2168cb	0.009851645
11	0x3d3eb884	0.046562687
12	0xbba0a663	-0.0049026473
13	0x3d906be3	0.07051828
14	0x3d94ff26	0.07275228
15	0x3d7f6181	0.062348846
16	0xbd04b8fb	-0.032402974
17	0xbb57472f	-0.0032848825
18	0xbb2206ea	-0.002472336
19	0x3cc2856f	0.023745267
20	0x3d3c776a	0.04601232
21	0xbd3d571d	-0.046225656
22	0x3c85c549	0.016329424
23	0x3d0c12a6	0.034197472
24	0xbd0af8fd	-0.03392886
25	0xbce88726	-0.028384756
26	0xbd7d8f2b	-0.061904114
27	0x3a9e5bfb	0.0012081856
28	0x3cdc3f81	0.02688575
29	0x3da18ad4	0.078878075
30	0xbd0aed77	-0.03391787
31	0xbda61ce1	-0.08110977
32	0x3d5baee2	0.053633578
33	0xbcf7cad1	-0.030248078
34	0x3dc011f9	0.09378428
35	0x3c40e9e7	0.011774517
36	0xbd16b6b6	-0.03679534
37	0xbd4c8d8e	-0.049939685
38	0x3d893697	0.06699865
39	0x3d229b5b	0.03969894
40	0x3d034fcc	0.032058522
41	0x3bd4ea09	0.0064976257
42	0x3c566c1d	0.0130873
43	0x3bafaf16	0.005361448
44	0x3dc002b7	0.09375518
45	0xbd0f3952	-0.034966774
46	0x3d545c97	0.051846113
47	0x3da6b19b	0.08139344
48	0x3d295e5e	0.04134976
49	0x3d4684f5	0.04846664
50	0x3ccfc76a	0.025363643
51	0x3d8bbe4a	0.06823404
52	0x3dc14443	0.09436848
53	0x3dacd6f6	0.08439438
54	0xbd3bb8d0	-0.045830548
55	0x3c4cb974	0.012495387
56	0xbcc389c6	-0.023869406
57	0x3d54209e	0.05178892
58	0x3d776fbb	0.06040929
59	0x3d96c915	0.07362572
60	0xbd79776c	-0.060904905
61	0xbcc16a46	-0.023610245
62	0x3c895bde	0.016767439
63	0x3c96f9b9	0.018429624
64	0x3c8de82e	0.017322626
65	0x3d28e40d	0.04123311
66	0x3cafbb0c	0.021451496
67	0x3d81040c	0.062996
68	0xbcab31bc	-0.020897739
69	0xbda94c1f	-0.08266472
70	0xbda55c71	-0.080742724
71	0x3be4adf4	0.0069787446
72	0x3d2743e0	0.040836215
73	0xbd3863f9	-0.045017216
74	0xbdc7b82f	-0.09751927
75	0xbd0573da	-0.032581188
76	0x3c9b3ce9	0.018949943
77	0x3d40ae47	0.047041204
78	0xbdaf1b16	-0.08550088
79	0x3d178ad1	0.03699762
80	0x3da4b6ff	0.08042716
81	0xbaa7c89b	-0.0012800874
82	0x3d8cc596	0.06873624
83	0xbcef299d	-0.029194647
84	0x3ad7633c	0.0016432772
85	0x3cafb904	0.021450527
86	0xbdac68f2	-0.08418454
87	0x3c3ff425	0.011715923
88	0x3d8da9ee	0.06917177
89	0x3d233938	0.03984949
90	0x3d8d474a	0.06898363
91	0xbc4a5397	-0.012349031
92	0xbd987112	-0.074434415
93	0x3da91dc0	0.082576275
94	0x3da27be8	0.079337895
95	0xbd252120	-0.040314794
96	0xbce14dc4	-0.027502902
97	0x3d9662bd	0.073430516
98	0xbd359f85	-0.044341583
99	0xbc0dd443	-0.008656564
100	0x3dacc343	0.08435681
101	0x3d37a6c4	0.044836774
102	0xbd92976f	-0.0715779
103	0xbcc967f1	-0.024585696
104	0xbd8792bf	-0.066197865
105	0xbd9879a7	-0.07445078
106	0x3c31c82c	0.010850947
107	0x3d9cc087	0.07653909
108	0x3c0577e7	0.008146263
109	0x3d9533d9	0.0728528
110	0x3c920f38	0.017829522
111	0xbd259ac7	-0.04043081
112	0xbcde9ecd	-0.027175331
113	0x3d8937c4	0.067000896
114	0x3d5fd642	0.05464769
115	0x3d4b12d2	0.049578495
116	0xbc618d43	-0.01376659
117	0xbd6fb49d	-0.058521856
118	0x3cc44a6c	0.023961268
119	0x3d842428	0.06452209
120	0xbdcc6a95	-0.099812664
121	0xbda6a0f1	-0.08136166
122	0x3d30bfd6	0.0431517
123	0x3d778504	0.060429588
124	0xbd07bfc7	-0.033141878
125	0xbd1327be	-0.035926573
126	0xba4df38a	-0.00078564195
127	0x3d908ccf	0.07058107

6.weight f4 [2, 128]
0	0xbd4e2555	-0.05032857
1	0x39575ffb	0.00020539753
2	0x3dd9a1e9	0.10626585
3	0x3de48ef2	0.11160077
4	0x3d50a1a4	0.050935403
5	0xbd16e3fc	-0.036838517
6	0xbd21ef1f	-0.039534684
7	0x3d6390c2	0.055557974
8	0xbdbd344b	-0.0923849
9	0x3dd9fe03	0.10644152
10	0xbdd24626	-0.10267286
11	0xbdbf7771	-0.093489535
12	0xbdbbc15b	-0.09167739
13	0xbdb8248d	-0.089913465
14	0xbd9264fd	-0.07148168
15	0xbdccfb34	-0.10008851
16	0xbd7ffb9a	-0.062495805
17	0x3d7fd4a5	0.062458653
18	0x3d2ada80	0.041712284
19	0x3d6cd409	0.0578194
20	0xbd64c4cf	-0.055851754
21	0xbba2d245	-0.0049689137
22	0xbd068327	-0.03283992
23	0xbdacd4a4	-0.084389955
24	0x3d2fcf04	0.042922035
25	0xbd0773c5	-0.03306939
26	0xbd9c7c18	-0.076408565
27	0x3c15ee1a	0.009151006
28	0x3caa24f5	0.020769576
29	0x3d30d3a8	0.0431706
30	0xbdafa47b	-0.08576294
31	0x3d26736e	0.040637426
32	0xbd450b28	-0.048106343
33	0x3cfdf3a8	0.030999973
34	0x3d207757	0.03917631
35	0x3d651780	0.055930614
36	0xbd13df18	-0.03610143
37	0x3d3984d9	0.04529271
38	0xbda30594	-0.07960048
39	0x3d7780ab	0.06042544
40	0xbdd12d05	-0.10213665
41	0xbd5cd7c9	-0.053916726
42	0xbcc81bcf	-0.024427323
43	0xbd66863a	-0.056280352
44	0x3d1ae44b	0.037815373
45	0xbd56f9e5	-0.05248441
46	0x3d6d604b	0.05795316
47	0xbd896dce	-0.06710397
48	0x3d470918	0.048592657
49	0x3d5ad36c	0.053424284
50	0x3d8511c2	0.06497528
51	0x3d60b5b5	0.05486079
52	0x3d59b6a4	0.053152695
53	0xbc04ad1a	-0.008097911
54	0xbd669fb4	-0.05630465
55	0xbc9f3feb	-0.019439658
56	0x3d03c77e	0.032172672
57	0xbd6bc608	-0.057561904
58	0xbd34ded4	-0.044157818
59	0xbd191c27	-0.037380364
60	0xbc11d3a9	-0.008900561
61	0xba047e54	-0.0005054225
62	0x3dddbd59	0.10827131
63	0x3dc9bd15	0.09850518
64	0xbd015e32	-0.031583972
65	0x3c5a3cd8	0.01332017
66	0x3db78a38	0.0896191
67	0xbc9468f5	-0.018116454
68	0xbde64668	-0.11243898
69	0xbd5e7a8c	-0.05431609
70	0xbd9044ad	-0.07044349
71	0xbd421360	-0.04738176
72	0x3c2e89c4	0.010652963
73	0x3ddbeda1	0.107386835
74	0x3bd63398	0.006536912
75	0xbd9404ca	-0.07227476
76	0x3d07e269	0.033174906
77	0x3bc7f3e0	0.00610207
78	0x3d15b8c8	0.036553174
79	0x3e0fe8b8	0.14053619
80	0x3dc3cec8	0.09560925
81	0x3d6e922c	0.05824487
82	0x3d6fc8c8	0.05854109
83	0xbd81ca95	-0.063374676
84	0x3cc06035	0.023483375
85	0x3dad4c9a	0.08461876
86	0x3d844dea	0.064601734
87	0x3d10472a	0.035224117
88	0x3d6c721b	0.057726007
89	0x3d04003a	0.03222678
90	0x3bb2eca4	0.0054603387
91	0x3d00007d	0.031250466
92	0x3d950ceb	0.072778545
93	0xbd8eb2ad	-0.069676735
94	0x3d307001	0.043075565
95	0x3c051056	0.008121571
96	0xbd1d5600	-0.038412094
97	0x3bc4388a	0.0059881853
98	0x3cf3c5e7	0.029757453
99	0xbe03e859	-0.12881602
100	0x3d0cc8b1	0.03437108
101	0x3dca9afa	0.09892841
102	0xbdebc6f2	-0.11512555
103	0xbd3a2472	-0.045444913
104	0xbd8f5c7d	-0.070000626
105	0x3d71b893	0.059013914
106	0x3d52882e	0.051399402
107	0x3d652365	0.055941958
108	0xbe0d19e3	-0.13779406
109	0xbd8d8f7a	-0.069121316
110	0xbdec9182	-0.11551191
111	0xbdd01191	-0.101596005
112	0xbd3c0a02	-0.04590798
113	0x3dec3469	0.11533434
114	0x3bb78c2d	0.005601427
115	0xbd85a9ef	-0.06526553
116	0xbdb01655	-0.085980095
117	0xbca1a15c	-0.019730262
118	0x3d108eb7	0.035292353
119	0xbab6bae4	-0.0013941196
120	0xbd0beca1	-0.034161214
121	0xbd31c9b7	-0.04340526
122	0xbdb09544	-0.0862222
123	0xbc497709	-0.012296447
124	0x3d322e8a	0.043501414
125	0x3dc29301	0.09500695
126	0x3dd72588	0.105052054
127	0xbd37fdcb	-0.04491977
128	0x3d8ba444	0.068184406
129	0xbdc4c5d2	-0.09608044
130	0x3e054112	0.13013104
131	0xbb791c5c	-0.0038011288
132	0x3db834e1	0.08994461
133	0xbd4bf34c	-0.049792573
134	0x3e067495	0.1313041
135	0x3d5c7ea7	0.053831723
136	0x3e100e16	0.14067873
137	0x3d8e293e	0.0694146
138	0x3c6ef827	0.014585531
139	0xbdf3f700	-0.11912346
140	0xbd99eb8d	-0.07515631
141	0x3e032524	0.12807137
142	0xbdb80018	-0.08984393
143	0x3db7ffc1	0.08984328
144	0xbdceb187	-0.100924544
145	0x3dba9c13	0.091118
146	0xbd4b2cad	-0.049603153
147	0x3dd90f0a	0.105985716
148	0x3e32e7b8	0.17471206
149	0x3e04daac	0.12974042
150	0xbdc43d05	-0.09581951
151	0x3c4acf01	0.012378455
152	0x3d6393e8	0.055560976
153	0x3cd9ae50	0.026572376
154	0x3ddf25ef	0.10895907
155	0x3def4621	0.11683298
156	0xbdb023cd	-0.086005785
157	0xbd31d294	-0.043413714
158	0x3ba9512d	0.0051671476
159	0x3ceb83a0	0.028749287
160	0x3d91a738	0.071119726
161	0x3dda1b46	0.10649733
162	0xbd9a3df7	-0.0753135
163	0xbdb1c831	-0.086807616
164	0xbdd5837f	-0.104254715
165	0xbd376c05	-0.04478075
166	0x3dae83d5	0.08521239
167	0xbe20aaaa	-0.15690103
168	0x3d8fd664	0.07023314
169	0x3d94305b	0.072357856
170	0xbd5b72e4	-0.053576365
171	0xbde4a45f	-0.11164164
172	0xbd87cd1e	-0.0663092
173	0x3d1e6be9	0.03867713
174	0x3d3ae767	0.04563084
175	0xbd575d2d	-0.052579094
176	0x3e026c0a	0.12736526
177	0x3d9df03b	0.07711836
178	0x3dcbf966	0.09959678
179	0x3d94ccf5	0.07265655
180	0xbc98c750	-0.018649727
181	0xbd0b53f4	-0.03401561
182	0xbd80bbd5	-0.06285826
183	0x3c54bad7	0.012983999
184	0xbd983326	-0.07431631
185	0x3d106bdd	0.035259116
186	0x3d833f48	0.06408554
187	0xbd811eba	-0.06304689
188	0x3d1f4b85	0.03889038
189	0x3dd4ed26	0.10396795
190	0xbcbfca13	-0.023411786
191	0xbc09a4ad	-0.008401078
192	0xbd6a8590	-0.05725628
193	0xbe1d4b84	-0.15360838
194	0xbd5932dd	-0.053027023
195	0xbe09d9f9	-0.13462056
196	0xbd951112	-0.072786465
197	0xbb80ed2f	-0.0039345245
198	0x3db1c6f9	0.08680529
199	0x3c8fe8a4	0.017566986
200	0xbc9c553c	-0.019083612
201	0xbd231d0a	-0.039822616
202	0x3dbf0e83	0.0932894
203	0xbdc7cab0	-0.097554564
204	0x3d9748c3	0.07386925
205	0xbca74f17	-0.020423455
206	0xbda9a2b6	-0.08282988
207	0x3d02b4d5	0.031910736
208	0x3df02e69	0.11727602
209	0xbd8bca4f	-0.06825697
210	0xbcac3582	-0.021021608
211	0x3bf8acac	0.0075889435
212	0xbe0d3ea2	-0.13793424
213	0xbd9573f5	-0.07297508
214	0x3d8a41e8	0.06750852
215	0x3dd0c143	0.10193112
216	0x3d91148e	0.070839986
217	0xbd3d3f32	-0.046202846
218	0xbd8e46d4	-0.06947103
219	0x3d9b8b5c	0.0759494
220	0xbdc8e90c	-0.09810075
221	0xbd468ac5	-0.048472185
222	0x3df4241f	0.11920952
223	0xbdc63889	-0.09678752
224	0x3d852c26	0.06502561
225	0xbd2df350	-0.04246837
226	0xbca3b007	-0.019981397
227	0x3d5f9c3e	0.054592364
228	0xbdb666fc	-0.089063615
229	0x3dd1df64	0.102476865
230	0xbb3c9379	-0.0028774424
231	0x3d6b242a	0.057407536
232	0x3c7fb906	0.015608078
233	0x3dd99015	0.106231846
234	0x3dd21801	0.10258485
235	0x3d12df19	0.035857294
236	0x3cdb7315	0.026788274
237	0xbd6d906d	-0.057999063
238	0xbb31134c	-0.0027019558
239	0x3ce11c81	0.027479412
240	0x3cd8fb77	0.026487095
241	0x3e0cda35	0.13755114
242	0x3e084c2c	0.13310307
243	0x3dbf7f5b	0.09350463
244	0x3da66941	0.08125544
245	0xbdc95826	-0.09831266
246	0xbdc193e1	-0.09452034
247	0x3cac1617	0.021006627
248	0x3d9d067f	0.07667255
249	0x3dc7605d	0.09735177
250	0xbc7983f2	-0.015229212
251	0xbde349aa	-0.11098035
252	0x3db88374	0.09009448
253	0xbc90aa5f	-0.017659364
254	0xbd58ee3d	-0.052961577
255	0x3dc34885	0.095353164

6.bias f4 [2]
0	0xbcc7b241	-0.02437699
1	0x3b800773	0.003907138
